Models/SubjectDependent/GeneratedTFLiteFilesAndOGModels/conv_mlp_model.tflite (tflite, 52084 bytes, 8 tensors)

arith.constant f4 [32, 64]
00000000: 58b1 aa3e 96fc a63e 61c2 113f e3ad aabe
00000010: 1f1f f73e fcd0 303e 1393 fd3d d68c c9be
00000020: 44e3 2ebf ee08 51bf 6068 433f ba11 663e
00000030: 0471 52bf a67b 97bf d3e5 abbe 9e2a aebe
00000040: 5541 953d 25db 103f 6ab2 f5bf d5a7 0b3e
00000050: 3e69 1dc0 0b14 a33f 393b d1be b2df 223e
00000060: b9e0 73be 2178 b4bf 25a4 12bf 5d3f 333f
00000070: 79d6 43be 535c 043f 535f 3d3f eb63 09bf
00000080: 923b 70bf 4fbc afbd 380c 7c3f 721b ec3d
00000090: ef71 603d fa08 adbf db1e 0f3f 84d6 463f
000000a0: ef13 8e3d dad1 7e3f fca9 a3bf e8ef 24bf
000000b0: 0d20 05c0 aa9c fdbc 6146 7e3d 5b92 bb3e
000000c0: 9ded 023f ad50 be3e e660 2dbf 0d99 45bf
000000d0: 597c 8abe 9a8d f93e 0256 bc3e 8a14 693e
000000e0: 5355 a23d 18f3 b33e 7632 723e 026a 393f
000000f0: 0d63 bc3e ab93 e43e a8cb 963e 2f95 cf3e
00000100: 16fc df3e 3c2d cf3e 361f 29bd 56fc 12bf
00000110: 87ec 9d3c 1397 60bb b053 253f 2f4e 313e
00000120: 4b4f 573e afa5 113f 7e4b 9c3c e11b 84bd
00000130: 2896 70be dcfa 7abe f27b be3e 88bd 0ebf
00000140: e544 6e3d 72ae 9d3e 14ab 5c3c 4d92 323e
00000150: 2335 63bc 73ff 773e 3f73 e33d a9a6 753e
00000160: 7507 8bbd b3fb b5be c341 dcbf 9d61 613f
00000170: 656e 503d 93ab 0cbf 4702 e03e d36e 80bf
00000180: 7913 133f 16ad 35be 1942 683f 743d 483c
00000190: f5a7 ef3e 943d 26bf 9738 273e c840 bf3e
000001a0: d7a1 61be 3c96 05bf 7d60 0b3f 5343 383e
000001b0: 5c59 783e 6e49 da3e 9826 9abe a6ab 943e
000001c0: 1af8 853a 1df5 2b3f 9a8a f83e 6b5e 77be
000001d0: 89ab 8b3d 1237 cfbe d249 08bf e6ba aabd
000001e0: c993 0cbf a08e 0d3f f4fe 2a3d 385b 5cbf
000001f0: 1bec 213e 4114 7bbe 5877 fd3e f256 7ebc
00000200: c693 42bf 05d2 aebf ae6d 4c3e 1a99 f63d
00000210: 4d57 2d3e 19c8 013f 013f 1dbe eb0e a6be
00000220: 68e0 a03e 07a8 893c 6381 10be e62a bb3e
00000230: 31d9 eb3e b604 453e c36b 633e 5b63 253c
00000240: 1610 45bd 9036 ddbe abae 87be 5a47 e1bd
00000250: a648 01bf cbf4 903d 88b2 c33d 4500 e5be
00000260: 1b1a e43e abec b23e 9f4f 053e 289c b03e
00000270: d3bf bf3e 3198 e5bd ac50 82be 3e79 96be
00000280: 20f3 a33d 6501 333e 7df5 2fbe c5eb 063f
00000290: 0bcf 283f 882b e3be d99e afbc 3d00 72bf
000002a0: 9d0e 383e d1ce 273f c273 0d3f 9921 b5be
000002b0: 9e07 95be d49c 9fbd 9d0c 7fbe 940e 7f3f
000002c0: 4358 78be 8cb1 1c3f d4bf 913d 012d fabe
000002d0: c9ab 6d3e 8969 d4be 1450 b03e 5e78 bebd
000002e0: 52c3 debe ad12 8bbe 49a1 563e 5dc9 0a3e
000002f0: c547 b73e 9071 31be 4cdc de3e 1544 cb3b
00000300: 070c 9e3d 8feb 363f cf78 d43e 7d07 793f
00000310: a9f5 4ebf e907 a13d e582 713d 5598 563e
00000320: 9747 debe b1da 303e 6e53 54be 5544 de3e
00000330: 06be 23bf 2e40 a73e 32c9 cebe a7ee 5e3e
00000340: d32d 7ebd ef16 82bf c5d6 4f3e 93b7 013e
00000350: 7bbf a53e 45ec 133f 5aba 373e a5b2 8d3d
00000360: 5d86 2d3e 8681 213e ab27 42bf 97db 943e
00000370: 3240 17be c896 823f 3c83 003e a5ca 1b3f
00000380: 5be7 4c3f 50d0 b13d 53a1 0c3f 80ce af3e
00000390: c2d4 0dbf f657 a6be b890 d0bc e91b 183f
000003a0: 6002 22be ce6a 8c3e ea34 eebe 5ddc a93d
000003b0: 0a86 40be 9b7a 373e 8774 203f af0d 513f
000003c0: 0005 b6bf 4165 6cbf 1c0e 5fbe ee6a 3abf
000003d0: d86d f2be f590 fd3e 34d3 3b3f aa0d 56be
000003e0: 1d08 21bf db0f 123f d487 a9bd f176 c73e
000003f0: 3402 5bbf 04eb d33e 3bb3 57bf 5913 a03e
0.33338428 0.32614583 0.56937224 -0.3333579 0.4826593 0.17267221 0.12381568 -0.39365262
-0.6831553 -0.8165425 0.7633114 0.224677 -0.822037 -1.183461 -0.3357378 -0.3401689
0.07287852 0.5658439 -1.9195073 0.13638242 -2.4595485 1.2740492 -0.40865496 0.15905645
-0.23816194 -1.409916 -0.57281715 0.7001856 -0.19124784 0.51703376 0.7397358 -0.5366809
-0.938409 -0.08580839 0.98456144 0.11528672 0.054796156 -1.3518364 0.55906457 0.77671075
0.06937396 0.9953896 -1.278625 -0.6442857 -2.0800812 -0.030958492 0.062078837 0.36635098
0.5114382 0.37170926 -0.6772598 -0.7718666 -0.27047995 0.48740846 0.3678437 0.22761741
0.079264306 0.35146403 0.23652062 0.7242738 0.3679432 0.44643912 0.29452252 0.40543506
0.43747014 0.404642 -0.04128953 -0.57416284 0.019277824 -0.0034269735 0.6458082 0.17314981
0.21026342 0.5689344 0.019078966 -0.0645063 -0.2349478 -0.24509758 0.37203938 -0.5575795
0.05817117 0.30797154 0.013468523 0.17438622 -0.013867649 0.2421854 0.11105966 0.23989357
-0.06788532 -0.35543594 -1.7207569 0.8803957 0.05088653 -0.549493 0.43751737 -1.0033821
0.5745159 -0.17741808 0.90725857 0.012221683 0.4680783 -0.6493771 0.16330181 0.37354112
-0.22034393 -0.52182364 0.54444104 0.17994432 0.24252838 0.42634147 -0.3010757 0.29037207
0.0010221035 0.6717089 0.48543245 -0.24157111 0.06819827 -0.40471703 -0.5323764 -0.08336429
-0.54913 0.55295753 0.04174705 -0.8607669 0.15812723 -0.24519445 0.49505115 -0.015523659
-0.76006734 -1.3657843 0.19963714 0.120409206 0.16927834 0.5069595 -0.15356065 -0.32433257
0.31421208 0.016803754 -0.14111857 0.36556166 0.4606414 0.19240078 0.22209077 0.010094489
-0.048111044 -0.4320569 -0.2650045 -0.10999937 -0.5050148 0.070779406 0.095555365 -0.44726768
0.44551167 0.34946188 0.13018654 0.34494138 0.37451038 -0.11210669 -0.25452173 -0.29389375
0.08005357 0.17481 -0.1718349 0.52703506 0.6594092 -0.4436915 -0.02143805 -0.94531614
0.17974325 0.6554995 0.5525476 -0.35377195 -0.29107374 -0.077935845 -0.24907155 0.9963162
-0.24252419 0.61208415 0.071166664 -0.4886246 0.23210062 -0.41486767 0.34436095 -0.09300302
-0.43508393 -0.27162686 0.20959963 0.13553376 0.35796943 -0.17328477 0.43527448 0.0062031844
0.07717138 0.71453184 0.4149842 0.9727705 -0.808436 0.07862837 0.05896272 0.20956548
-0.43413994 0.17270924 -0.20734951 0.43411508 -0.6396183 0.32666153 -0.40387875 0.21770726
-0.06205542 -1.0163249 0.20296772 0.12667684 0.3237265 0.57782394 0.17942181 0.06918839
0.16945787 0.15772066 -0.7584178 0.29073784 -0.14770582 1.0202265 0.12550062 0.60856086
0.8004052 0.086823106 0.5493366 0.34337234 -0.5540277 -0.32488984 -0.025459632 0.5941759
-0.15821218 0.27425236 -0.46524745 0.08293984 -0.18801132 0.17917864 0.62677807 0.81661505
-1.4220276 -0.92342 -0.21782726 -0.7281941 -0.4734943 0.49524656 0.73369145 -0.2090365
-0.62903005 0.57055444 -0.0827786 0.38957933 -0.85550237 0.4139024 -0.8425786 0.3126476

arith.constant1 f4 [64, 128]
00000000: 4717 013f 5186 febc 82d7 5d3e 2986 bb3d
00000010: 61ef f6be 4454 74bf d674 423e f90c 7abf
00000020: 9c55 8a3e e5ea a03e d610 8abf 0760 e4be
00000030: 851a cfbe 4526 28bf a3b9 863d 1b4b 383f
00000040: 7568 6bbd 2a5d 45bd 21a2 3f3e 6a7d 5fbf
00000050: 9ead 6ebf 5556 4dbe cd4b c63d af14 bdbe
00000060: dc38 95bf c5a4 c13e a07e 63bf c5e8 f33e
00000070: 0975 0bbf b3a2 b63e 7ae5 1b3f 8d6e 8abd
00000080: 8d19 a23d f403 373e 25f3 0fbe e75c fd3d
00000090: bb5b 353f 85b8 053f 5de1 953e 7f17 963e
000000a0: bfde c1bd 5cf8 6f3f 542e 55be 4f6c 01be
000000b0: c678 aabe 7eaa 01bf 32ef 39bf b7df d13e
000000c0: 76eb 3a3e 7e0a 3ebf 069b c7bd c459 60bd
000000d0: 7314 2abe d1b6 8ac0 f831 1dbf 32fb 1abe
000000e0: dbfb 2fbe f5a7 c1be 2431 cbbd 5dab c23e
000000f0: 477b 0dbe 35ad 0fbf 15fa 5fbd 5b69 14bd
00000100: c867 e93d d7fc 59be 7092 323d 6511 aa3e
00000110: d4f0 303e 7a10 05be c632 84be 3645 26bc
00000120: e0e1 a63e a610 ee3c 30f7 a33e dadc 75be
00000130: 06b0 d83e 7306 993e 9941 6e3e 45d8 54bf
00000140: 0260 843e 77ea 763e b37b 02bf e96e 263e
00000150: 741d b93d 34d0 f33e 53fa b6bc 24cf df3e
00000160: af0f 0c3e ab5f f0bd 7cf8 433e e825 113e
00000170: 0c77 88bf d6f8 803e b6e6 f83d 9128 7abf
00000180: 805b 3abe 2ddf 22bf 49ea a6be 6ba9 c6bd
00000190: f130 c03e 5bbe 9abf 873b 303f 265a 37be
000001a0: abd5 ca3c aeef 01bf abe2 3abf a3ce e13e
000001b0: 4d88 8bbd 6d31 87be 4811 f33e e7f1 473e
000001c0: 1c09 f2bd b189 45bf 2f6f 36be 2e87 f9be
000001d0: b67b c33e 727b 76be 0584 073f 5fcf 533e
000001e0: e0a3 28be d720 0b3e 7abd 0cbf 7299 0e3d
000001f0: a99a 48bf 0b0a c93e 8eaa 163b 3c0b ab3c
00000200: e248 363d b30c c23e 7232 153e 4dec 8fbf
00000210: 64fe a8bc 3df9 99be 537c 263f 9b5f 853e
00000220: 8e82 d9bd c516 2fbf 7db5 613e 6806 a8bf
00000230: 01ef 253f 4040 973d e6bd 0cbe 41b1 29bd
00000240: fcc2 bcbe 2b8f 4e3f 0fb0 1b3f adf4 d53e
00000250: be58 cc3e 46ad 8c3e 316d 89be f2fd 7fbf
00000260: 1ac0 d8be 2431 cd3e 02fb 8ebf 1b45 b6bc
00000270: 2bc0 dcbd 5234 12be b60e 473f f506 a8bf
00000280: ca7d b9bf 4a7e cfbe 2236 d03d 3e6c f03e
00000290: 6f0a 6c3e 3ae3 383d 2404 a33e 0d4a 173e
000002a0: 26b2 35bf e181 4ebf 3145 c5be 9ddd 223d
000002b0: ea6e 1f3f 3c41 04bf 3e3d 873e 17ee 04c0
000002c0: 040f 96bf fefb 223e 01a0 e53c 9c09 0dbd
000002d0: 407d 683e 3d99 813e 5bf2 b23e f27b ca3e
000002e0: a38f 4b3f d28d 02bf d039 f63e c334 713e
000002f0: 30ff d5be 194c 893e 11f8 513e 6540 20be
00000300: 5aa1 563f 776b 1b3d aa70 bbbd b405 46bd
00000310: d2e5 6a3c c139 74be a38f 1b3e 662e 2c3e
00000320: b842 013f a554 ac3e 89db 073f 4e1c 903e
00000330: 7d96 84be 9092 a93d 08e2 76be 2d74 463e
00000340: 495b 773e 23bc 783e 30cd bebd 4fd6 943d
00000350: cc5e 623e b9e5 d53d a1be 0dbf 5a9b 69be
00000360: fa48 d8be 930c ae3e 9db1 cf3e 0bfd 96bf
00000370: b6e6 1f3f 2acb 473e 2ff6 4d3e 9392 a5be
00000380: b6b5 883e 99a6 0e3f 9d7d 6c3d 670e 24bf
00000390: b055 68bf d013 61bf cc46 283e 44f5 383e
000003a0: 7f5b 563f 08bc 13be bbfc 963e b0f1 90bd
000003b0: 5935 763e 65b3 4c3d f790 8c3e c75e 01bf
000003c0: f2b2 e53d 61a9 0a3e 5aee d23e a43e 84bf
000003d0: 5f30 58bf 9664 8dbc 6507 fb3d 8a91 8a3e
000003e0: 1264 923e c4fc a53e 6dee 033e a179 40bf
000003f0: 74a2 e7bd 1174 d5bf 667c 643e 5545 1cbd
0.50426143 -0.031069906 0.21664241 0.091564484 -0.48229507 -0.9544108 0.18989882 -0.97676045
0.2701844 0.3142921 -1.0786388 -0.44604513 -0.4044992 -0.65683395 0.06578376 0.719896
-0.057472665 -0.04818455 0.18714191 -0.8730074 -0.9323367 -0.20052464 0.096824266 -0.36929843
-1.1657977 0.37821022 -0.8886509 0.47638527 -0.54475456 0.35671005 0.6089703 -0.06759367
0.0791503 0.17872602 -0.14057596 0.12371235 0.70843095 0.5223468 0.292735 0.293148
-0.094663136 0.9373834 -0.20818454 -0.12638973 -0.33295268 -0.50650775 -0.7263061 0.40990993
0.18253884 -0.7423476 -0.09746365 -0.054773107 -0.16609363 -4.3348165 -0.6140437 -0.15134886
-0.17185919 -0.37823454 -0.09921482 0.38021365 -0.13816558 -0.5612367 -0.054681856 -0.036233287
0.11396748 -0.21287857 0.043596685 0.33216396 0.17279369 -0.12994567 -0.25819987 -0.010148337
0.32594204 0.029060673 0.32024527 -0.2401003 0.42321795 0.29887733 0.23267211 -0.831425
0.25854498 0.24112879 -0.5097 0.16253246 0.09038821 0.47619784 -0.02233616 0.43712723
0.13677858 -0.11736997 0.19137758 0.14174616 -1.066133 0.25189847 0.121533796 -0.9771815
-0.18198967 -0.6362179 -0.3260062 -0.09700283 0.3753734 -1.2089342 0.6884083 -0.17905483
0.024760088 -0.5075635 -0.7300212 0.44102964 -0.06813107 -0.26404896 0.47474122 0.19525872
-0.11818144 -0.77163225 -0.1781585 -0.48735946 0.3818032 -0.24070528 0.5293582 0.20684575
-0.16468763 0.13586746 -0.5497662 0.034814306 -0.7836099 0.39265475 0.0022989842 0.02087938
0.0445031 0.37900314 0.14570025 -1.1243988 -0.020629115 -0.30072966 0.65033454 0.26049504
-0.106206045 -0.6839412 0.22041889 -1.3126955 0.64817816 0.073853016 -0.13744316 -0.041428808
-0.3686751 0.80687207 0.6081552 0.41788235 0.39911455 0.27475947 -0.2684112 -0.99996865
-0.42334062 0.40076554 -1.1170352 -0.022249749 -0.10778841 -0.14277771 0.7775682 -1.3127123
-1.4491513 -0.40526038 0.10166575 0.46957582 0.23050855 0.045138575 0.31839097 0.14774342
-0.7097496 -0.8066693 -0.3852935 0.03976213 0.62278616 -0.5166204 0.26413912 -2.0770319
-1.1723332 0.1591644 0.028030397 -0.034432992 0.22704029 0.25312224 0.34950528 0.39547688
0.7951605 -0.5099765 0.48090982 0.23555283 -0.41796255 0.2681587 0.20504786 -0.15649565
0.8383995 0.037944283 -0.09152348 -0.048345283 0.01433702 -0.23850156 0.15191512 0.16814575
0.5049243 0.3365833 0.5306936 0.28146595 -0.25896063 0.08279908 -0.24109662 0.19380255
0.24155916 0.24290518 -0.0931648 0.072674386 0.22106475 0.10444207 -0.55369 -0.22813168
-0.42243177 0.33993968 0.40565196 -1.1795973 0.6246141 0.19511095 0.20113443 -0.3233839
0.26701134 0.5572296 0.05773698 -0.64084476 -0.9075575 -0.87920856 0.16433257 0.18062311
0.8373336 -0.14427197 0.29489693 -0.07077348 0.24043788 0.04997577 0.2745435 -0.50535244
0.11215772 0.13541175 0.41197473 -1.0331616 -0.8444881 -0.017259877 0.1225727 0.27064162
0.28591973 0.32419407 0.12883921 -0.7518559 -0.11310282 -1.6676046 0.22313079 -0.038152058

arith.constant2 f4 [21, 32]
00000000: 1d4a 863d 295c 0cbd 5658 d53e e9ec f2bd
00000010: 3120 1cbe f98a d13e 020f cf3d 33fd fabe
00000020: 76c0 0a3e a581 9fbf 4a58 0cbe 87a9 063d
00000030: 3cef 7b3e b019 363d 6e94 18bf 831c 2c3e
00000040: fc44 d8be 1c7f cb3d 4b8f 023e 8acf 3e3f
00000050: 484b 03be 1e8c 1ebf 8add 8f3e 1623 5e3e
00000060: 2313 303f b058 3fbe 0caf 123f 6d35 8f3d
00000070: 7cad c5be 8364 15bf eaae 2ebf dc38 fe3d
00000080: 5a87 62be 7745 2d3e c7af 27bf 000c 1fbf
00000090: 72eb 29bf 4fa7 9a3e f780 c93e f20c cfbe
000000a0: 40bb 5bbf 82fe 93be d019 13bf 00aa e23c
000000b0: a9af ba3e 583a 17bf 18f5 9d3e 9000 6dbf
000000c0: a2b9 b3be 6833 5b3f bdb1 f83e c869 76bc
000000d0: 59ab 1ec0 cfe4 59bf 8f4f 6a3e 14c5 87be
000000e0: e52d cbbe 8f79 7dbe 11d5 053f acee 84be
000000f0: 0a9e 853d 7fcc 0d3f 2e26 51bf 21f0 ce3e
00000100: 897e b33e 1e3e f23e c851 293e 1f73 cdbf
00000110: 7d6d 0abf 276a 383d 3379 2b3f ed1f 84bf
00000120: 2f98 4dbf 91fb 6bbf f4d7 0c3f 16aa 503f
00000130: 3d0b 033f 9f4e 78bf ad46 8ebe 9031 19be
00000140: b1f8 a43d 37b3 e93e 63ea 2b3e b493 63be
00000150: c73d aebe b363 58bd 304e f1be 234e ce3e
00000160: c794 62be c4fd 7a3a ac7e 9e3e 4a43 79bf
00000170: 5e82 97be 40fa f43e 9ee2 2bbf 5994 febe
00000180: afab 33c0 f227 3f3f da24 2a3f 8aa3 e33d
00000190: 504d 7a3f 702d e5bf 9e5c 3e3f ef58 a33e
000001a0: 2ef1 0abf de4a df3e 59e2 4f3d 017a aa3d
000001b0: 593b 15be f8d3 90bf 0688 00bf 3bcf d6be
000001c0: ac22 e4be ffeb 62bf cb73 6a3e 6ac7 473f
000001d0: c8e8 02be 1658 a1bf 062b 3c3f ce11 463f
000001e0: aa2b 11bf 568e bf3e ba4c 1a3f dcc8 4bbf
000001f0: 2f58 a6bf 609d ae3e 6040 fbbd cbb7 c2bc
00000200: c202 f7be a35a 9b3e 8dbc 8dbf 0b56 343f
00000210: 3200 b6be fba2 e43c f380 a43e 3f58 64bf
00000220: 4aa1 3fbd 5def f0be fccb 643e 6ef8 8dbe
00000230: b9f8 363e 60c5 a33f ba5e 00bc 4f90 b5be
00000240: d2b5 f83d adaf 1dbf 368e f03e 71c5 7bbf
00000250: f50a fd3d 1c49 933e c38b 833e 9113 4ebf
00000260: 0dce e6bd 6754 f53e a109 fd3e 672a 8d3e
00000270: 5bd1 51bf 7de1 f7be e376 6fbf 4046 ef3e
00000280: 7479 81be dafb 70bf 6258 6d3f e147 b1bd
00000290: 0a95 20bf 45ab 583f da77 d3be 9bd7 303f
000002a0: 6ecc 36bf ac7c ef3e 73ae 72bd 39ea 88bf
000002b0: 6b41 73bf 7b64 333e 2156 45bf 42d8 b13e
000002c0: 0136 8f3e dbca 15be cd9c 9cbe 5ac0 9d3e
000002d0: f64a eabe beda cd3e 248f 7abe c3ca 08c0
000002e0: 8739 e53e aafd 9d3e eff3 193f f409 95bd
000002f0: aec5 0fbf e5c9 81bf c32f 0f3f 8cd2 a73a
00000300: e692 bb3b 575d 4cbf 608b 983d 47c1 a7bb
00000310: 8b94 d53e a332 34bf 2313 17be ee8f 8abf
00000320: 5ab2 dabe a605 c73e e5e5 6ebe 64bf b0bf
00000330: f39d c0be 7011 5bbf 050a 333f c4ae a13e
00000340: 827f 22be 0d22 3dbe 0b85 323f 29b0 153f
00000350: 4726 3ebf 2794 793e cff2 17bf cf52 093f
00000360: 9481 813e b717 053f 4b7d 0bbf 4c26 0d3f
00000370: fb24 42bf 368e c83e 30bc 94bf ba6d cbbe
00000380: 8676 01c0 6467 ecbf e2bf bbbe 5485 273f
00000390: 4167 303f 5cdf 87bf 4b1d 4a3e 8a2c 9fbe
000003a0: c459 ac3e 1468 e3be 5ee9 843d ecaf 25bf
000003b0: cc8b f4be 4a63 0b3f dbb1 063f 9fe2 f03e
000003c0: ce74 96bf a471 093f aa49 bebf 087c 1c3f
000003d0: e9dd 7fbf 1aba 27bf 729f 853e 060f 4e3e
000003e0: 0cda 22bf afd2 8d3e 6a4a 183e 9a84 9a3e
000003f0: 2647 7c3e db4b a03c 2e56 603e 9c9d 6cbe
0.06557105 -0.03426758 0.41668957 -0.11861593 -0.15246655 0.4092634 0.101102844 -0.490213
0.1354998 -1.2461439 -0.13705555 0.032876518 0.2460298 0.04445809 -0.59601486 0.16807751
-0.4224013 0.099363536 0.12749974 0.7453543 -0.12821686 -0.6193255 0.28098708 0.21693072
0.687792 -0.18686175 0.5729835 0.06992612 -0.3860892 -0.58356494 -0.6823565 0.12413189
-0.22121945 0.1692103 -0.6550259 -0.62127686 -0.66374886 0.3020577 0.39356205 -0.40439564
-0.85832596 -0.28905112 -0.5746126 0.027668953 0.36462143 -0.590734 0.30851054 -0.92578983
-0.35102564 0.85625315 0.48573104 -0.015039869 -2.4792082 -0.8511476 0.22881912 -0.26517546
-0.39683452 -0.24753402 0.5227824 -0.25963342 0.06524284 0.5539016 -0.8169888 0.4041758
0.35057476 0.47313017 0.16535103 -1.6050757 -0.54073316 0.04502311 0.6698181 -1.0322243
-0.8031034 -0.92180735 0.5501702 0.8150953 0.51189023 -0.96994966 -0.27788296 -0.14960313
0.080552466 0.45644543 0.1678863 -0.22224313 -0.34031507 -0.052829456 -0.47129965 0.4029399
-0.22127067 0.0009574557 0.30956018 -0.973683 -0.2959165 0.47847176 -0.67142665 -0.49722555
-2.8073537 0.74670327 0.6646248 0.11115177 0.9777422 -1.7904491 0.7436007 0.31903788
-0.5427426 0.43611807 0.05075297 0.08324052 -0.1457342 -1.1314688 -0.50207555 -0.4195498
-0.44557703 -0.8864135 0.22895734 0.78038657 -0.12784111 -1.2605007 0.7350315 0.7737092
-0.5670725 0.3741328 0.60273325 -0.7960336 -1.2995661 0.34104443 -0.12268138 -0.02376928
-0.48244292 0.30342588 -1.1073166 0.7044379 -0.35547024 0.027909746 0.3212963 -0.8919715
-0.046784677 -0.4705762 0.22343439 -0.277286 0.17868318 1.2794609 -0.007835085 -0.3546166
0.121440545 -0.61596185 0.46983498 -0.98348147 0.123556055 0.28766716 0.25692567 -0.80498606
-0.1126977 0.47915956 0.4942141 0.27571413 -0.81960076 -0.4841422 -0.9354078 0.46733284
-0.25287974 -0.94134295 0.92712986 -0.08656288 -0.62727416 0.84636337 -0.41302377 0.6907899
-0.71405685 0.46774805 -0.0592484 -1.0696479 -0.95021695 0.17518799 -0.7708455 0.34735304
0.2797089 -0.14628164 -0.3058838 0.30810815 -0.45760316 0.4020595 -0.24468666 -2.1373756
0.44770452 0.30857593 0.6013784 -0.07277289 -0.5616101 -1.0139738 0.55932254 0.0012803837
0.005724299 -0.79829925 0.07448459 -0.005119476 0.41714892 -0.70389766 -0.14753394 -1.0825174
-0.42714196 0.38871497 -0.23329885 -1.3808408 -0.37620506 -0.8557348 0.69937164 0.31578648
-0.15868953 -0.1847002 0.6973426 0.58471924 -0.74277157 0.24372922 -0.5935487 0.5364198
0.25294173 0.5198931 -0.54488057 0.5513656 -0.7583768 0.39170998 -1.161993 -0.39732152
-2.022859 -1.8469052 -0.36669832 0.6543782 0.6890755 -1.0615039 0.19737737 -0.31088668
0.33662236 -0.44415343 0.06489824 -0.6472156 -0.47762907 0.5444838 0.52615136 0.47047898
-1.1754396 0.53689027 -1.486623 0.61126757 -0.99947983 -0.65518343 0.2609821 0.20122918
-0.63613963 0.276998 0.14872137 0.30179292 0.24636516 0.01956742 0.21907875 -0.23106998

arith.constant3 f4 [21]
00000000: 91aa 45bf 2da9 85bf 9a5c 113f 9178 e73e
00000010: b0f7 a13d ebc9 103e 95a1 af3d c865 463f
00000020: 87f9 0bbd c4bc 733d c086 8339 e854 62be
00000030: e318 113f f58d 7bbe d7e0 b6bb c278 10be
00000040: afa5 93be 3123 7dbd faea 323e b928 babe
00000050: 6f0c 86bd
-0.7721339 -1.0442253 0.56781924 0.45209172 0.07908571 0.14139526 0.08575741 0.77499056
-0.034173515 0.059506193 0.00025086664 -0.22102702 0.566786 -0.24565871 -0.005581002 -0.14108565
-0.28837344 -0.06180114 0.17472449 -0.36359194 -0.0654534

arith.constant4 f4 [32]
00000000: 8fb3 b03e 0256 39be 250e b43e 2234 553d
00000010: 17de cd3e 7b8d 20bf d511 fa3e 0323 943e
00000020: 7c21 2c3f ca30 263e 7835 d23e 00c2 423e
00000030: 8683 c2be 0347 173e 57c1 a83e 875a 133f
00000040: da6c 973e f20c e43d de27 80be 141f 043f
00000050: 3a15 d9bc 3e3d c43e f046 51be eab5 eabe
00000060: 1539 15bf 4a4a 953e 76a3 893e 3624 67be
00000070: d07a 163d f05e e23d 474e ea3e c526 043e
0.34511992 -0.18099216 0.3516704 0.05205167 0.40208504 -0.6271588 0.4884173 0.28932962
0.67238593 0.16229549 0.41056418 0.19019318 -0.3799097 0.14773183 0.32960007 0.5756001
0.29575235 0.111352816 -0.25030416 0.5160992 -0.02649938 0.38327974 -0.20437217 -0.45841914
-0.58290225 0.2915824 0.26882523 -0.22572407 0.036738217 0.11053264 0.45762846 0.12905414

sequential_1/dense_1_2/Add/ReadVariableOp f4 [64]
00000000: e724 443e 7d7a a7bc 230f c03c 99a3 a4bc
00000010: afb3 ae3e c4db fd3e 3002 99bd 918c 01bf
00000020: 75f8 063f 85d9 27be e0ef 393c a089 693d
00000030: f539 3b3f 21e2 b7be 3e30 ce3d 8a2b 02bd
00000040: 0714 ab3e f6c8 c13d bbda cbbe e0ca 5abe
00000050: b2fd 353e 83fb 143f b876 303f ea82 febc
00000060: 6b94 ab3e 7cf6 7d3e 28c2 543e ba1b 173f
00000070: ecd5 5f3c 5c8f 0c3d de7c 79bc f21d 1f3f
00000080: 4a1d b13e a489 d5be 438c 9a3e 3787 ea3e
00000090: 5217 2a3f 6f72 33bf 4be9 113f 0853 ce3e
000000a0: 8c3d 7a3d 83af 1b3f 7b3e 793e 8c0a 263e
000000b0: 95f5 14bf 741a dcbd c134 1cbf 9da5 b1bd
000000c0: 1726 003f 1531 f93e 4b24 6ebe b9bf 3cbe
000000d0: 7340 223e 3eae 2b3e 3fda cb3e 1436 9a3e
000000e0: bcff 063e 7340 c1be ec59 413f 5521 193f
000000f0: 8969 203f 35f6 0a3e 5f2b 763e 9b27 ab3e
0.19154702 -0.02044415 0.023444718 -0.02009754 0.34121463 0.4958173 -0.0747112 -0.5060511
0.52722865 -0.16391571 0.011348695 0.057016015 0.7313531 -0.3591471 0.10067795 -0.031779803
0.33413717 0.094621584 -0.39815316 -0.21366453 0.17772558 0.58196276 0.6893115 -0.031068284
0.3351167 0.24801058 0.2077719 0.5902668 0.013661843 0.034316406 -0.015227525 0.6215507
0.34592658 -0.41706574 0.30185136 0.45806286 0.66441834 -0.70096487 0.569966 0.40297723
0.061093852 0.60814685 0.2434024 0.16214961 -0.5818723 -0.10747233 -0.61017996 -0.08674166
0.5005812 0.4867026 -0.23256032 -0.18432511 0.15844898 0.16765687 0.39814946 0.30119383
0.13183492 -0.37744483 0.75527835 0.59816486 0.62661034 0.13570483 0.24039982 0.33428654

sequential_1/dense_1/Add/ReadVariableOp f4 [128]
00000000: b007 a4bb 1bd4 6e3d d167 eabc 3d24 65bf
00000010: 68df 73be 9bb7 47be 00af 03be b552 2dbf
00000020: 07db 073e 9cfb 013e 7575 00be 30f7 5cbe
00000030: e252 8fbd a112 a2be 448d 0bbf 63b4 8c3d
00000040: f80a 68bf a98f a1be 3077 5cbe 202f 92bb
00000050: 2ffa b9be 1f99 753e 47b5 7e3d e188 d73e
00000060: ed15 67bf 83ca c0bc 549e 0cbf 65c4 17bd
00000070: 1508 93be 864f 0d3f 26d1 0cbe 180f 10bf
00000080: e4cc 91be ff28 853e ec7b 88bd 4c46 4cbf
00000090: 3326 1cbf 4400 2bbe 02b6 49be db8d 9dbe
000000a0: 724d 8fbd c934 f1bd 4229 683e c8ea 663d
000000b0: 1341 9fbe 6c8f 3b3e 7d5a 0bbf 7913 bebe
000000c0: c86d a33e c94e 24bf 9eef eabe a849 63bd
000000d0: 2350 adbd 54e2 37bb f521 f5be ce03 eebd
000000e0: ddad 03bf 7512 c2be 7a16 81bf 541e 833e
000000f0: b477 81be 2fcc 173d 6c76 05be 283d d8bd
00000100: e7f4 9cbe 04f6 1fbe 104a e8be 273b 4f3e
00000110: 1cc6 f83e 1254 35bb 62f3 b9bd a7ed 56be
00000120: 9986 76be 4169 83bf 1468 ddbe 769e b4bd
00000130: d521 9cbe b45a ba3e e9d6 d1bd dbf1 54be
00000140: f0ee 213e 4b2c 0dbe 3a12 fbbd c80e b53c
00000150: 83c2 b2bc 2b32 abbe 0072 efbd 5988 54be
00000160: 814f 593e cb55 81be 4cd1 23be cf4e 9fbe
00000170: 3954 aebe a735 91bd 64b9 133e 9eb1 4abf
00000180: 7f52 b1bc 2319 02bf 6995 043e d3ab 433e
00000190: 5267 52bd 7c16 c9bd 2ccc b03d 2a06 95be
000001a0: a30d 32bf a958 59be 65f2 aabc e704 b8bc
000001b0: b75d 92be dc2f c53c 6f62 8ebd d9cb 953d
000001c0: 7e74 9fbe 5f5a 52bf 4bc2 69be 6235 94bd
000001d0: 5f21 2ebe 7847 1e3d f53e 3bbe b275 06be
000001e0: e6f4 13bf 840b 33bc 104c 5dbf 820a bd3c
000001f0: 2bbb 07bf 3875 fa3d 6e3d 49be 35d8 30be
-0.0050057992 0.05830775 -0.028613957 -0.8950842 -0.23815691 -0.19503634 -0.12859726 -0.67704326
0.13267146 0.12693638 -0.12544806 -0.2157867 -0.069982305 -0.31654838 -0.5451243 0.068703435
-0.90641737 -0.31554917 -0.21529841 -0.004461184 -0.36323687 0.23984192 0.0621846 0.42096618
-0.9026783 -0.023534065 -0.5492909 -0.03705253 -0.28717104 0.5519947 -0.13751659 -0.5627303
-0.28476632 0.2600784 -0.06664261 -0.79794765 -0.6099579 -0.1669932 -0.19698337 -0.3077229
-0.069971934 -0.11777646 0.22671989 0.05637625 -0.31104335 0.1831643 -0.5443495 -0.3712423
0.31919694 -0.64182717 -0.45885938 -0.055490166 -0.084625505 -0.0028058486 -0.4787747 -0.116218194
-0.5143717 -0.37904707 -1.0084984 0.25609076 -0.2528664 0.03705996 -0.13033456 -0.1055854
-0.30655596 -0.15621191 -0.45369005 0.20237409 0.48588645 -0.0027668518 -0.09079625 -0.20989095
-0.24074782 -1.0266496 -0.43243468 -0.088192865 -0.30494562 0.36397326 -0.10246069 -0.20795386
0.15813804 -0.13786428 -0.12259336 0.022101775 -0.021821266 -0.33436713 -0.11691666 -0.20755138
0.21221735 -0.25260767 -0.15997809 -0.31114814 -0.34048632 -0.070903115 0.1442619 -0.7917727
-0.021645783 -0.50819606 0.1294762 0.19108514 -0.051368065 -0.09818742 0.08632693 -0.29106265
-0.6955206 -0.21225227 -0.020867536 -0.022463275 -0.28587124 0.024070673 -0.069523685 0.073142715
-0.31143564 -0.82169145 -0.22828023 -0.072367445 -0.17004918 0.038642377 -0.18285735 -0.13130835
-0.5779556 -0.0109280385 -0.8644419 0.0230763 -0.5301997 0.12229389 -0.1965234 -0.17269976

sequential_1/dense_1/MatMul f4 [128, 9]
00000000: b8d8 04bf 2ef5 babe 15b0 353f 3d1c b1bd
00000010: 76ba 343e 760c 113d 18a1 37bf b458 76be
00000020: fccc 1f3d 54ad 2c3f 9731 ad3c 6d2a f03d
00000030: e303 eebe 7058 063d 2943 bdbe a1a9 43bf
00000040: 3fd3 4d3e 0f54 b3ba 7c50 5bbe d875 7cbd
00000050: 6a7e a13d 5a6c db3d 3367 fb3f e635 debf
00000060: b95a f2bd 005d 2cbe 9dd4 e13b 3274 3a3c
00000070: 3d0f 823e f829 e2be e6f2 e33e f547 8f3e
00000080: 6253 313e 836c c63e 60e7 2d3e 15b9 933f
00000090: 3f4a 103e 1245 9ebf 6d2e 353e ac62 bd3e
000000a0: 02ef 05bf e6c7 273e 7bdf 4e3f 4907 613b
000000b0: c703 e23e 5a0b 01bf 6adf e63e 4711 943e
000000c0: 9974 153f 4fdc 813d 860a 9c3e 428c bbbf
000000d0: 5bf2 acbd fb15 86be f272 50bd 03b7 fdbd
000000e0: ed20 19bd da6f 8c3f f8d3 c7bf 1833 82bd
000000f0: 7e91 213e b402 21bd 83c4 063d 8ece 153f
00000100: a9f4 94be 093e d63d 196e 523f aa9a 313f
00000110: e155 173f 47f8 2b3f b1e4 5a3f 3f16 00bf
00000120: e287 86bf 55e9 f63e 426b 473e 922b 7b3e
00000130: 63e6 863e f3e2 1c3e 4519 29bf d87c 82bf
00000140: c576 8a3a ff8a 1cbf af17 153f e9ed cb3d
00000150: c8fe d3be 1699 fbbc d5be 48bf 547c 10bf
00000160: 0a76 15bf 4608 e13c ef21 6ebe 5775 77bf
00000170: d31b 663e 7368 25be c1cd c33e 027f 67be
00000180: 69ff 993e b760 143f d311 82bd 6ee4 febd
00000190: 950c babf 1fba 5c3f f8bf b2be 6e9b f8bd
000001a0: 3628 113e 109e 34bf bd63 df3d bffa c43b
000001b0: 8ba4 c83c 2347 26bf 31fe cd3e cb90 113e
000001c0: a776 0f3e 498f bb3e 8dba 49bf c8e8 023f
000001d0: ac9e 47be b215 48be 415a c2be bf53 a1be
000001e0: e264 41bc 7eb5 2dbe d66c 4dbe d48e a93e
000001f0: ab37 4c3f 2588 35be 0876 0ebd e527 883e
00000200: 0adb f03d 042b eebc e9fc a93f e977 4f3f
00000210: 78fc 67be 6ab5 05bf 8e64 913e 1d34 3cbf
00000220: 219d 603f 8403 9e3e 00a0 27bf 3022 25bf
00000230: 41a0 1fbf 25d3 4fbf 70e7 25bf bd1b d53c
00000240: e4f7 eabe 5b3d dd3d 5b38 5d3e 31d4 973d
00000250: 5b85 8b3f f999 c53d 9348 58be 0005 d33e
00000260: e8a4 203f ef0c e0be f004 3b3e ce74 33be
00000270: 7b5b 813f 6841 aa3e 69c3 3abf 5e67 af3e
00000280: dbf8 13bf 8e9e 033f c73b a0be 6996 40bc
00000290: 2de6 4cbe 72e8 82be 3877 0c3f 1624 2ebf
000002a0: d9e6 853f 9a0e b7be 2a0a 333f 4c60 febe
000002b0: 8df4 f4be 1002 36bf a627 23bf a997 c13e
000002c0: ddd5 8e3d 3334 1d3f 2d29 b23e acc7 d43c
000002d0: 0242 92be e41a aabe 9a5a d6be 4c52 843e
000002e0: 399f babf 7420 0e3d 9d00 1e3f 7f1e ac3d
000002f0: bc06 a7bb 53bf 393e 9c22 093f b672 69bd
00000300: 1d77 a53e 991b 64be b73d 3ebe ebae 2abe
00000310: 26ee 85be a8a8 cc3d 64a3 b13d 7123 e63e
00000320: eb53 093e 7378 a8bf 2230 01bf 3da9 95be
00000330: c79b 20be ce53 dcbd 315f e13b b94f 063f
00000340: d0d1 24bf 7842 0dbf 7168 82be bd4c fcbe
00000350: 4de5 21bf cac3 d93e 530b 9a3e 2c9c 9abd
00000360: 28f0 143f 680d adbf 6432 e13e 4b33 bb3e
00000370: c83e d33e ff1f 133f 5856 16bf 09f9 38bf
00000380: b263 073e 5d14 4f3b abc2 19bd 23b8 543c
00000390: c582 0040 2837 86be d1be 64bf f083 ff3b
000003a0: 1b2b ffbb fccb bdbb 76fd a03a 19e5 ac3d
000003b0: 1e8a 5c3c 7a2c 6d3e 8016 99be 9a32 2ebe
000003c0: 96d4 9dbf bd81 453f 56fa 5e3c 148e bdbd
000003d0: 3cbd 5fbb d06f 6e3d 48e8 ea3f 3610 7f3f
000003e0: 8ed7 c9be 29f4 92bd d919 b8bd 29b1 22bc
000003f0: 6651 23bf fd71 1b3f f5d5 b4bd 4fa4 69bd
-0.51893187 -0.36515182 0.70971805 -0.08647964 0.17649254 0.035412274 -0.71730185 -0.24057275
0.039013848 0.6745198 0.02114181 0.11726842 -0.4648734 0.032799184 -0.36965302 -0.7643071
0.20100115 -0.0013681668 -0.21417421 -0.061635822 0.0788544 0.10714026 1.9640869 -1.7360198
-0.1183371 -0.16832352 0.0068918006 0.011380242 0.2540225 -0.44172645 0.44521254 0.27984586
0.17316964 0.38754663 0.16982794 1.1540858 0.14090823 -1.2364829 0.17693491 0.36989343
-0.5231782 0.16384849 0.80809754 0.0034336618 0.44143507 -0.50407946 0.45092326 0.28919432
0.5838104 0.06340849 0.3047678 -1.4652178 -0.08444663 -0.26188645 -0.05089087 -0.12388422
-0.037384916 1.0971634 -1.5611563 -0.063574016 0.15778157 -0.03930922 0.032902252 0.585183
-0.2909291 0.10461051 0.82199246 0.69376624 0.59115416 0.67175716 0.85505205 -0.50033945
-1.0510218 0.48224893 0.1947451 0.2452834 0.26347646 0.1532095 -0.66054183 -1.0194349
0.001056396 -0.6114959 0.58239263 0.09957487 -0.4140532 -0.030712646 -0.78416187 -0.5643971
-0.5838324 0.027469765 -0.23255132 -0.9666342 0.22471552 -0.16153125 0.38242915 -0.22607043
0.30077675 0.57960075 -0.06351056 -0.12445913 -1.453509 0.862215 -0.34912086 -0.12139021
0.14175496 -0.70553684 0.109076954 0.0060113366 0.024492523 -0.64952296 0.40232995 0.1421539
0.14010106 0.36632755 -0.7880028 0.51136446 -0.19494122 -0.19539526 -0.37959483 -0.31509206
-0.0118038375 -0.16963765 -0.20061049 0.33116782 0.7977244 -0.17727716 -0.034780532 0.26592937
0.117605284 -0.029073246 1.3280307 0.81042343 -0.22654903 -0.5222994 0.2839703 -0.7351702
0.8773976 0.30862057 -0.65478516 -0.6450529 -0.62353903 -0.81181556 -0.6480627 0.026014203
-0.4589225 0.10802718 0.21603529 0.07413519 1.0900072 0.096485086 -0.21121435 0.41214752
0.62751627 -0.43759868 0.18263602 -0.17525026 1.0106043 0.33253026 -0.7295442 0.3425855
-0.578016 0.5141381 -0.31295606 -0.011754611 -0.2000968 -0.25567967 0.54869413 -0.6802381
1.0461074 -0.35753328 0.69937384 -0.49682844 -0.47842827 -0.710969 -0.63732374 0.3781102
0.06974385 0.61407775 0.3479704 0.025974117 -0.28565985 -0.3322364 -0.41865999 0.25844038
-1.4579841 0.03469892 0.61719686 0.08404254 -0.0050972383 0.1813939 0.53568435 -0.056994162
0.3231744 -0.22276153 -0.1857823 -0.16668288 -0.26158255 0.09993106 0.086737424 0.44948915
0.13410918 -1.3161758 -0.5046407 -0.2923068 -0.15684424 -0.10758172 0.006877803 0.524654
-0.6438265 -0.5517955 -0.25470307 -0.49277297 -0.6324051 0.42532188 0.30086765 -0.07549319
0.5817895 -1.3519716 0.43983757 0.3656257 0.41258836 0.574707 -0.587255 -0.72255
0.13221624 0.003159783 -0.037539165 0.012983355 2.0079815 -0.26213956 -0.8935366 0.0077977106
-0.007787121 -0.005792139 0.0012282568 0.084421344 0.013460664 0.23161498 -0.2989998 -0.1701149
-1.2330501 0.7715109 0.013609489 -0.09255615 -0.0034139892 0.0582121 1.8352137 0.9963411
-0.39422268 -0.07175476 -0.08989305 -0.009929934 -0.6379608 0.6072081 -0.088298716 -0.057041463
