Models/SubjectDependent/GeneratedTFLiteFilesAndOGModels/conv_mlp_model.tflite (tflite, 52084 bytes, 8 tensors)

arith.constant f4 [32, 64]
0	0x3d5f4849	0.054512296
1	0xbea0104f	-0.31262442
2	0x3eb679f1	0.3563991
3	0x3f25cbd1	0.64764124
4	0x3f91f5e8	1.140317
5	0x3e880009	0.26562527
6	0xbc2f7040	-0.010707915
7	0x3f811c09	1.0086681
8	0xbc827341	-0.015924098
9	0x3bb62caa	0.0055595236
10	0xbd304c1e	-0.04304134
11	0x3de7ec1f	0.113243334
12	0x3eadf4d9	0.33975866
13	0xbe9b8ea3	-0.3038226
14	0xbe90e3fc	-0.28298938
15	0x3c709147	0.014683074
16	0xbd7986b2	-0.06091947
17	0xbebfaf14	-0.37438262
18	0x3e8a5cab	0.27023825
19	0xbee7f91d	-0.45307246
20	0x3db7dd0e	0.0897771
21	0xbe48ffc7	-0.19628821
22	0x3f17fcb7	0.5936999
23	0x3f2f8ded	0.68575937
24	0x3e299608	0.16561139
25	0x3ed90c98	0.4239242
26	0xbe36de18	-0.1785816
27	0xbece2401	-0.40261844
28	0xbeb538a7	-0.35394785
29	0xbea14b69	-0.31502846
30	0x3e9acc57	0.30234024
31	0xbe70437e	-0.23463246
32	0x3e29fb14	0.16599685
33	0xbf869d2e	-1.0516717
34	0xc00c1788	-2.1889362
35	0x3e7bde70	0.24596572
36	0xbf530b87	-0.82439464
37	0x3eeb505c	0.45959747
38	0x3f2409c6	0.64077413
39	0x3f80a676	1.00508
40	0xbeb5554e	-0.35416645
41	0xbdbf9e60	-0.093563795
42	0xbe4c8461	-0.19972374
43	0xbef8e5a6	-0.48612708
44	0xc004ccc3	-2.0749977
45	0x3e337d03	0.17528157
46	0x3cb93bbf	0.022611497
47	0xbecb7511	-0.39737752
48	0x3d6a5748	0.057212144
49	0x3f3baea2	0.73313344
50	0xbf2c9a16	-0.67422616
51	0xbee9b3e7	-0.45645067
52	0x3f26b04e	0.6511277
53	0x3f69da5f	0.9134883
54	0x3e88e252	0.2673517
55	0x3e6afcfa	0.22948065
56	0x3ec033fa	0.37539655
57	0x3d58a220	0.05288899
58	0x3e844ff5	0.25842252
59	0xbf218eae	-0.63108337
60	0xbd7a70bd	-0.06114267
61	0x3f51981d	0.8187273
62	0x3e377bbf	0.17918299
63	0xbe38a86c	-0.18032998
64	0xbcb89637	-0.022532566
65	0x3d1ff9db	0.03905664
66	0xbedfe891	-0.43732122
67	0x3e73f54a	0.23824039
68	0x3e466520	0.19374514
69	0x3eb9c8d9	0.36286047
70	0xbf20fe60	-0.62888145
71	0x3f00a072	0.5024482
72	0xbec18fbe	-0.3780498
73	0x3ed4b588	0.41544747
74	0x3ec9fc92	0.39450508
75	0xbd50452d	-0.05084722
76	0xbc8f04fc	-0.017458431
77	0x3ebf657d	0.37382117
78	0x3dca369f	0.098736994
79	0x3ee44879	0.44586542
80	0x3edff6bd	0.43742934
81	0xbee64788	-0.4497645
82	0x3cf8a825	0.030353615
83	0xbe1a9f6c	-0.15099877
84	0x3ee0bc39	0.43893602
85	0xbec961a4	-0.39332306
86	0x3eb3fc51	0.3515344
87	0xbd9fe382	-0.078070655
88	0x3c203fac	0.009780806
89	0x3edcc4d1	0.4311891
90	0x3eb929e7	0.3616478
91	0xbf92d96a	-1.14726
92	0x3f11ea3c	0.5699804
93	0xbda659f4	-0.08122626
94	0x3eabf56c	0.3358568
95	0x3e10c41c	0.1413731
96	0xbfb1f01c	-1.39014
97	0x3e9d7e16	0.30760258
98	0xbe176770	-0.14785552
99	0x3d81aa83	0.06331351
100	0x3e51443e	0.20436189
101	0xbfb86d60	-1.4408379
102	0x3eb4b025	0.35290638
103	0xbf46572c	-0.77476764
104	0x3e56efa4	0.20989853
105	0xbe6563ee	-0.22401401
106	0xbf89f2f3	-1.0777267
107	0xbdbad1df	-0.09122061
108	0x3dbcfa40	0.09227419
109	0xbeeeddc0	-0.46653557
110	0x3dea772d	0.11448512
111	0x3e66703d	0.22503753
112	0xbe7483a9	-0.2387835
113	0x3e31b0d1	0.17352606
114	0xbc7c4d07	-0.015399224
115	0xbe817b8f	-0.2528958
116	0xbedb7258	-0.42860675
117	0x3dd6e0d9	0.10492105
118	0x3e948eac	0.290151
119	0x3f549973	0.83046645
120	0x3eef8af7	0.4678571
121	0x3ed8f6ad	0.423757
122	0xbffe6765	-1.9875304
123	0x3edcaaec	0.43099153
124	0x3d5f633e	0.054538004
125	0xbf077ede	-0.5292796
126	0xbe9f3220	-0.3109293
127	0x3f780c6d	0.9689396
128	0x3e95c6ea	0.29253322
129	0xbf534e0f	-0.8254098
130	0xbda5622e	-0.08075367
131	0x3c94ee09	0.01817991
132	0x3d4402a7	0.047854092
133	0x3f10c9f5	0.5655816
134	0xbe83b6e9	-0.25725487
135	0x3e24b83a	0.16085902
136	0xbe75f1df	-0.24018048
137	0x3e86dda1	0.26340964
138	0x3eaa775c	0.3329419
139	0x3f22c728	0.6358514
140	0x3f0b93ff	0.545227
141	0x3eec22f5	0.4612042
142	0x3e6e5e3b	0.23278134
143	0x3ea88d8a	0.32920486
144	0x3e555857	0.2083448
145	0xbee11aaf	-0.4396567
146	0xbd975ba3	-0.07390525
147	0x3e68734b	0.22700231
148	0x3dc4fced	0.09618554
149	0xbec38dca	-0.38194114
150	0xbe561a82	-0.2090855
151	0x3e372d6e	0.17888424
152	0x3f4b69b5	0.7945817
153	0xbe240849	-0.16018786
154	0x3f0ce2ad	0.5503338
155	0x3e5e3308	0.21699154
156	0x3eea0cd2	0.45712906
157	0xbe47a8ae	-0.1949794
158	0xbf0f685f	-0.5601863
159	0xbe9fb9b4	-0.31196368
160	0xbdc42e79	-0.095791765
161	0x3ec1c4ab	0.37845358
162	0x3d866c13	0.06563582
163	0xbe7de31e	-0.2479367
164	0xbe3da323	-0.18519263
165	0xbcedea1c	-0.029042296
166	0x3dfcc6bc	0.12342593
167	0xbd831934	-0.064012915
168	0xbed4d656	-0.41569775
169	0xbe932716	-0.28740758
170	0xbf10698f	-0.5641107
171	0xbd312156	-0.043244682
172	0xbd3a294e	-0.045449547
173	0xbef24f5f	-0.4732618
174	0x3f354349	0.70805794
175	0x3f210f1c	0.6291368
176	0x3f1b768b	0.6072776
177	0x3e994345	0.29934135
178	0x3f412f2c	0.75462604
179	0x3ea7e0ca	0.32788688
180	0xbd26113f	-0.04054379
181	0xbe67e058	-0.22644174
182	0x3e040e1b	0.12896006
183	0x3f3e5bcd	0.74358827
184	0x3f10c364	0.5654814
185	0xbeb8d691	-0.361012
186	0xc019799a	-2.398047
187	0x3e8b44ad	0.27200833
188	0x3d866ee7	0.06564122
189	0xbf282a68	-0.65689707
190	0xbf3e25e2	-0.74276555
191	0x3e8b6262	0.27223498
192	0xbe2b7c8a	-0.16746727
193	0xbe676cf6	-0.22600159
194	0x3f08d4b4	0.5344956
195	0x3f8f0f53	1.1176552
196	0xbeccc048	-0.3999045
197	0xbf3bb012	-0.73315537
198	0xbdf1606e	-0.11785971
199	0xbee92d46	-0.45542353
200	0x3ea325fd	0.3186492
201	0xbe80ea72	-0.25178868
202	0x3e8ccd87	0.27500555
203	0xbfb1c4fd	-1.3888241
204	0x3cf171ec	0.029473267
205	0x3f7406aa	0.9532267
206	0x3e2c465e	0.16823718
207	0xbe8ce588	-0.27518868
208	0x3f0d765a	0.55258715
209	0xbe2896ee	-0.16463825
210	0xbf20ffad	-0.6289013
211	0x3f48a72c	0.78380084
212	0x3f167ead	0.5878704
213	0x3e131ef3	0.14367275
214	0xbd9bc20c	-0.07605371
215	0x3d4e8213	0.050417017
216	0x3eddc753	0.43316135
217	0x3f4e9888	0.80701494
218	0xbf9978be	-1.1989973
219	0xbd84b474	-0.06479731
220	0xbdaf092c	-0.08546671
221	0xbf1f9cd4	-0.62348676
222	0xbe891ac7	-0.26778242
223	0xbda8e5e3	-0.082469724
224	0x3d33cbde	0.043895595
225	0x3d0c4e01	0.034254078
226	0x3ea8b5bf	0.3295116
227	0xbf369f65	-0.71336967
228	0xbf69a198	-0.912622
229	0xbd9cf3fb	-0.07663723
230	0xbe814601	-0.2524872
231	0x3e97e551	0.29667142
232	0x3e794af9	0.24345006
233	0xbf08cba7	-0.5343575
234	0x3e9f1c7d	0.31076422
235	0xbf932ce9	-1.149808
236	0xbdec2d43	-0.115320705
237	0xbf8ddf17	-1.1083707
238	0x3e5c5834	0.21518022
239	0xbe9c52b9	-0.30531862
240	0xbefdc022	-0.49560648
241	0x3f5852fb	0.8450162
242	0x3eacdb77	0.33761188
243	0xbe46fe05	-0.19432838
244	0x3d4f2c94	0.050579622
245	0x3ed4c6d5	0.41557947
246	0x3e5fbb19	0.21848716
247	0x3d72abc1	0.05924583
248	0x3ded05b0	0.115733504
249	0x3eabfad7	0.33589813
250	0x3f21baf8	0.63175917
251	0xbf8d376e	-1.1032541
252	0xbdfb6f22	-0.12277056
253	0x3f29ef5e	0.6638087
254	0x3d9969ee	0.074909076
255	0xbd69a3c7	-0.057040956

arith.constant1 f4 [64, 128]
0	0x3f177395	0.5916074
1	0x3e32b4af	0.17451738
2	0x3f1cb9bd	0.61220914
3	0xbdd4692e	-0.10371624
4	0x3e336901	0.17520525
5	0xbf01e684	-0.50742364
6	0x3df2c963	0.11854818
7	0x3f0ae6db	0.5425851
8	0xbe12dc55	-0.14341862
9	0x3e02d37c	0.12775987
10	0xbe8adaf0	-0.2712016
11	0xbe558691	-0.20852114
12	0xbea1ea24	-0.31623948
13	0xbe616abb	-0.2201337
14	0xbe0e0448	-0.1386882
15	0x3ee0705a	0.43835717
16	0x3e88adca	0.2669509
17	0x3d9e42be	0.07727574
18	0x3f0a30f0	0.5398092
19	0x3e349320	0.17634249
20	0xbdfa34f6	-0.12217133
21	0xbdde1837	-0.10844462
22	0xbe42edba	-0.19035998
23	0x3e4d4b1a	0.2004818
24	0xbeed5ba9	-0.46358994
25	0xbe8ed24b	-0.27894816
26	0xbf25025f	-0.64456743
27	0xbf26408c	-0.6494224
28	0x3dc4f195	0.096163906
29	0x3d1580af	0.036499675
30	0xbda5c927	-0.080950074
31	0x3dc07052	0.093964234
32	0x3f233ec0	0.63767624
33	0xbd253433	-0.040332984
34	0xbd64bc43	-0.055843603
35	0x3e0f6b64	0.1400581
36	0xbdc09591	-0.094035275
37	0xbd37de2c	-0.044889614
38	0xbe2d0237	-0.16895376
39	0xbe2f5da3	-0.17125563
40	0xbf2c8c86	-0.6740192
41	0xbe8752cc	-0.26430357
42	0x3ec44d2c	0.38340127
43	0xbe76336a	-0.2404305
44	0x3f0a5fed	0.5405262
45	0x3e2ee7e8	0.17080653
46	0x3dbf9fbc	0.09356639
47	0xbd8f6c42	-0.070030704
48	0x3f0b09e9	0.54311997
49	0xbe4fdac1	-0.20298292
50	0xbe74546c	-0.2386033
51	0xbeb15efa	-0.34642774
52	0xbc7d457b	-0.01545846
53	0x3edf2c05	0.43588272
54	0x3f4534f1	0.7703391
55	0xbf3283d8	-0.6973243
56	0xbd229df0	-0.039701402
57	0xbfb49011	-1.4106466
58	0x3e71597f	0.23569296
59	0xbb912c35	-0.0044303187
60	0xbb7b1423	-0.0038311563
61	0x3e4bbcd7	0.19896255
62	0xbf5501f2	-0.83206093
63	0xbff178a0	-1.8864937
64	0xbf855d10	-1.0419025
65	0x3de8a601	0.11359788
66	0xbece236a	-0.40261394
67	0x3ca72bb1	0.020406576
68	0x3f0b82da	0.5449654
69	0xbf4b5dd8	-0.7944007
70	0x3e7ea749	0.24868502
71	0x3ef1c2a1	0.47218803
72	0xbe8c97a2	-0.27459437
73	0x3edcc357	0.43117782
74	0x3e97f6f4	0.29680598
75	0xbdc0e783	-0.09419157
76	0x3cb949ee	0.02261826
77	0x3ef0846e	0.46976036
78	0x3f0fceea	0.561751
79	0x3e81b68d	0.25334588
80	0x3dcb5567	0.099283986
81	0x3d989aec	0.07451424
82	0x3df3873e	0.1189103
83	0x3d4cb6de	0.049979083
84	0x3de749da	0.11293383
85	0xbe5791d1	-0.21051718
86	0xbef7282a	-0.4827283
87	0xbf716327	-0.9429192
88	0x3e43cc1d	0.19120832
89	0xbc8ee398	-0.01744251
90	0x3ede4e54	0.43419135
91	0xbee673f6	-0.45010346
92	0xbe872e65	-0.26402584
93	0x3e7aa993	0.2447875
94	0xbf450650	-0.7696276
95	0x3d9cffc5	0.07665972
96	0x3f071ef1	0.5278159
97	0xbaa1718b	-0.0012317164
98	0xbe1f1ef5	-0.15539153
99	0x3f02e5c3	0.5113184
100	0xbf04f09e	-0.5192965
101	0xbf4e0215	-0.80471927
102	0x3b9b7989	0.0047447127
103	0xbc048250	-0.00808771
104	0xbe828267	-0.25490114
105	0xbedee48b	-0.4353374
106	0x3eb623a7	0.35574076
107	0xbe420159	-0.18945827
108	0xbe50d5ef	-0.20394109
109	0xbd2c70a6	-0.042099617
110	0xbe27e453	-0.16395693
111	0xbdddeea9	-0.108365364
112	0x3c79e8e5	0.01525328
113	0x3eafae59	0.34312704
114	0xbf0a581a	-0.5404068
115	0x3e19094b	0.14944951
116	0xbeacaf34	-0.3372742
117	0xbd81c8bb	-0.063371144
118	0xbaf9a76b	-0.0019047087
119	0x3ee56c18	0.4480903
120	0xbe2947ae	-0.1653125
121	0x3efee481	0.4978371
122	0xbea17f0a	-0.31542236
123	0x3f1d3dfc	0.61422706
124	0xbd525429	-0.051349793
125	0xbf295e24	-0.6615927
126	0x3eab681e	0.33477873
127	0x3e846239	0.25856188
128	0x3e8188f3	0.25299796
129	0x3f25dd86	0.6479114
130	0xc003b68e	-2.0580173
131	0x3e90884c	0.28228986
132	0x3f32d342	0.69853604
133	0x3e8b9137	0.27259228
134	0xbdc02979	-0.0938291
135	0x3f2c8dbb	0.67403764
136	0xbe6665ea	-0.22499815
137	0xbe00ef1a	-0.1259121
138	0x3d8b6f6c	0.068083614
139	0x3e90bc08	0.28268456
140	0x3ebf7517	0.3739402
141	0x3f024deb	0.50900143
142	0x3d81f228	0.06345016
143	0xbede0b8a	-0.4336818
144	0x3f1f03d0	0.6211519
145	0xbf1f4f6a	-0.6223055
146	0x3d804d26	0.06264715
147	0xbdd84f71	-0.10562027
148	0xbf230ff0	-0.63696194
149	0x3e7de879	0.24795713
150	0xbc159f7a	-0.00913226
151	0xbd4ef09b	-0.050522428
152	0xbf5d85a2	-0.8653203
153	0x3f865750	1.0495396
154	0x3dd9bff4	0.10632315
155	0x3e567526	0.20943126
156	0xbe679c7e	-0.22618291
157	0xbe639c2e	-0.22227547
158	0xbe60fa9a	-0.21970597
159	0x3e69a06a	0.228151
160	0x3f373543	0.71565646
161	0x3d1c69be	0.03818678
162	0xbf2760e5	-0.65382224
163	0x3ea9be5b	0.33153042
164	0x3ec1b5c2	0.37833983
165	0x3d658419	0.05603418
166	0x3d932052	0.07183899
167	0x3efd9554	0.4952799
168	0x3e2c7d48	0.16844666
169	0xbcb0fe5e	-0.021605667
170	0x3e503249	0.20331682
171	0x3ea12624	0.3147441
172	0x3e4f84a9	0.2026545
173	0x3e1520b6	0.1456326
174	0x3ebc74ef	0.36807963
175	0xbdec771d	-0.115461566
176	0x3e6b6f87	0.22991763
177	0x3e9db877	0.30804798
178	0xbe527002	-0.2055054
179	0x3f3d4f13	0.7394878
180	0xbf025ea3	-0.50925654
181	0x3eb62c34	0.355806
182	0xbd1d2a22	-0.03837026
183	0x3f3c586c	0.7357242
184	0x3e4c7326	0.199658
185	0x3e1c045b	0.15236036
186	0xbbe51e75	-0.006992156
187	0xbfa57e72	-1.2929213
188	0xbf42c900	-0.7608795
189	0x3e989c76	0.2980687
190	0x3e095380	0.13410759
191	0x4004b26f	2.0733907
192	0x3ec539ef	0.38520762
193	0xbe5bbac6	-0.21457967
194	0x3e1fbee8	0.15600169
195	0xbd9dd204	-0.07706073
196	0xbeade213	-0.33961543
197	0xbef0d00d	-0.4703373
198	0x3e5ddf96	0.21667323
199	0xbfb55c9c	-1.4168887
200	0x3efed2bb	0.4977015
201	0xbe5b1dac	-0.21398038
202	0xbf3a8165	-0.7285369
203	0x3e84d31b	0.2594231
204	0xbccd5847	-0.025066508
205	0xbe6673de	-0.22505137
206	0x3df20326	0.11817007
207	0xbddd90f1	-0.10818661
208	0xbc8b8c67	-0.017034722
209	0x3f14649d	0.57966024
210	0x3e7c718f	0.24652694
211	0xbd3956c5	-0.045248765
212	0x3ec401de	0.38282675
213	0x3c8587bb	0.016300073
214	0x3c9b2858	0.018940136
215	0xbe4c666b	-0.19960944
216	0x3eb461b0	0.3523078
217	0xbe6bcb34	-0.23026735
218	0xbe9aa742	-0.30205733
219	0x3e835c55	0.2565638
220	0x3e48090e	0.19534704
221	0x3e249d61	0.1607566
222	0x3eeff585	0.46867004
223	0x3e9bd71d	0.30437556
224	0x3ee484b1	0.44632486
225	0xbf528be9	-0.82244736
226	0x3c30a618	0.010781787
227	0xbf13436d	-0.5752476
228	0x3ed21496	0.4103133
229	0xbe3d7d8b	-0.18504922
230	0xbe7536be	-0.23946664
231	0x3ebfb772	0.37444645
232	0x3ef4b04b	0.4779075
233	0xba1e69ea	-0.0006043004
234	0x3e95f280	0.29286575
235	0xbf22ace0	-0.63545036
236	0x3dc64c8f	0.09682571
237	0x3dfda0d6	0.12384193
238	0xbdab3b9f	-0.08360981
239	0xbe79c25c	-0.24390548
240	0xbdb176b0	-0.08665216
241	0x3d78ff0c	0.060790107
242	0x3f1a07bc	0.6016805
243	0xbfb4eccb	-1.4134763
244	0x3da94330	0.08264768
245	0x3e539e8f	0.20665954
246	0xbf11fe10	-0.57028294
247	0xbd84f53d	-0.06492088
248	0xbad332f1	-0.0016113204
249	0x3e20d474	0.15706044
250	0xbe96b126	-0.2943203
251	0x3ec47c24	0.38375962
252	0x3dadc900	0.08485603
253	0xbdfe13c8	-0.12406117
254	0xbe1fb3a6	-0.15595874
255	0xbf474b63	-0.77849406

arith.constant2 f4 [21, 32]
0	0x3e9a8690	0.30180788
1	0x3eefa7d0	0.46807718
2	0x3e0b56c6	0.1360732
3	0xbdc50040	-0.09619188
4	0xbe874df0	-0.2642665
5	0xbe6c4c58	-0.23075998
6	0xbe562b00	-0.2091484
7	0x3f057432	0.52130425
8	0x3dcb47bc	0.099257916
9	0x3e4bef9e	0.19915625
10	0x3dbbc54e	0.09168492
11	0x3e68a599	0.2271942
12	0xbecec38c	-0.40383565
13	0x3e5d9f87	0.21642886
14	0x3ea877fa	0.32904035
15	0x3e4b8e25	0.19878443
16	0x3ec092bc	0.3761195
17	0xbe17de90	-0.14830995
18	0x3e9c4497	0.3052108
19	0xbef61e96	-0.4807021
20	0xbf70ebac	-0.94109607
21	0x3e99e7f2	0.30059773
22	0x3e86a9cd	0.26301423
23	0xbefed499	-0.49771574
24	0x3eb49d70	0.35276365
25	0xbeb2e223	-0.34938154
26	0xbf2078cb	-0.62684315
27	0xbf3fcd42	-0.74922574
28	0x3e4b4b69	0.19852985
29	0x3d2f8a30	0.042856395
30	0x3d4e28c1	0.050331835
31	0xbf02b5d1	-0.5105868
32	0x3bf43162	0.007452176
33	0xbedb05b3	-0.42777786
34	0xbda6d820	-0.08146691
35	0xbe68624c	-0.22693747
36	0x3f7da2ea	0.9907671
37	0xbf662143	-0.89894503
38	0x3eabd0bb	0.33557686
39	0xbf59895b	-0.8497521
40	0xbe9dd224	-0.30824387
41	0xbf8cdcc8	-1.1004877
42	0xbf031ca8	-0.512156
43	0x3ed7e69f	0.42168137
44	0xbe3a6e43	-0.18206124
45	0xbf0ee760	-0.558218
46	0xbf93cf01	-1.1547548
47	0xbe6738a8	-0.22580206
48	0x3f558cb0	0.834178
49	0xbd22b379	-0.03972194
50	0x3d3523d2	0.044223614
51	0xbd067dee	-0.03283494
52	0xbf36f19d	-0.7146242
53	0xbebae322	-0.36501414
54	0x3f1a8c79	0.60370594
55	0x3d544733	0.051825713
56	0x3f337039	0.70093113
57	0x3d10e880	0.03537798
58	0x3d076764	0.033057585
59	0xbf55795d	-0.8338831
60	0x3f156677	0.58359474
61	0xbf559597	-0.8343138
62	0x3dcdb1cc	0.10043678
63	0xbf93af49	-1.1537868
64	0x3d75372e	0.059867077
65	0xbf407135	-0.7517274
66	0x3e92f99e	0.28706068
67	0x3e8de9d1	0.2771745
68	0x3f468cf1	0.7755881
69	0xbf2981a7	-0.6621346
70	0x3d88ac2f	0.066734664
71	0xbd0220d6	-0.031769596
72	0xbea8da29	-0.32978943
73	0xbef1c88a	-0.47223312
74	0x3f378b54	0.7169697
75	0x3d7830fa	0.060593583
76	0x3f768f97	0.9631285
77	0xc01184c4	-2.2737284
78	0xbec83502	-0.39102942
79	0xbfbbc4f5	-1.4669482
80	0x3f10776b	0.5643222
81	0x3ec56ecc	0.38561094
82	0x3dc94210	0.098270535
83	0x3f4e9631	0.80697924
84	0xbfc54932	-1.5412962
85	0xbc71f76c	-0.014768463
86	0x3de19716	0.110151455
87	0x3eb1d22d	0.34730664
88	0xbd278bc1	-0.040904764
89	0xbdf9abd7	-0.12190979
90	0xbee22a45	-0.44172874
91	0xbea42430	-0.3205886
92	0xbe2f418c	-0.17114848
93	0x3edf4a3f	0.43611333
94	0xbe4af098	-0.19818342
95	0xbff8f887	-1.9450845
96	0x3ed9e487	0.42557165
97	0xbdebcaa0	-0.11513257
98	0xbdf99173	-0.12185945
99	0x3c302e7c	0.01075327
100	0x3f4b09c1	0.7931176
101	0xbf5745e9	-0.8409105
102	0xbde664b6	-0.11249678
103	0x3f1c6792	0.61095536
104	0xbda36533	-0.079782866
105	0x3ef53308	0.47890496
106	0xbf8d7675	-1.1051775
107	0x3f93240c	1.1495376
108	0xbe8d4b9d	-0.2759675
109	0xbe9cd776	-0.30633134
110	0x3f2f80c9	0.68555886
111	0xbfa2da4e	-1.2722871
112	0x3e81a036	0.25317544
113	0xbf9d0ee8	-1.2270174
114	0xbe5dd6a4	-0.2166391
115	0xbef0f4f9	-0.470619
116	0xbcb27a87	-0.021786941
117	0xbe4b27fa	-0.19839469
118	0xbfb73a8e	-1.4314744
119	0x3ecb447a	0.3970068
120	0xbe9ed9ac	-0.31025445
121	0x3f7715bd	0.96517545
122	0x3d4aabbb	0.04948018
123	0xbd173d5d	-0.036923755
124	0x3e895b6e	0.26827568
125	0xbf6bc4a8	-0.9209695
126	0xbf19ab29	-0.60026795
127	0x3f0e6733	0.5562622
128	0x3e518391	0.20460345
129	0xbe375cca	-0.1790649
130	0x3e92058d	0.2851986
131	0x3f0daeb8	0.55344725
132	0x3ecb5253	0.39711246
133	0xbd7cc672	-0.06171269
134	0x3e121474	0.14265615
135	0x3ca3cb94	0.019994535
136	0x3f533d75	0.8251565
137	0xbe118c58	-0.14213693
138	0xc0087b55	-2.1325276
139	0xbfb8d028	-1.4438524
140	0xbe4e9dab	-0.20177333
141	0x3f2c05a4	0.67196107
142	0xba502b64	-0.0007941036
143	0xbf4bdfc6	-0.79638326
144	0x3eb5fcca	0.35544425
145	0xbd356949	-0.04428986
146	0x3e5f33af	0.2179706
147	0xbf6811fb	-0.90652436
148	0xbfa456f4	-1.2839036
149	0x3e53cf91	0.20684649
150	0x3e48a7c1	0.19595243
151	0x3ef41750	0.47674036
152	0xbf2c9a72	-0.67423165
153	0x3c140096	0.009033343
154	0x3e5b6029	0.21423401
155	0x3e45d45f	0.19319294
156	0x3f2f6273	0.68509597
157	0x3db70033	0.08935585
158	0xbdba1c3c	-0.090874165
159	0x3e20f1c8	0.15717232
160	0x3f8309b5	1.0237337
161	0xbf504726	-0.81358564
162	0xbf29d8a9	-0.6634622
163	0xbe827ef8	-0.25487494
164	0xbf9feefa	-1.2494805
165	0xbebd6a75	-0.36995283
166	0x3e7c846b	0.24659888
167	0xbefa2920	-0.488595
168	0xbf404dad	-0.75118524
169	0x3e9bb911	0.30414632
170	0x3edf24bb	0.4358271
171	0x3e233b1f	0.15940522
172	0x3d288266	0.041139983
173	0x3e956a5b	0.29182705
174	0x3e7c6a67	0.24649964
175	0x3f1e4dc7	0.6183743
176	0xbf865f57	-1.0497845
177	0xbe36cbd2	-0.17851189
178	0xbece0241	-0.40236095
179	0xbe48ecab	-0.19621532
180	0x3edb3c8a	0.42819625
181	0x3e9eb633	0.30998382
182	0xbe29b745	-0.16573818
183	0x3d010c70	0.031506002
184	0xbf8d10dd	-1.1020771
185	0xbeb81531	-0.35953668
186	0xbf8246d8	-1.017787
187	0x3f116996	0.56801736
188	0xbf80f549	-1.0074855
189	0x3eae3991	0.34028295
190	0x3f408d09	0.752152
191	0x3e42e061	0.19030906
192	0x3eb80510	0.35941362
193	0xbd093c59	-0.033504818
194	0x3da235d6	0.07920425
195	0x3f9514ce	1.1646974
196	0xbce2e848	-0.027698651
197	0x3e0453e7	0.12922631
198	0xbe6cfbaf	-0.23142885
199	0xbe86a264	-0.2629577
200	0xbf87aa45	-1.0598837
201	0xbf4402b4	-0.76566625
202	0xbf221502	-0.63313305
203	0xbe7e81bd	-0.24854179
204	0xbdb00ae4	-0.08595827
205	0xbe282655	-0.16420873
206	0x3e6a72a5	0.22895296
207	0x3e5df4cb	0.21675412
208	0xbe789fe2	-0.2427974
209	0xbe2d460f	-0.16921256
210	0x3e0ae6cc	0.13564605
211	0xbcc7adf4	-0.02437494
212	0xbd01ba10	-0.031671584
213	0x3eb0283d	0.344057
214	0xbe8a2a8a	-0.2698558
215	0x3ea664f3	0.32498893
216	0x3e8a5a1c	0.27021873
217	0xbfb92a68	-1.4466066
218	0xbf5c0ffe	-0.859619
219	0xbf97fa07	-1.1873177
220	0x3fbccb2b	1.4749502
221	0xbf469b8d	-0.775811
222	0x3e3727ed	0.17886324
223	0x3e968ea7	0.2940571
224	0xbf87c23d	-1.0606152
225	0x3f4a2569	0.78963333
226	0x3eceb0c2	0.4036923
227	0x3ed90f47	0.42394468
228	0x3f46c79a	0.7764832
229	0xbee58926	-0.44831198
230	0xbfa30f22	-1.2738993
231	0xbe94c31a	-0.290551
232	0xbec993a8	-0.39370465
233	0xbe2fc21e	-0.17163894
234	0x3f2b31b8	0.6687274
235	0xbe9e9ef0	-0.30980635
236	0x3e0f0a3b	0.13968746
237	0xbf63f572	-0.89046395
238	0x3e11bd28	0.14232314
239	0x3df72982	0.12068464
240	0xbf6ee35e	-0.93315685
241	0xbf1a70ce	-0.60328376
242	0xbfc9bcec	-1.5760779
243	0xbeec80c5	-0.46191993
244	0xbe697f5f	-0.22802494
245	0xbf1a09bd	-0.6017111
246	0x3f40dfd1	0.75341517
247	0x3f3034e0	0.6883068
248	0xbf9c5880	-1.2214508
249	0x3dff5f6f	0.124693744
250	0x3e937d96	0.28806752
251	0x3beabfe4	0.0071639884
252	0x3f4f0b43	0.8087656
253	0xbf82b9f4	-1.0212998
254	0xbd8e3963	-0.069445394
255	0xbe40424b	-0.18775289

arith.constant3 f4 [21]
0	0xbecbf71d	-0.3983697
1	0xbeff5124	-0.49866593
2	0x3ed5e63e	0.41777223
3	0x3d6ae7c4	0.057349935
4	0xbdbeeb0c	-0.093221754
5	0x3e922ac1	0.28548244
6	0xbe94dcb2	-0.29074627
7	0x3f1a701a	0.60327303
8	0x3e08b8f3	0.13351803
9	0x3e5f5b99	0.21812285
10	0x3e9e65e4	0.3093711
11	0xbd99359d	-0.07480929
12	0x3e9aaf24	0.30211747
13	0xbeae7b3e	-0.340784
14	0xbd105907	-0.035241153
15	0x3c1f5ddc	0.009726968
16	0xbf230588	-0.63680315
17	0xbd830707	-0.06397825
18	0x3e62436b	0.2209603
19	0xbed8c5e3	-0.42338476
20	0xbe84da07	-0.25947592

arith.constant4 f4 [32]
0	0x3ce24fd2	0.027625952
1	0x3ee15205	0.44007888
2	0x3eb61172	0.35560185
3	0xbd0cd4cc	-0.034382626
4	0x3e438946	0.19095334
5	0x3ea3e746	0.32012385
6	0x3db17577	0.08664983
7	0x3e0a1485	0.1348439
8	0x3dca1ded	0.09868989
9	0x3e85618c	0.26050985
10	0x3debbd29	0.11510689
11	0x3e9dc7ad	0.30816403
12	0x3f0d4af7	0.5519251
13	0xbde4a2fe	-0.11163901
14	0xbd3bc44c	-0.0458415
15	0x3e1227b8	0.14272964
16	0xbe7138aa	-0.23556772
17	0xbe38e9e6	-0.18057975
18	0xbbbea98d	-0.005818552
19	0x3ea348b2	0.318914
20	0x3dc55ae4	0.09636477
21	0xbd966462	-0.07343365
22	0x3e715f55	0.23571523
23	0x3f0b8c93	0.54511374
24	0xbece4de1	-0.40293792
25	0x3e91c360	0.28469372
26	0x3e790f11	0.24322154
27	0x3ecc4734	0.39898074
28	0x3d291102	0.041275986
29	0x3e91ca44	0.2847463
30	0xbdbb020a	-0.09131248
31	0x3e5663af	0.20936464

sequential_1/dense_1_2/Add/ReadVariableOp f4 [64]
0	0x3c838a2a	0.016057093
1	0xbf81f6c2	-1.015343
2	0x3b87abed	0.004140368
3	0x3f06b266	0.52615964
4	0x3d9ce7c0	0.0766139
5	0xbe7ec242	-0.24878791
6	0x3e7bd6ac	0.2459361
7	0x3f850a86	1.0393836
8	0xbf13d5fd	-0.57748395
9	0xbd79b88d	-0.060967017
10	0x3f0218b5	0.5081895
11	0x3ee74e21	0.45176795
12	0x3e1addd0	0.15123677
13	0x3f1fbf19	0.62400967
14	0x3ee2866d	0.44243184
15	0x3e3dcd4c	0.18535346
16	0x3dee32dd	0.11630795
17	0x3e5d8f13	0.2163661
18	0x3e3237ac	0.1740405
19	0x3d2b61e4	0.041841403
20	0x3eadb57b	0.3392752
21	0x3e2364f6	0.15956482
22	0xbe989362	-0.29799944
23	0xbea56595	-0.32304063
24	0x3de2b9a7	0.110705666
25	0x3cb6070f	0.022220163
26	0x3e393565	0.18086775
27	0x3e34935a	0.17634335
28	0x3f0b050d	0.5430458
29	0x3e41c07c	0.18921083
30	0xbed3d970	-0.4137683
31	0xbed4f621	-0.4159403
32	0x3e26ffbe	0.16308495
33	0x3f0fb755	0.5613912
34	0x3e22dcb9	0.15904512
35	0x3e14acdd	0.14519067
36	0xbe3f354b	-0.18672673
37	0xbeb22469	-0.34793404
38	0x3e5ae136	0.21374974
39	0xbe5f4d89	-0.21806921
40	0x3f20bb73	0.62786025
41	0x3d92e1a9	0.071719475
42	0x3e30beda	0.17260304
43	0x3d687995	0.056756575
44	0xbdb43095	-0.08798329
45	0x3dd017c8	0.10160786
46	0xbe28651a	-0.16444817
47	0xbdec34d5	-0.115335144
48	0x3e286dee	0.16448185
49	0x3f6ced3c	0.9254949
50	0xbed67f42	-0.41893965
51	0xbed91b44	-0.42403615
52	0x3ec34efb	0.38146195
53	0x3f448046	0.7675823
54	0x3e31a084	0.17346388
55	0x3e93576f	0.28777644
56	0xbebe229d	-0.37135783
57	0xbe222ce0	-0.15837431
58	0x3ecbaa15	0.397782
59	0xbc1888e3	-0.00930998
60	0x3e22cf5f	0.15899418
61	0x3f3fa855	0.7486623
62	0xbd69f432	-0.05711765
63	0x3f2c2100	0.67237854

sequential_1/dense_1/Add/ReadVariableOp f4 [128]
0	0xbe6da623	-0.23207907
1	0xbe90625f	-0.2820005
2	0xbcb5391e	-0.022121962
3	0x3df85c10	0.121269345
4	0xbef58264	-0.47951043
5	0xbe9c40c2	-0.30518156
6	0x3e3b0a05	0.18265541
7	0xbee94e01	-0.45567325
8	0xbeb46b13	-0.3523794
9	0xbe9b6287	-0.30348608
10	0xbdeebde9	-0.11657316
11	0xbe051ab4	-0.12998468
12	0xbde4b08b	-0.111664854
13	0xbec1a774	-0.3782307
14	0xbce8bec3	-0.028411275
15	0xbc8d54fa	-0.017252434
16	0xbe6c4eee	-0.23076984
17	0x3a8ffed8	0.0010985984
18	0xbe5bb1f1	-0.21454598
19	0xbecade13	-0.39622554
20	0xbc0b5402	-0.008503916
21	0x3e57b440	0.21064854
22	0xbe844be8	-0.25839162
23	0x3d8eca8e	0.06972228
24	0xbf2e29c3	-0.68032473
25	0xbd8623d5	-0.06549803
26	0x3ca05eb8	0.019576415
27	0xbe314715	-0.17312272
28	0x3ceb3f52	0.028716717
29	0xbef0e525	-0.47049823
30	0x3e26744e	0.16255304
31	0x3b9a3e09	0.004707102
32	0xbea782f3	-0.32717094
33	0x3e9291ab	0.2862676
34	0xbe9c2c9d	-0.30502787
35	0x3caf0aac	0.021367393
36	0xbd4afd86	-0.049558185
37	0x3d49c499	0.049259756
38	0x3e422734	0.18960267
39	0xbf22163a	-0.63315165
40	0xbea5c8ee	-0.3237986
41	0xbd926b40	-0.071493626
42	0xbe49179e	-0.19637915
43	0xbe906e44	-0.28209126
44	0x3e2dae97	0.16961132
45	0xbd98c211	-0.0745889
46	0xbe4c75ec	-0.19966859
47	0xbefa2c7f	-0.48862073
48	0xbda504dc	-0.080575675
49	0xbdf02a27	-0.1172679
50	0xbe3aeec7	-0.18255149
51	0xbe572d77	-0.21013437
52	0xbf3e67c1	-0.74377066
53	0xbea44c96	-0.3208968
54	0x3dbb69b4	0.09151021
55	0xbe6facdd	-0.23405786
56	0xbe461508	-0.1934396
57	0xbddf63ae	-0.10907684
58	0xbdd0f85d	-0.102036215
59	0xbcaa5838	-0.02079402
60	0xbd26f1f9	-0.040758107
61	0xbc2fec4b	-0.010737489
62	0xbebc56e5	-0.36785045
63	0xbefaa199	-0.48951414
64	0xbea13acd	-0.31490174
65	0x3e118bea	0.14213529
66	0x3df19c58	0.11797398
67	0x3e5947a9	0.21218742
68	0xbdf7c176	-0.120974466
69	0xbf3419e0	-0.7035198
70	0xbe9f0a38	-0.31062484
71	0xbdbf7ce8	-0.09349996
72	0xbf8e63a8	-1.1124163
73	0xbf0b97fb	-0.5452878
74	0xbebccf5e	-0.3687696
75	0x3e9c6712	0.30547386
76	0xbedb4fa6	-0.42834204
77	0xbd96009f	-0.07324337
78	0xbee55b38	-0.44796157
79	0xbda123dd	-0.078681685
80	0xbdda6ea2	-0.10665633
81	0xbf44fff1	-0.76953036
82	0xbe7e7021	-0.24847461
83	0xbf24a6f2	-0.6431724
84	0xbeaf1217	-0.3419349
85	0xbe85bce5	-0.26120678
86	0xbe3a92dc	-0.18220085
87	0xbe755e94	-0.2396186
88	0xbebf0a21	-0.37312415
89	0x3c6f203c	0.014595088
90	0x3f6162fc	0.88041663
91	0xbf794b76	-0.9738077
92	0xba5b0986	-0.0008355606
93	0xbe029080	-0.12750435
94	0x3e94c50d	0.29056588
95	0xbe203e58	-0.15648782
96	0xbd742e96	-0.05961474
97	0xbf2dc806	-0.67883337
98	0x3d1e429e	0.03863775
99	0xbf37fb39	-0.7186771
100	0xbeb083c6	-0.34475535
101	0xbe5d8548	-0.21632874
102	0xbded2028	-0.11578399
103	0xbe660e27	-0.22466336
104	0xbdb7ade7	-0.08968716
105	0x3ec54707	0.38530752
106	0xbf5db6d2	-0.86607087
107	0x3e1c7ddc	0.15282387
108	0xbe67bd28	-0.22630751
109	0x3e09dc90	0.13463044
110	0xbe146d1b	-0.14494745
111	0xbda17cd1	-0.07885135
112	0x3dfa9c10	0.12236798
113	0x3e2fabae	0.17155334
114	0xbd8eb4d7	-0.06968086
115	0xbd2a96e9	-0.041647825
116	0xbef398c0	-0.47577477
117	0xbf3f4068	-0.7470765
118	0x3d8a4e36	0.06753199
119	0xbd4927c1	-0.049110178
120	0xbea03c39	-0.31295946
121	0x3de61e58	0.11236256
122	0x3ea33371	0.31875184
123	0xbf8edf9d	-1.1161991
124	0xbecc2cf1	-0.39878038
125	0x3e9ab5e3	0.30216894
126	0x3ead7423	0.33877668
127	0xbf10dc55	-0.565862

sequential_1/dense_1/MatMul f4 [128, 9]
0	0xbf5c9438	-0.86163664
1	0x3ed3f036	0.41394204
2	0xbc91ee6e	-0.017813887
3	0x3e3b6814	0.18301421
4	0x3e50d1d2	0.2039254
5	0xbe3cda14	-0.18442565
6	0xbee602b3	-0.44923934
7	0xbf2bf51f	-0.671709
8	0xbe117894	-0.14206153
9	0x3e34f99a	0.1767334
10	0xbfc73b68	-1.5565004
11	0x3ed3fb19	0.4140251
12	0xbdb71b1d	-0.08940718
13	0x3da88c20	0.08229852
14	0xbe6f6108	-0.23376858
15	0xbd36f083	-0.044662964
16	0x3f60ba38	0.8778415
17	0x3dedce92	0.11611666
18	0xbd97b1b8	-0.07406944
19	0xbd42cb5c	-0.04755722
20	0x3ccccb45	0.02499927
21	0xbe4a3884	-0.19748122
22	0x402b05bb	2.6722248
23	0xbe5431f1	-0.20722176
24	0xba81bd0f	-0.0009898263
25	0xbcdcfac7	-0.026975049
26	0x3a1447b8	0.0005656439
27	0xbe55ac88	-0.20866597
28	0x3fae1d20	1.3602638
29	0xbe899127	-0.26868555
30	0x3ec6853c	0.38773525
31	0x3e2ee7bf	0.17080592
32	0xbebf80d2	-0.3740297
33	0xbe26325c	-0.16230148
34	0xbeef78ed	-0.46771947
35	0x3e79461d	0.24343152
36	0xbf524b53	-0.82146186
37	0x3dc8ba65	0.09801177
38	0x3edacf26	0.42736167
39	0x3e924ba2	0.28573328
40	0xbe2ac64a	-0.16677204
41	0x3d9bc8c7	0.076066546
42	0xbe9272be	-0.28603166
43	0x3e35a784	0.17739683
44	0x3ed67388	0.41885018
45	0x3f004f2b	0.501208
46	0xbecb72c2	-0.3973599
47	0x3f373997	0.7157225
48	0x3e3198f4	0.17343503
49	0x3d9974e8	0.07493001
50	0x3f212e79	0.62961537
51	0xbf315046	-0.6926311
52	0xbf23b782	-0.63951886
53	0xbd809576	-0.062785074
54	0xbeda1659	-0.42595175
55	0x3f4b0b8b	0.7931449
56	0xbe892727	-0.26787683
57	0x3dad226f	0.08453833
58	0x3ef1b4fa	0.47208387
59	0xbd17f1e4	-0.03709592
60	0x3c96017d	0.018311257
61	0xbe9e76af	-0.30949923
62	0x3dd22a51	0.102619775
63	0xbf59e268	-0.85111094
64	0x3e4b85bb	0.19875233
65	0xbf086bce	-0.53289497
66	0x3f176731	0.5914183
67	0xbe893641	-0.26799205
68	0xbec68aec	-0.38777864
69	0xbefda4b6	-0.49539727
70	0xbfb94734	-1.4474854
71	0xbb0fd3c3	-0.0021946288
72	0x3cfa3da4	0.03054697
73	0xbd795b03	-0.06087781
74	0x3d90d84e	0.07072507
75	0xbe20c071	-0.1569841
76	0xbf4b14ef	-0.7932882
77	0xbf25404d	-0.6455124
78	0xbde13d74	-0.109980494
79	0x3e968435	0.2939774
80	0x3f05dc03	0.52288836
81	0x3cbddcf8	0.023176655
82	0xbf65508c	-0.8957603
83	0x3ecfb1ed	0.40565434
84	0xbe0348e5	-0.12820776
85	0xbdad8020	-0.084717035
86	0x3e3eb49f	0.18623589
87	0xbecb250c	-0.39676702
88	0xbf851424	-1.0396771
89	0xbef362d2	-0.4753633
90	0xbd17a0fe	-0.03701877
91	0x3ecb49be	0.39704698
92	0xbf95d742	-1.1706316
93	0xbf9c1542	-1.2193987
94	0x3eb302dd	0.34963122
95	0xbedb6e51	-0.42857602
96	0x3ee59409	0.44839504
97	0x3e332fe4	0.17498738
98	0xbaf0e08d	-0.0018377468
99	0xbcfc40a3	-0.03079254
100	0x3f05bf69	0.52245194
101	0xbf322738	-0.69591093
102	0xbcfdad93	-0.030966556
103	0xbe447b6b	-0.19187705
104	0xbf09f70b	-0.5389258
105	0x3f0bc44b	0.54596394
106	0x3ecf20bd	0.40454665
107	0xbebc7657	-0.36809036
108	0x3f63f9a4	0.89052796
109	0xbd791202	-0.06080819
110	0xbf96bba0	-1.1776009
111	0x3e73e5d3	0.2381814
112	0x3ebc3cf1	0.36765245
113	0xbd04831d	-0.032351602
114	0x3f640b7b	0.8908002
115	0x3f4262f8	0.75932264
116	0xbe269b9a	-0.16270295
117	0xbeccac13	-0.39975032
118	0x3f8adad3	1.084803
119	0x3d0505ab	0.03247611
120	0x3f1bfcde	0.6093272
121	0x3d864f94	0.06558147
122	0x3f3cc91a	0.73744357
123	0x3bb5d0d0	0.005548574
124	0xbf14eb86	-0.5817188
125	0x3e1f3b41	0.15549947
126	0xbd9fe3ed	-0.07807145
127	0xbedc2df1	-0.430038
128	0x3ea07f64	0.3134719
129	0xbe712664	-0.23549801
130	0x3dd8cc17	0.10585802
131	0x3e20d350	0.1570561
132	0x3d554b7e	0.052073948
133	0x3ef6f610	0.48234606
134	0xbd96d129	-0.07364113
135	0x3f3f83ed	0.7481068
136	0xbd879177	-0.06619542
137	0xbdb3d3f4	-0.08780661
138	0x3e86b484	0.26309597
139	0x3f59060d	0.8477486
140	0xbf2de9db	-0.6793496
141	0x3e380e2d	0.17974158
142	0x3f2cbbed	0.6747425
143	0x3bbd0850	0.005768813
144	0x3cb6564b	0.022257945
145	0xbdd2ca43	-0.102924846
146	0x3e8807d3	0.2656847
147	0xbdc68efa	-0.09695239
148	0x3f8ca068	1.0986452
149	0x3fac3c41	1.3455888
150	0x3cc44422	0.02395827
151	0x3d0ccae9	0.034373198
152	0x3d797613	0.06090362
153	0xbe1a3e34	-0.15062791
154	0xbbd8aa77	-0.006612118
155	0x3dc94cc8	0.09829098
156	0xbf3cb85a	-0.737188
157	0x3f4ff5f7	0.8123469
158	0xbffb1ec5	-1.9618765
159	0xbdea23f7	-0.11432641
160	0xbe269449	-0.16267504
161	0xbcfe5d37	-0.031050308
162	0xbed2a151	-0.411387
163	0xbdf29cde	-0.11846326
164	0xbf217c44	-0.6308024
165	0x3f333ede	0.700178
166	0x3efba656	0.49150342
167	0x3faaf13d	1.335487
168	0x3d90ee13	0.07076659
169	0xbe78ddf0	-0.24303412
170	0xbee4b6ef	-0.44670817
171	0xbe66ecf0	-0.22551322
172	0xbebfaba4	-0.3743564
173	0xbf18a016	-0.5961927
174	0x3d2668cb	0.040627282
175	0x3e4aa645	0.1978999
176	0xbeb3bf45	-0.35106865
177	0xbe8c3dd2	-0.27390915
178	0x3e223047	0.15838729
179	0xbf2d240b	-0.6763312
180	0xbe33aa65	-0.17545469
181	0x3d9f43fd	0.077766396
182	0xbd8ad9dd	-0.067798354
183	0xbcdb28ee	-0.026752915
184	0xbcb50b3e	-0.022100087
185	0xbd5d6ceb	-0.05405895
186	0xbd7ca3ae	-0.061679535
187	0xbdee7bf2	-0.116447344
188	0x3f4c7fb6	0.7988237
189	0xbe3bff07	-0.18359004
190	0xbf758d25	-0.95918494
191	0xbf34abad	-0.70574456
192	0x3cc884cf	0.02447739
193	0xbd746cd4	-0.0596741
194	0xbf20385f	-0.62586015
195	0x3f9989c0	1.1995163
196	0xbe82ee51	-0.25572446
197	0x3d330083	0.04370166
198	0xbe28e530	-0.16493678
199	0x3f873707	1.0563668
200	0x3ebab389	0.364651
201	0xbed106ab	-0.408254
202	0x3ec1272d	0.377252
203	0xbe270227	-0.16309415
204	0xbf46e9ac	-0.77700305
205	0x3ef10f02	0.47081763
206	0x3d0f682a	0.035011448
207	0xbe8918fd	-0.26776877
208	0x3f251981	0.6449204
209	0x3e981d42	0.29709822
210	0x3e910293	0.28322276
211	0xbefb6001	-0.49096683
212	0xbe45ca2e	-0.19315407
213	0xbfa35a97	-1.2762021
214	0xbe933eba	-0.28758794
215	0x3d1a16b0	0.037619293
216	0x3ee48a4d	0.44636765
217	0xbea9a482	-0.33133322
218	0xbeace3a9	-0.3376744
219	0x3ec66803	0.3875123
220	0x3f5d6eea	0.86497366
221	0x3f420a4f	0.7579698
222	0x3e31961d	0.1734242
223	0x3f73daf5	0.95255977
224	0x3f394213	0.72366446
225	0xbed61950	-0.41816187
226	0x3da33e0b	0.07970818
227	0x3df7d330	0.12100828
228	0xbf24227f	-0.64115137
229	0xbe4c92ef	-0.19977926
230	0xbfb091e0	-1.3794518
231	0xbe838de8	-0.25694203
232	0xbec0e3bc	-0.37673748
233	0xbafd9c55	-0.0019348959
234	0xbf7840c2	-0.9697381
235	0xbf846ce3	-1.034573
236	0x3f0223ef	0.5083608
237	0xbd2b5792	-0.04183156
238	0x3e95da7d	0.29268256
239	0x3ea82fe9	0.32849053
240	0xbd66b9d2	-0.056329556
241	0xbf07e126	-0.53077924
242	0x3d8e05ea	0.06934722
243	0xbf2b14d0	-0.6682863
244	0xbf9d812a	-1.2305043
245	0x3f32f268	0.6990113
246	0x3ef07f4f	0.4697213
247	0x3d817103	0.063203834
248	0xbe07a1ba	-0.13245288
249	0xbce1e136	-0.02757321
250	0xbebe9dcd	-0.37229767
251	0xbb33b871	-0.0027423168
252	0xbe63f647	-0.22261916
253	0x3f193480	0.59845734
254	0xbe8eb592	-0.27872902
255	0xbf32e209	-0.6987615
