Models/SubjectDependent/GeneratedTFLiteFilesAndOGModels/SimpleMLP.tflite (tflite, 507884 bytes, 8 tensors)

arith.constant f4 [21, 32]
0	0x3e603529	0.21895279
1	0x3da27692	0.07932772
2	0xbdc8cdd8	-0.098048866
3	0x3c88c40f	0.01669505
4	0x3e5de15a	0.21667996
5	0x3e89337c	0.26797092
6	0xbd6b64fa	-0.057469346
7	0xbc5b5bd8	-0.0133885965
8	0xbc09d303	-0.0084121255
9	0x3d703ee0	0.058653712
10	0xbcfe6822	-0.031055514
11	0x3d0f943e	0.035053484
12	0xbe86bb0c	-0.2631458
13	0x3d91d671	0.071209796
14	0xbd425c19	-0.047451112
15	0xbe75fb56	-0.24021658
16	0xbd6814f3	-0.056660604
17	0x3dbe918d	0.09305105
18	0xbe079875	-0.13241751
19	0xbd99ea12	-0.075153485
20	0xbcb9f988	-0.022701994
21	0xbd3122b4	-0.043245986
22	0xbe0c3ece	-0.13695833
23	0xbcd46f39	-0.025931941
24	0xbc18a7ff	-0.009317397
25	0xbc989074	-0.018623568
26	0x3cee7216	0.029107135
27	0x3d4df17c	0.050279126
28	0xbdf27d5a	-0.11840315
29	0xbcd44ba0	-0.025914967
30	0xbdde5181	-0.108553894
31	0x3e0430b8	0.1290921
32	0xbe1b3b3c	-0.15159315
33	0x3e6e098e	0.23245832
34	0xbddb0b2f	-0.106954925
35	0x3da6a2ce	0.08136521
36	0x3dbbdfb3	0.091735266
37	0x3e9be1d8	0.30445743
38	0xbd2530e8	-0.040329844
39	0xbef46d08	-0.47739434
40	0xbe89601c	-0.26831138
41	0xbec02f52	-0.37536103
42	0x3dab9178	0.08377355
43	0xbec61628	-0.3868878
44	0xbe8e52a1	-0.27797416
45	0x3e49c6c0	0.19704723
46	0x3e4a94aa	0.19783273
47	0xbe327425	-0.17427118
48	0xbe1b41cb	-0.15161817
49	0xbc1be2ea	-0.00951455
50	0xbeaa0f58	-0.3321483
51	0x3d4baeda	0.0497273
52	0xbe6ca426	-0.23109493
53	0x3e600ba8	0.21879447
54	0x3e9d91e7	0.30775377
55	0xbe367557	-0.17818199
56	0xbe86c74d	-0.2632393
57	0x3e7bcebd	0.24590583
58	0xbe1c67c7	-0.15273963
59	0xbda818a9	-0.082078286
60	0x3dfcdfeb	0.123473965
61	0xbf06bfa8	-0.52636194
62	0xbf347322	-0.7048818
63	0xbe9e8616	-0.30961674
64	0x3d19d57b	0.037557106
65	0x3c5f3c14	0.013625164
66	0xbe73f401	-0.23823549
67	0x3e5a1d08	0.21300137
68	0x3e057cc9	0.13035883
69	0xbdbadb38	-0.09123844
70	0xbd85472f	-0.06507718
71	0xbe46b786	-0.19405946
72	0x3e700ef8	0.2344321
73	0xb9dbb349	-0.00041904513
74	0x3ea56235	0.3230149
75	0xbe1a5889	-0.15072836
76	0xbd87b91e	-0.06627105
77	0x3d7775e5	0.060415167
78	0x3e7d8fa6	0.24761829
79	0x3dd8f6dc	0.1059396
80	0xbd4011c5	-0.046891946
81	0x3eabec0a	0.3357852
82	0xbf405356	-0.7512716
83	0x3dc83b96	0.0977699
84	0xbd7ae664	-0.061254874
85	0x3d157914	0.036492422
86	0xbd36dc84	-0.044643894
87	0x3dfaf035	0.12252847
88	0x3d2a8b53	0.041636776
89	0xbb8fe05a	-0.0043907585
90	0xbde55666	-0.1119812
91	0x3d8f23e0	0.069892645
92	0xbda0cd11	-0.07851613
93	0xbea378cc	-0.31928098
94	0xbe27f1ea	-0.16400877
95	0xbe7b4319	-0.24537314
96	0xbe52e0e6	-0.20593604
97	0xbd1ea6d5	-0.038733322
98	0x3dc5f2b8	0.096654356
99	0xbdee7bed	-0.11644731
100	0x3da82bf6	0.0821151
101	0xbdcd69cd	-0.100299455
102	0xbe6b1b5c	-0.22959656
103	0x3ddbdb7c	0.10735223
104	0x3dc0bf1a	0.0941145
105	0x3e6b35c6	0.22969732
106	0xbe9e065f	-0.30864236
107	0x3d5f4e15	0.054517824
108	0x3e5adc79	0.21373166
109	0xbef2ec4c	-0.47445905
110	0x3e91b16f	0.28455684
111	0xbea5273d	-0.322565
112	0x3d03d20f	0.03218275
113	0xbdddb24b	-0.10825022
114	0xbef20e3f	-0.47276494
115	0xbe890018	-0.26757884
116	0x3e883d26	0.26609153
117	0xbe6913b7	-0.22761427
118	0xbeeceb12	-0.46273094
119	0x3dd8fd4d	0.10595188
120	0x3db206a6	0.08692674
121	0x3c532b87	0.012888796
122	0x3e66b723	0.22530799
123	0xbe53b237	-0.20673452
124	0xbe23e430	-0.16005015
125	0xbe6c1d8c	-0.23058146
126	0x3d14a1ad	0.036287
127	0xbe73ad89	-0.23796667
128	0xbdba09b7	-0.09083884
129	0x3d6f039d	0.058353055
130	0x3cbc675a	0.0229985
131	0x3dfad06d	0.12246785
132	0xbb6a08c8	-0.00357108
133	0x3e494944	0.19656855
134	0x3e2a4075	0.16626151
135	0x3eed5f0d	0.4636158
136	0xbe48daa8	-0.1961466
137	0xbe2a87a5	-0.16653307
138	0x3cf2e1d1	0.029648693
139	0x3d70fc57	0.0588344
140	0xbedc1ea6	-0.42992133
141	0xbea3c6c4	-0.31987584
142	0xbe073f4e	-0.13207743
143	0xbe6523d8	-0.22376955
144	0xbe20e665	-0.15712889
145	0xbd058000	-0.032592773
146	0xbf068c6f	-0.52558035
147	0x3dc74cda	0.09731455
148	0x3e692e69	0.2277161
149	0x3d7d22dc	0.061800823
150	0xbe546f1f	-0.20745514
151	0x3e92b333	0.28652343
152	0xbe7ea733	-0.24868469
153	0xbbc1f106	-0.005918625
154	0xbe636e18	-0.22209966
155	0x3e4723cc	0.19447249
156	0xbe551bd8	-0.20811403
157	0xbe28a597	-0.16469418
158	0x3da3c93e	0.07997368
159	0xbdd8aeae	-0.105801925
160	0xbd704044	-0.05865504
161	0xbe824251	-0.2544122
162	0x3db18731	0.08668364
163	0xbcf36605	-0.029711733
164	0xbcca1f92	-0.024673257
165	0xbe0d34e6	-0.1378971
166	0x3e35b178	0.1774348
167	0xbc038314	-0.008026857
168	0xbe9c13a5	-0.30483738
169	0xbe794286	-0.24341783
170	0x3e3f627d	0.18689914
171	0xbe692cfa	-0.22771063
172	0xbe2f6920	-0.17129946
173	0x3e8cd796	0.2750823
174	0xbeaac935	-0.33356634
175	0xbc5d94af	-0.013524218
176	0x3e4e26a7	0.20131932
177	0xbe000cf6	-0.12504944
178	0x3e26c4a1	0.16285945
179	0x3df89377	0.12137502
180	0xbdd91963	-0.10600545
181	0x3df794c0	0.12088919
182	0xbeb9291a	-0.3616417
183	0x3dc6e1f6	0.097110674
184	0xbe6abd41	-0.22923757
185	0x3c848b0b	0.016179582
186	0x3d0e2136	0.03469964
187	0xbce428c0	-0.027851462
188	0x3e067671	0.1313112
189	0x3e7b2a2f	0.2452781
190	0x3e2db39e	0.1696305
191	0xbe1096e0	-0.14120054
192	0x3e37a6c8	0.17934716
193	0xbe10bba0	-0.14134073
194	0xbe7edccf	-0.2488892
195	0x3ca2010d	0.019775892
196	0xbde8201d	-0.1133425
197	0x3b849cc0	0.0040470064
198	0xbebcfa07	-0.36909506
199	0x3d7e6c9a	0.06211529
200	0xbdff0853	-0.124527596
201	0xbe640a32	-0.22269514
202	0x3e7f1869	0.24911655
203	0x3e21da76	0.15805992
204	0xbeb0158c	-0.3439144
205	0xbef87e5c	-0.48533905
206	0xbea0843f	-0.31350896
207	0x3d55f0fc	0.052231774
208	0xbde993bf	-0.114051335
209	0xbe49ad81	-0.19695093
210	0xbf0f59a2	-0.55996144
211	0xbd3b7aa8	-0.04577127
212	0x3e8c31a7	0.27381632
213	0x3dd4ad2a	0.10384591
214	0xbe3f07e8	-0.1865536
215	0x3e26ca0f	0.16288017
216	0x3e424842	0.18972877
217	0x3e843360	0.25820446
218	0xbe710d78	-0.23540294
219	0x3e90c4f4	0.28275263
220	0xbe532d93	-0.20622854
221	0xbd840617	-0.06446474
222	0x3db404a4	0.08789948
223	0xbebeafe3	-0.37243566
224	0x3e8f4512	0.27982384
225	0xbe4a82ed	-0.19776507
226	0x3e37ec93	0.1796134
227	0x3e1b0dd8	0.15142
228	0xbe40ad60	-0.18816137
229	0xbd3c5108	-0.045975715
230	0xbe02745f	-0.12739705
231	0x3d8ab3f4	0.067726046
232	0xbe53a876	-0.20669731
233	0xbeecf247	-0.46278593
234	0x3db9b458	0.09067601
235	0x3e918998	0.28425288
236	0x3e34ed73	0.17668705
237	0xbe5e3a21	-0.21701862
238	0x3dd07b73	0.10179796
239	0x3ead4563	0.33842
240	0xbd024cce	-0.031811528
241	0xbeb1abb8	-0.34701324
242	0x3df25264	0.11832121
243	0xbe6293a5	-0.22126634
244	0xbeaee93d	-0.34162322
245	0x3d96042c	0.073250145
246	0xbecaaa7f	-0.39583203
247	0xbeca3c32	-0.3949905
248	0x3c4f8a4c	0.01266725
249	0xbcb6c573	-0.022310948
250	0x3dc5d2ed	0.096593715
251	0x3da5927c	0.0808458
252	0xbe39465b	-0.18093245
253	0xbe059020	-0.1304326
254	0xbf2ed906	-0.682999
255	0xbe0f3a09	-0.13986982

arith.constant1 f4 [32, 64]
0	0x3dfc3053	0.123139046
1	0x3e230f04	0.15923697
2	0x3ec57198	0.38563228
3	0xbe534c48	-0.20634568
4	0x3dbe5d66	0.09295158
5	0xbd956cb9	-0.07296128
6	0xbe2fcca3	-0.17167906
7	0x3dd09c1c	0.101860255
8	0xbe523b87	-0.2053052
9	0xbe219ef6	-0.15783295
10	0xbe00218c	-0.12512797
11	0xbc9d4fc4	-0.019203074
12	0xbe3a5c44	-0.18199259
13	0xbc8a94fa	-0.01691674
14	0x3d693fe0	0.05694568
15	0xbe57a8b4	-0.21060449
16	0xbdd925aa	-0.10602887
17	0x3e435a0f	0.19077323
18	0x3df1d273	0.11807718
19	0x3dbff0b7	0.093720846
20	0x3db5a333	0.088690184
21	0xbd41e36b	-0.047336023
22	0xbe04a08b	-0.12951867
23	0xbe20a2a6	-0.15687045
24	0x3e117aaf	0.14206956
25	0x3e8d93bd	0.27651778
26	0x3d9e9c7b	0.0774469
27	0xbda105d4	-0.0786244
28	0xbe384b75	-0.17997535
29	0x3e1b3820	0.15158129
30	0xbe81f619	-0.2538307
31	0xbe4bd60a	-0.19905868
32	0xbe5905f8	-0.21193683
33	0xbd07c10e	-0.033143096
34	0xbd15183c	-0.036400065
35	0x3dd0318c	0.101657
36	0x3e6a0e9a	0.22857133
37	0xbc41bc55	-0.011824687
38	0x3c8da920	0.01729256
39	0xbdf42d95	-0.119227566
40	0xbd875e38	-0.06609768
41	0x3e5d0744	0.21584803
42	0x3e69bed6	0.22826704
43	0xbcde3db6	-0.027129035
44	0xbde3577a	-0.11100669
45	0xbdcff238	-0.101536214
46	0xbe700160	-0.23438025
47	0x3e18dbf9	0.14927663
48	0x3d8b2801	0.067947395
49	0x3e9a0898	0.30084682
50	0x3d9b76fa	0.07591052
51	0x3d9ea418	0.07746142
52	0xbd0daa38	-0.03458616
53	0x3e93320e	0.28749126
54	0x3e4a137f	0.19734
55	0x3e152400	0.14564514
56	0x3db16df3	0.08663549
57	0xbe86be6f	-0.26317164
58	0x3dd18498	0.102303684
59	0x3eb93e53	0.36180362
60	0x3e5966ed	0.2123067
61	0xbe0e247c	-0.13881105
62	0x3c99f564	0.01879377
63	0x3e22c513	0.1589549
64	0xbdd47456	-0.10373752
65	0x3d8ba5ba	0.06818719
66	0xbd85e267	-0.065373234
67	0xbde12202	-0.109928146
68	0xbe5f79c4	-0.21823794
69	0xbd9ffb6c	-0.07811627
70	0x3da5f4d7	0.0810334
71	0x3e6863d5	0.22694333
72	0xbef4c201	-0.47804263
73	0xbce4636e	-0.027879443
74	0x3cf9975f	0.030467687
75	0x3e63244c	0.22181815
76	0x3dc16f09	0.094450064
77	0x3e2cc520	0.16872072
78	0x3d2d175c	0.042258605
79	0x3e391fec	0.18078583
80	0xbd6a9583	-0.05727149
81	0x3e354980	0.1770382
82	0xbc9b823d	-0.018983
83	0x3d98757a	0.07444282
84	0x3dee3d7a	0.116328195
85	0xbe6bc3c5	-0.23023899
86	0x3ec54ba9	0.38534287
87	0xbdb900ad	-0.09033332
88	0x3dfcff6e	0.12353407
89	0x3e9797b5	0.2960793
90	0x3e57259a	0.21010438
91	0x3b192017	0.0023365074
92	0xbdf0cfad	-0.11758361
93	0x3cba93d6	0.022775572
94	0x3e8a71f7	0.27040073
95	0xbd1235c1	-0.035695795
96	0x3e83657b	0.2566336
97	0x3e2e3113	0.17010908
98	0xbe2852d3	-0.16437845
99	0x3e10a360	0.14124823
100	0xbe5ffb81	-0.21873285
101	0x3e299af3	0.16563015
102	0xbd5aaafc	-0.05338572
103	0x3d6081dd	0.054811347
104	0xbdee6342	-0.11640026
105	0xbd999552	-0.07499184
106	0x3e3f290a	0.18667999
107	0xbda947c8	-0.08265644
108	0x3d282bc6	0.04105737
109	0xbcc838bb	-0.024441114
110	0x3dd08a3f	0.10182618
111	0x3e7acf1e	0.24493071
112	0x3e2b6ca9	0.1674067
113	0x3da36100	0.07977486
114	0xbd1b6430	-0.037937343
115	0xbd8be2a5	-0.068303384
116	0xbd57af54	-0.05265744
117	0xbd9c1ec7	-0.07623058
118	0x3e699045	0.2280894
119	0xbda811e2	-0.08206536
120	0xbad018a0	-0.001587648
121	0xbe9575c1	-0.29191402
122	0xbdf81395	-0.1211311
123	0xbc72e35e	-0.014824716
124	0xbea14fcd	-0.31506196
125	0x3e99547e	0.29947275
126	0xbeb91e5a	-0.3615597
127	0xbe616faf	-0.2201526
128	0x3d0b42a9	0.03399912
129	0x3e3ab8f5	0.18234618
130	0xbdca2a6e	-0.09871374
131	0xbe30949d	-0.17244191
132	0x3d9ca072	0.0764779
133	0xbed81cf4	-0.4220959
134	0x3d63a199	0.055574033
135	0xbe395bd9	-0.18101443
136	0x3daeac44	0.08528951
137	0x3e59687d	0.21231265
138	0x3e18dfad	0.14929076
139	0x3e991da8	0.29905438
140	0xbe0fc777	-0.14040934
141	0x3df86b48	0.12129837
142	0x3d2c3bfd	0.042049397
143	0xbda4294a	-0.08015688
144	0x3d6dbe24	0.05804266
145	0x3dd71177	0.10501378
146	0x3dc22c8c	0.09481153
147	0x3e45ef2d	0.1932952
148	0x3d856279	0.06512923
149	0xbd10c11e	-0.03534042
150	0xbc18d5dd	-0.009328333
151	0xbd40dfce	-0.047088437
152	0xbefbd1ff	-0.49183652
153	0xbedc5e94	-0.43040907
154	0x3e8740f2	0.26416737
155	0x3e164e3a	0.14678279
156	0x3d462dc8	0.048383504
157	0x3e065c9e	0.13121268
158	0x3cc03437	0.023462398
159	0xbd2e0cc0	-0.042492628
160	0xbe3f8275	-0.18702109
161	0x3d393e23	0.045225274
162	0x3e74e916	0.2391704
163	0xbdf5d861	-0.120041616
164	0xbea69f1f	-0.32543275
165	0xbd5ec812	-0.05439002
166	0xbc24793a	-0.010038668
167	0xbe3fb6fc	-0.18722147
168	0x3d63d967	0.055627253
169	0x3e3edcac	0.18638867
170	0xbd7cb012	-0.06169135
171	0x3e24c336	0.16090092
172	0xbdf89b87	-0.121390395
173	0x3dc193f8	0.09452051
174	0x3f0dd849	0.5540815
175	0x3e01d85c	0.12680191
176	0xbc1371e6	-0.0089993235
177	0x3d1c73df	0.03819644
178	0xbe6c0f14	-0.23052627
179	0xbdab86aa	-0.083752945
180	0x3e0e16be	0.13875863
181	0x3e45cef9	0.19317235
182	0xbd7e7613	-0.062124323
183	0x3dc04ada	0.09389277
184	0xbaf8b706	-0.0018975444
185	0x3ca07af5	0.01958988
186	0xbe62a4e3	-0.22133212
187	0xbea37573	-0.31925544
188	0x3c84576e	0.016154971
189	0xbe452c06	-0.19255075
190	0x3e07a886	0.1324788
191	0x3db2009c	0.086915225
192	0x3e3b2060	0.18274069
193	0xbe045c5f	-0.12925862
194	0xbc4d922d	-0.012547058
195	0xbd42beaf	-0.04754513
196	0xbea4bada	-0.32173806
197	0x3dba98a1	0.09111143
198	0x3bfa33f6	0.0076355888
199	0xbb621dde	-0.0034502666
200	0xbf052bb7	-0.5201983
201	0xbc8f4c7b	-0.017492523
202	0xbe2758ce	-0.1634247
203	0x3e020000	0.12695312
204	0xbe9b83a5	-0.30373874
205	0x3c899347	0.01679386
206	0x3d59b330	0.053149402
207	0xbeb06969	-0.34455422
208	0xbe84826d	-0.25880757
209	0x3cccdb43	0.025006896
210	0x3e5605a0	0.20900583
211	0x3d5826ad	0.05277126
212	0xbde8ca90	-0.11366761
213	0xbea466db	-0.32109722
214	0xbe18b76f	-0.14913724
215	0x3d937d7a	0.07201667
216	0x3c01d06b	0.007923226
217	0xbb9620f6	-0.004581566
218	0x3d30c2ff	0.043154713
219	0xbe437edb	-0.1909136
220	0xbefc8d7b	-0.4932669
221	0x3ed71666	0.42009276
222	0xbe7d3606	-0.2472764
223	0x3e118003	0.14208989
224	0x3c471769	0.0121515775
225	0x3cc3538c	0.02384355
226	0xbe8832be	-0.26601213
227	0xbe3e07b3	-0.18557625
228	0xbe54163b	-0.20711605
229	0x3d528c5f	0.0514034
230	0x3d13a698	0.036047548
231	0xbe0277a9	-0.12740959
232	0xbd942749	-0.072340555
233	0xbea1ecdc	-0.31626022
234	0x3d82907e	0.06375216
235	0x3b58f266	0.0033103465
236	0x3e73891f	0.23782776
237	0x3ea15cb5	0.31516042
238	0x3ea8bfc2	0.329588
239	0x3dce36d1	0.10069049
240	0xbe1b5fbf	-0.15173243
241	0x3e24f7ff	0.16110228
242	0x3e367cba	0.17821017
243	0xbe091362	-0.133863
244	0xbeaf6b93	-0.3426176
245	0x3df0ae79	0.11752028
246	0x3cc7859d	0.024355704
247	0x3ed8b3f1	0.42324784
248	0x3f078f13	0.5295269
249	0xbe5dd767	-0.216642
250	0x3d16b646	0.036794923
251	0x3b5b1c04	0.0033433447
252	0xbeb26077	-0.34839222
253	0xbdad7c55	-0.0847098
254	0xbe284a5d	-0.16434617
255	0x3d75eb1b	0.060038667

arith.constant2 f4 [64, 128]
0	0x3e59c05d	0.21264787
1	0xbea7e7f4	-0.32794154
2	0xbe60a05b	-0.21936171
3	0x3dd3a008	0.10333258
4	0xbe0663c3	-0.13123994
5	0xbe926169	-0.28589943
6	0xbcd38712	-0.025821242
7	0xbe132391	-0.14369036
8	0x3d0220bf	0.03176951
9	0x3da9a649	0.082836695
10	0x3da1b1e8	0.07895261
11	0xbebb9eed	-0.36644688
12	0x3b1228b6	0.0022302098
13	0x3e14984a	0.14511219
14	0x3dba91a4	0.0910981
15	0x3cf5690d	0.029957319
16	0xbd2800ff	-0.041016575
17	0x3c7e48f9	0.015520328
18	0xbe84707b	-0.25867066
19	0x3e194b58	0.14970148
20	0x3dda0b01	0.1064663
21	0xbd400827	-0.046882775
22	0x3d0eb7b5	0.034843165
23	0xbeb4a40d	-0.3528141
24	0xbc89eb9b	-0.016835978
25	0xbd7c76dd	-0.061636794
26	0x3df399d1	0.118945725
27	0x3d1dba48	0.03850773
28	0x3e12ece2	0.14348176
29	0xbe4f5559	-0.20247401
30	0xbe0c9954	-0.13730365
31	0xbe152e62	-0.14568475
32	0xbd6ca5ec	-0.057775423
33	0x3e4834ba	0.19551364
34	0x3ddb2551	0.10700477
35	0xbe1a41ef	-0.15064214
36	0xbb854bc6	-0.004067871
37	0xbd96e455	-0.0736777
38	0xbdef6d8e	-0.11690818
39	0xbe2d1065	-0.16900785
40	0xbe82333c	-0.25429714
41	0x3eb4f1fc	0.3534087
42	0x3cd9d5a8	0.026591137
43	0x3d67d097	0.05659541
44	0x3e6fc230	0.2341392
45	0xbe5092aa	-0.20368448
46	0xbdd63c02	-0.10460664
47	0x3e266fe7	0.16253625
48	0x3e0900c8	0.13379204
49	0xbcf52bc2	-0.029928092
50	0x3bbd812c	0.0057832208
51	0xbe9940c3	-0.29932222
52	0xbd435d79	-0.047696564
53	0x3d16978f	0.03676563
54	0x3da9db57	0.08293789
55	0xbe229b8e	-0.15879652
56	0xbcbe406a	-0.023224074
57	0x3b786880	0.0037904084
58	0xbc4fd5a1	-0.01268521
59	0x3be1a84b	0.006886517
60	0xbe95d160	-0.29261303
61	0xbdb2922c	-0.08719286
62	0xbdee4eae	-0.11636101
63	0x3e858001	0.26074222
64	0x3d23e9ad	0.040017772
65	0x3c9c074d	0.01904645
66	0xbd9f30c0	-0.0777297
67	0xbd859333	-0.06522217
68	0xbe00a533	-0.12563019
69	0xbe81cd0b	-0.25351748
70	0xbd2bc569	-0.041936312
71	0xbda68681	-0.08131123
72	0x3d8c2ace	0.06844102
73	0xbc9d373d	-0.019191379
74	0xbe0e32d2	-0.13886574
75	0xbe609ff3	-0.21936016
76	0xbd5d9095	-0.054092962
77	0x3e9b5d95	0.30344835
78	0xbe14e2bb	-0.14539616
79	0x3dbdfd43	0.092768215
80	0x3df6e159	0.120547004
81	0x3e1dbd2f	0.15404199
82	0xbe2c7888	-0.16842854
83	0x3d43ce0d	0.047803927
84	0xbe4675e3	-0.19380908
85	0xbe72fd8c	-0.23729533
86	0xbd947028	-0.072479546
87	0x3e038251	0.1284268
88	0xbca80629	-0.02051075
89	0x3ccb5b7b	0.024823895
90	0xbe2f91e3	-0.17145495
91	0x3e52a1e4	0.20569569
92	0xbd58be50	-0.05291587
93	0xbe008541	-0.12550832
94	0x3d97300a	0.073822096
95	0x3d76bc19	0.060237978
96	0x3e07ac07	0.13249217
97	0xbd4570cc	-0.048203275
98	0x3e055a65	0.13022764
99	0x3e93134b	0.28725657
100	0x3d9ec4cc	0.0775238
101	0xbab93784	-0.0014130925
102	0x3efdeb9e	0.49593824
103	0xbdc9281c	-0.098221034
104	0x3c4dfed5	0.012572964
105	0x3b156645	0.0022796553
106	0xbe2d35b8	-0.16915023
107	0x3d92a8fb	0.07161137
108	0x3e498124	0.1967817
109	0x3e9f6aeb	0.3113626
110	0x3e1db390	0.15400529
111	0xbd6ffeb5	-0.058592517
112	0x3e043679	0.12911405
113	0x3e016e81	0.1263981
114	0xbbffe556	-0.0078093214
115	0x3d5c3609	0.05376247
116	0x3d90c711	0.07069219
117	0xbded9a02	-0.1160164
118	0x3eba56a6	0.36394233
119	0x3cbbfc4b	0.022947451
120	0xbd7aee2c	-0.061262295
121	0x3dd725e2	0.105052724
122	0x3dab3d9f	0.08361363
123	0x3b3d64a4	0.0028899098
124	0x3e1c3e47	0.15258132
125	0x3e206aed	0.15665789
126	0x3e194dc4	0.14971071
127	0xbe6e1de0	-0.23253584
128	0x3d7c5a73	0.061609697
129	0x3e62532e	0.22102043
130	0x3dad99b7	0.084765844
131	0xbe2aa442	-0.16664222
132	0xbe82f0e7	-0.2557442
133	0xbe8d54b1	-0.27603677
134	0x3d0995dd	0.033590186
135	0xbb96ae6b	-0.004598429
136	0xbc0f5111	-0.008747355
137	0xbc6848a2	-0.014177473
138	0xbb7dc7de	-0.0038723866
139	0xbe921bed	-0.2853693
140	0xbdd4a652	-0.103832856
141	0xbe98bd79	-0.29832056
142	0x3f4f9f63	0.8110258
143	0xbe8017db	-0.250182
144	0x3cdb704a	0.026786942
145	0xbe010282	-0.12598613
146	0xbab8fb7e	-0.0014113036
147	0xbdbb1ef1	-0.09136761
148	0xbdb27349	-0.08713395
149	0x3ef61e28	0.48069882
150	0xbe8660f6	-0.2624585
151	0x3e26283a	0.16226283
152	0xbe05540d	-0.13020344
153	0x3d2fdc2c	0.04293458
154	0x3e1c5159	0.15265407
155	0x3e3b73ea	0.18305936
156	0xbc3f3570	-0.011670455
157	0x3e88fa87	0.26753637
158	0x3e1b588b	0.15170495
159	0x3ec43085	0.38318267
160	0x3e7f6513	0.249409
161	0xbe5eb453	-0.21748476
162	0x3dc9e95f	0.09858965
163	0xbe1447e1	-0.14480545
164	0xbde4450a	-0.11145981
165	0x3e1c183c	0.1524362
166	0x3e4c50eb	0.19952743
167	0xbd81a8e8	-0.063310444
168	0xbe558b0b	-0.20853822
169	0x3d028793	0.031867575
170	0x3d358b8f	0.044322547
171	0xbd98206b	-0.07428058
172	0x3bac6ae3	0.0052617653
173	0xbd7afe58	-0.061277717
174	0x3c69f1a1	0.0142788
175	0x3f143c3c	0.5790441
176	0x3c69dd1d	0.014273909
177	0xbd8d56f9	-0.06901354
178	0xbc1d8100	-0.0096132755
179	0xbe9a2ae8	-0.3011086
180	0x3e7d6ac5	0.2474776
181	0x3e414f83	0.18877988
182	0xbe308d02	-0.1724129
183	0x3eab4df4	0.3345791
184	0xbebfda14	-0.37471068
185	0x3dae6748	0.08515793
186	0xbbd7d4d4	-0.0065866504
187	0xbbf89f01	-0.007587314
188	0xbe5e9ff9	-0.21740712
189	0x3d821e06	0.06353383
190	0x3d50bf40	0.05096364
191	0xbbb9aa36	-0.0056660427
192	0x3e87652e	0.2644438
193	0x3e132d2b	0.14372699
194	0xbcc0a0e9	-0.023514228
195	0xbe7e0d65	-0.24809797
196	0x3dd0e84d	0.10200558
197	0x3d630070	0.05542034
198	0xbed8a712	-0.42314965
199	0xbe0e73f0	-0.13911414
200	0xbe0333ff	-0.12812804
201	0x3d9e2764	0.07722357
202	0x3ba9f4d4	0.0051866565
203	0xbe09a2dd	-0.13441034
204	0xbed1afda	-0.40954477
205	0x3c53fcb4	0.012938667
206	0x3e53a52f	0.20668481
207	0xbd409d31	-0.04702491
208	0x3e0db4da	0.1383852
209	0x3e626fce	0.22112963
210	0x3d982968	0.074297726
211	0xbd2c179b	-0.0420147
212	0x3e2b4736	0.16726384
213	0xbe5c6ff4	-0.21527082
214	0x3d2ddd1f	0.042447206
215	0xbe08aa0d	-0.13346119
216	0xbe430e07	-0.1904832
217	0x3cf4f342	0.02990115
218	0x3d9156d7	0.070966415
219	0xbd320804	-0.043464676
220	0x3e081a29	0.1329123
221	0x3e07bd2d	0.13255759
222	0xbd352b24	-0.044230595
223	0x3d4e4dff	0.05036735
224	0xbd978e4b	-0.07400187
225	0x3da69647	0.08134132
226	0x3d95e9f3	0.07320013
227	0x3d17205d	0.0368961
228	0xbe231bcf	-0.15928577
229	0x3e9a0360	0.300807
230	0xbd4d643e	-0.050144427
231	0xbd65c95b	-0.05610023
232	0x3eb91570	0.36149168
233	0x3d03521a	0.03206072
234	0x3cbdff1e	0.023192938
235	0x3e998676	0.29985398
236	0xbe8d99ce	-0.27656406
237	0x3d918d3b	0.07107016
238	0x3b2bbb6a	0.0026204237
239	0x3de99f6f	0.11407363
240	0xbe33ad82	-0.17546657
241	0xbdeb07ce	-0.11476098
242	0xbca049bb	-0.019566407
243	0xbe5be636	-0.21474537
244	0xbeae5db8	-0.34055877
245	0xbdbd0062	-0.09228589
246	0xbe56dda8	-0.20982993
247	0x3e128a2e	0.14310524
248	0x3e255942	0.1614733
249	0xbdb832e5	-0.08994082
250	0x3dd91996	0.10600583
251	0x3da60142	0.08105709
252	0x3ca4b390	0.020105153
253	0xbd81d55a	-0.06339522
254	0xbe06c23b	-0.1316003
255	0x3ccab47c	0.024744265

arith.constant3 f4 [21]
0	0xbf03e9cc	-0.5152862
1	0xbf845f94	-1.0341668
2	0xbe294d6e	-0.16533443
3	0x3e2301b8	0.15918624
4	0xbefe992c	-0.49726236
5	0x3e8cab37	0.27474377
6	0xbeb774c7	-0.35831282
7	0x3e5ea6cf	0.2174332
8	0x3ec2dcdc	0.38059127
9	0x3e4f07c2	0.20217803
10	0xbd421d67	-0.04739132
11	0x3e4b0cc3	0.19829087
12	0x3eaebbdf	0.3412771
13	0xbe68d3a5	-0.22736986
14	0xbd1c4eb3	-0.03816099
15	0x3eceda11	0.40400746
16	0xbe4a406c	-0.19751137
17	0x3e9c7d39	0.30564287
18	0xbe2cab06	-0.16862115
19	0xbe383073	-0.17987232
20	0xbc300568	-0.010743476

arith.constant4 f4 [32]
0	0x3da9f3c0	0.08298445
1	0xbee7c7d5	-0.45269647
2	0x3d4928a6	0.04911103
3	0x3d9b6fb8	0.07589668
4	0xbf06925b	-0.5256707
5	0xbf372500	-0.7154083
6	0x3d706c0f	0.058696803
7	0x3e5b7704	0.2143212
8	0xbdff7d67	-0.124750905
9	0x3eab453a	0.33451253
10	0xbe51b41c	-0.20478863
11	0xbdae7964	-0.08519247
12	0x3f3a2f0f	0.72728056
13	0xbd2b5d93	-0.041837286
14	0x3e5daa30	0.21646953
15	0x3e697f10	0.22802377
16	0x3e9b68be	0.3035335
17	0xbeddeade	-0.43343252
18	0x3e0ef171	0.1395929
19	0xbd1a0a46	-0.037607454
20	0xbd5d1d09	-0.05398277
21	0xbe82b07b	-0.2552527
22	0xbea9cd11	-0.33164266
23	0x3e03df4e	0.12878153
24	0xbe6bf3cd	-0.23042221
25	0xbea5f678	-0.32414603
26	0x3d9f443f	0.07776689
27	0xbc7447f2	-0.014909731
28	0x3e047d1c	0.1293835
29	0x3f39d9cc	0.72597957
30	0x3e5b6d45	0.21428402
31	0xbe6218fb	-0.22079842

sequential_1/dense_1_2/Add/ReadVariableOp f4 [64]
0	0xbef87555	-0.48527017
1	0x3e3f13da	0.18659917
2	0x3e86ae6d	0.2630495
3	0x3dc0cc26	0.09413938
4	0xbda271db	-0.079318725
5	0xbbff8325	-0.007797616
6	0x3e884653	0.26616153
7	0x3e97d6e9	0.2965615
8	0xbeb70955	-0.35749307
9	0xbe22ea25	-0.15909632
10	0xbc990486	-0.018678915
11	0xbdb40b4a	-0.08791216
12	0xbf10d207	-0.56570476
13	0x3cce80fc	0.025207989
14	0xbe313a9a	-0.17307511
15	0x3df06d8a	0.11739643
16	0xbe88abb3	-0.26693496
17	0xbe07e0fc	-0.13269418
18	0xbc871a5c	-0.016492061
19	0xbee5cb72	-0.4488178
20	0xbd30b373	-0.043139886
21	0xbc080b65	-0.008303498
22	0xbf03cdea	-0.51486075
23	0xbf06f217	-0.5271315
24	0x3ea9427e	0.33058542
25	0xbe1c4c7c	-0.15263551
26	0xbf1f38d3	-0.6219608
27	0x3eb44363	0.35207662
28	0x3e8b59e4	0.2721702
29	0x3e8ea3d4	0.27859366
30	0xbd7d83b4	-0.06189318
31	0x3f1c8a71	0.61148745
32	0xbe8a015e	-0.26954168
33	0x3e1f2534	0.15541536
34	0x3ea8994b	0.32929453
35	0xbe84a233	-0.25904998
36	0x3ddd19d8	0.10795945
37	0x3ea43edd	0.3207921
38	0xbdb24b9b	-0.08705827
39	0xbe66d508	-0.22542202
40	0xbdc71eba	-0.097226575
41	0xbe9af726	-0.30266684
42	0x3f4c0b21	0.7970448
43	0x3f016c8a	0.5055624
44	0x3d2307b6	0.039802276
45	0x3e5861d2	0.21131065
46	0x3d417837	0.047233786
47	0x3cdc4481	0.026888134
48	0xbf13968b	-0.57651585
49	0x3f347a43	0.70499057
50	0xbddf5678	-0.109051645
51	0xbeb7283b	-0.3577288
52	0xbe347cf7	-0.17625795
53	0x3d87813a	0.06616445
54	0xbf14f113	-0.5818035
55	0x3ebfdeb0	0.37474585
56	0x3ede7a9a	0.43452913
57	0xbc29d6a7	-0.0103661185
58	0xbe796130	-0.2435348
59	0xbd64cd14	-0.05585964
60	0x3e03f85d	0.12887712
61	0x3ee7e69f	0.45293137
62	0xbeb88d26	-0.36045188
63	0x3f0db15e	0.55348766

sequential_1/dense_1/Add/ReadVariableOp f4 [128]
0	0xbf9b368f	-1.2126025
1	0xbe57e204	-0.21082312
2	0xbea00e57	-0.3126094
3	0x3ca0d9a8	0.019635037
4	0xbf127b4f	-0.57219404
5	0xbf86282f	-1.0481013
6	0xbf885695	-1.0651423
7	0xbeeb1aa9	-0.45918778
8	0xbe8a4727	-0.2700741
9	0xbf906fb0	-1.1284084
10	0xbf0e8c43	-0.5568277
11	0xbf246e9b	-0.6423127
12	0xbf4fc872	-0.8116523
13	0xbfa0a49e	-1.2550237
14	0xbf4e807b	-0.80664796
15	0xbe50ee05	-0.20403297
16	0x3dee7792	0.116439
17	0xbf0f4af0	-0.5597372
18	0xbef8d7f7	-0.48602268
19	0xbf2a9408	-0.6663213
20	0xbf91d8a4	-1.1394238
21	0xbf096f1f	-0.5368518
22	0xbf1caabd	-0.61198026
23	0xbe9cd963	-0.30634603
24	0xbec11b3d	-0.37716094
25	0xbfd04abe	-1.627281
26	0xbf410af5	-0.75407344
27	0xbf29c901	-0.6632233
28	0xbf31e74d	-0.6949356
29	0xbf599a2f	-0.8500089
30	0xbf4a51f1	-0.7903128
31	0xbf3e1482	-0.7425004
32	0xbf5f3618	-0.87191916
33	0xbf2ef344	-0.68339944
34	0xbf01a6a5	-0.50644904
35	0xbf34dbcd	-0.7064789
36	0xbfb0d9b7	-1.3816441
37	0xbf3a7a09	-0.7284246
38	0x3f42ca39	0.7608982
39	0x3ed6b4c8	0.419348
40	0xbf1e01ec	-0.6172168
41	0xbf968c24	-1.1761518
42	0xbf47c21b	-0.78030556
43	0xbecf12c2	-0.40444
44	0xbf984d6a	-1.1898625
45	0xbf21abb4	-0.63152623
46	0xbf3f1e7b	-0.74655885
47	0xbf4860d8	-0.7827277
48	0xbeb6d274	-0.35707438
49	0xbf6b2438	-0.9185214
50	0xbedea17f	-0.43482587
51	0xbfa55380	-1.2916107
52	0xbf205399	-0.6262756
53	0xbf40be5a	-0.75290453
54	0xbfb76d85	-1.4330298
55	0x3e8671bc	0.26258647
56	0xbf4e1f37	-0.8051638
57	0x3e59e8ef	0.21280263
58	0xbf0b112b	-0.5432307
59	0xbf38daec	-0.7220905
60	0xbead289f	-0.33820054
61	0xbf460fb6	-0.77367723
62	0xbf65d5c1	-0.8977929
63	0xbf91f42b	-1.1402639
64	0xbe8398a3	-0.2570239
65	0xbf646313	-0.89213675
66	0xbe9de4dd	-0.3083867
67	0xbf8c4c44	-1.0960774
68	0xbf966648	-1.1749964
69	0xbf479107	-0.7795567
70	0x3d8dd430	0.06925237
71	0xbf1691b5	-0.5881608
72	0xbf9a22ed	-1.2041909
73	0xbf128aaa	-0.57242835
74	0xbf6c354b	-0.9226882
75	0xbf5ded05	-0.8668979
76	0xbf0ba6e7	-0.5455155
77	0xbf2e748e	-0.681466
78	0xbf46436a	-0.77446616
79	0xbd9a985b	-0.07548591
80	0x3e21722b	0.15766208
81	0xbf7b724e	-0.9822129
82	0xbf2990ae	-0.6623639
83	0xbf7bd75a	-0.98375475
84	0xbf51304a	-0.8171431
85	0xbe686464	-0.22694546
86	0xbf6ad40d	-0.91729814
87	0xbef1616d	-0.47144642
88	0xbf927074	-1.1440568
89	0xbf5dfdd0	-0.8671541
90	0xbee0cc9f	-0.43906114
91	0xbf0c3776	-0.54772127
92	0xbf411974	-0.75429463
93	0xbeb116c3	-0.34587678
94	0xbf054221	-0.5205403
95	0xbf1c4035	-0.6103547
96	0xbf58a232	-0.8462249
97	0x3e1d1cc5	0.15343006
98	0xbf789381	-0.97100073
99	0xbf1ecaa5	-0.6202796
100	0xbf770372	-0.9648963
101	0xbe776d97	-0.24162899
102	0xbf7103de	-0.94146526
103	0x3e9921bc	0.2990855
104	0xbef97cda	-0.48728067
105	0xbf4c73bf	-0.79864115
106	0xbfadb210	-1.3569965
107	0xbf555fba	-0.8334919
108	0xbf8b005f	-1.0859488
109	0xbef82c23	-0.48471174
110	0xbf81d02e	-1.0141656
111	0xbe816b7c	-0.25277317
112	0xbf4e477c	-0.80577826
113	0xbe869373	-0.2628437
114	0xbf315102	-0.69264233
115	0xbf579950	-0.8421831
116	0xbea9f8e4	-0.331977
117	0xbf880649	-1.0626918
118	0xbf81afae	-1.0131738
119	0xbf2e62f7	-0.6811976
120	0xbf2a0a54	-0.6642201
121	0xbf62deee	-0.88621414
122	0xbf788591	-0.97078806
123	0x3dd23ccd	0.10265503
124	0xbf7b9abb	-0.98282975
125	0xbf80be9a	-1.0058167
126	0xbecc0093	-0.39844188
127	0xbf62cf00	-0.88597107

sequential_1/dense_1/MatMul f4 [128, 900]
0	0x3e80cfd5	0.25158563
1	0x3e589156	0.21149191
2	0xbd8addcf	-0.06780588
3	0xbeb39106	-0.35071582
4	0xbc69c1b9	-0.0142673785
5	0x3ea30773	0.3184162
6	0xbe1a5aed	-0.15073748
7	0xbd220182	-0.03955222
8	0x3d5caf6a	0.053878225
9	0x3e3d9294	0.18512946
10	0x3c85fbc5	0.016355405
11	0x3b765636	0.0037588007
12	0xbe76e99f	-0.24112557
13	0x3dec8565	0.115488805
14	0x3e62a2c4	0.22132403
15	0xbe1164a9	-0.14198555
16	0xbd58844d	-0.052860547
17	0xbd240f39	-0.04005358
18	0x3e1a5d40	0.15074635
19	0x3e81af04	0.2532884
20	0xbdbd7b35	-0.092520155
21	0xbe61a79c	-0.22036594
22	0x3e1d2c53	0.1534894
23	0x3eb31c79	0.3498266
24	0xbe2767f4	-0.16348249
25	0x3d71ef49	0.05906609
26	0x3d7962ca	0.06088523
27	0x3dae5217	0.08511751
28	0x3e52b4d7	0.20576797
29	0xbd9567b6	-0.07295172
30	0xbcd30f80	-0.025764227
31	0x3e288cdb	0.16459982
32	0x3e8a5e1e	0.2702493
33	0xbe18b5bc	-0.14913076
34	0x3daabe53	0.08337083
35	0xbda8f6c4	-0.08250192
36	0x3b9e577f	0.0048322077
37	0x3cdf7e8c	0.027282022
38	0xbe3cfd2f	-0.18455957
39	0xbd54e19d	-0.051972974
40	0x3c917859	0.017757582
41	0x3e80b8c1	0.25140956
42	0xbdef19f9	-0.11674876
43	0x3da6acdd	0.0813844
44	0xbd328c70	-0.043590963
45	0x3da8ff34	0.08251801
46	0x3e42b031	0.19012524
47	0xbd3fe921	-0.04685319
48	0xbd824d3f	-0.0636239
49	0x3d347379	0.044055436
50	0x3e0dc3da	0.13844243
51	0xbe30f1f1	-0.17279793
52	0xbc9f8911	-0.019474538
53	0xbd565101	-0.052323345
54	0x3d832776	0.06404011
55	0x3e1937f5	0.14962752
56	0xbe05bf28	-0.13061202
57	0xbcc0a775	-0.02351735
58	0xbe013aa4	-0.12620026
59	0x3d1b1101	0.037858013
60	0xbd48fa27	-0.04906669
61	0x3cd1e19b	0.025620272
62	0x3c1ec86a	0.009691337
63	0x3e3aedbb	0.1825475
64	0x3dfd1c88	0.123589575
65	0xbe065e2e	-0.13121864
66	0xbd96448e	-0.073372945
67	0xbd5515c9	-0.05202273
68	0x3c8c6145	0.017136225
69	0xbdb3ea09	-0.08784873
70	0x3d28abe5	0.041179556
71	0x3d97cda2	0.07412268
72	0x3e3f21a2	0.18665174
73	0x3e281e8b	0.16417901
74	0xbe5a11ac	-0.21295804
75	0xbe3e8f0f	-0.1860926
76	0xbdf80bf2	-0.121116534
77	0xbd2ffa80	-0.042963505
78	0xbdae1097	-0.08499258
79	0x3d662c98	0.05619487
80	0x3d2a8db1	0.041639034
81	0x3d359d0b	0.04433922
82	0x3de01c58	0.10942906
83	0xbdacd0ce	-0.08438264
84	0xbe1d2d9c	-0.1534943
85	0xbda14361	-0.0787418
86	0xbcc11ec7	-0.023574246
87	0xbe14dfdf	-0.14538525
88	0xbc49656b	-0.012292246
89	0x3d10825a	0.035280563
90	0xbd87ce06	-0.06631093
91	0x3d6af1ac	0.057359383
92	0xbe991791	-0.29900792
93	0xbe837d12	-0.2568136
94	0xbe1d8572	-0.15382937
95	0xbc9b9a93	-0.018994605
96	0xbe2483c5	-0.16065891
97	0xbc829cb7	-0.015943868
98	0x3bb906cc	0.005646562
99	0xbd862f07	-0.065519385
100	0x3e7315a7	0.23738728
101	0xbe1061d2	-0.14099815
102	0xbec292ef	-0.38002726
103	0xbd324451	-0.043522183
104	0xbd27d900	-0.04097843
105	0xbe028814	-0.12747222
106	0xbd9bc89b	-0.07606622
107	0x3d582b2e	0.052775554
108	0x3d5cd7e4	0.053916827
109	0x3d4b7b08	0.04967788
110	0xbe134222	-0.14380696
111	0xbeb22ea2	-0.34801203
112	0xbcdab5a5	-0.026697943
113	0xbd4a9c14	-0.049465254
114	0xbca65312	-0.020303283
115	0xbdb9f901	-0.09080697
116	0x3cf413b4	0.029794551
117	0x3dcda929	0.1004203
118	0x3d797201	0.06089974
119	0xbd70dfd3	-0.058807205
120	0xbe8a22e3	-0.2697974
121	0xbd0264fd	-0.03183459
122	0xbbbd9fb7	-0.0057868618
123	0xbd70280a	-0.058631934
124	0xbc613dbe	-0.013747631
125	0xbd86b321	-0.06577135
126	0x3dc1e83d	0.09468124
127	0x3a9d50c0	0.0012002215
128	0xbde2a5ae	-0.11066757
129	0xbc9e08db	-0.019291332
130	0x3e09f450	0.13472104
131	0x3cd8168a	0.026377935
132	0xbd94efcd	-0.07272301
133	0xbd7614c3	-0.060078394
134	0xbd5780a1	-0.052612904
135	0x3daca5b0	0.0843004
136	0x3d607f5b	0.054808956
137	0x3d6e8ea4	0.0582415
138	0xbdef7845	-0.116928615
139	0x3cd2ba20	0.025723517
140	0x3d6dc449	0.05804852
141	0xbb448d27	-0.002999136
142	0xbcedf337	-0.029046638
143	0xbd333688	-0.043753177
144	0x3d796a85	0.0608926
145	0x3e459480	0.1929493
146	0xbe1b5e6d	-0.1517274
147	0xbdc6eef8	-0.097135484
148	0x3d9db9aa	0.07701428
149	0x3cee6850	0.029102474
150	0xbc97d5e7	-0.018534614
151	0xbd4ccdcc	-0.05000095
152	0xbd1cb307	-0.03825667
153	0x3dadf044	0.08493093
154	0x3d0a5eaa	0.033781685
155	0x3c895583	0.016764408
156	0xbdcc360d	-0.09971247
157	0xbe17d5c3	-0.14827637
158	0x3d3750af	0.04475468
159	0xbd007417	-0.031360712
160	0xbccc85fd	-0.024966234
161	0xbd26e5ea	-0.040746607
162	0x3dcdcd43	0.10048916
163	0xbda8ead3	-0.08247914
164	0xbd0b6865	-0.034035105
165	0xbd15e38d	-0.036593962
166	0xbd9e7320	-0.07736802
167	0x3d06423d	0.032778013
168	0x3d0b2902	0.033974655
169	0xbe1f3c24	-0.15550286
170	0xbcc07451	-0.023492964
171	0x3dc971b4	0.0983614
172	0x3d9959bd	0.07487819
173	0xbe0d454f	-0.1379597
174	0x3cf9498c	0.030430578
175	0xbe799818	-0.24374425
176	0x3e5b8828	0.21438658
177	0x3d05c1c5	0.032655496
178	0xbd3c1f13	-0.045928072
179	0xbdd1a8ce	-0.10237275
180	0x3d7a8164	0.061158553
181	0x3e13d3d8	0.1443628
182	0xbe1f5eae	-0.15563461
183	0xbdc31bed	-0.09526811
184	0xbe9ca648	-0.30595613
185	0x3e8a6920	0.2703333
186	0xbda4ce63	-0.08047178
187	0xbcfdd1c0	-0.030983806
188	0x3c82f92c	0.015987955
189	0x3e6fcf2e	0.23418877
190	0x3df8bb5d	0.12145112
191	0xbe4aabc6	-0.19792089
192	0xbe383d4e	-0.17992136
193	0xbec8b70c	-0.39202154
194	0x3e45a9ba	0.19303027
195	0xbdb00a99	-0.08595771
196	0xbd523a7c	-0.051325306
197	0x3d24b1cd	0.040208627
198	0x3e87fc52	0.26559693
199	0x3e2d43c3	0.1692038
200	0xbdb738d3	-0.08946385
201	0xbdf7a882	-0.12092687
202	0xbe750eda	-0.23931447
203	0x3e129b1e	0.14316985
204	0xbdae8e33	-0.08523216
205	0xbc85f910	-0.016354114
206	0x3d416a8f	0.047220763
207	0x3e34f426	0.1767126
208	0x3e74f6e8	0.23922312
209	0xbd753a62	-0.05987013
210	0xbe282ff9	-0.1642455
211	0xbebce5d2	-0.3689409
212	0x3e46b2e0	0.19404173
213	0xbc7826ec	-0.015145998
214	0xbd2a5043	-0.04158045
215	0x3d300434	0.04297276
216	0x3e6cf847	0.23141585
217	0xbb9bbd42	-0.004752786
218	0xbe20433e	-0.15650651
219	0xbda02f4e	-0.07821523
220	0x3cd288de	0.025700029
221	0x3e4df3ec	0.2011258
222	0xbe07b075	-0.13250907
223	0xbe16e1df	-0.147346
224	0xbd0c91dc	-0.03431879
225	0x3d88dc77	0.06682675
226	0x3d1992eb	0.037493628
227	0x3df77c70	0.120842814
228	0xbe662e2d	-0.22478552
229	0xbe65755a	-0.22408047
230	0x3e38c61e	0.18044326
231	0xbd8908d7	-0.06691139
232	0xbe0c931e	-0.13727996
233	0xbab2aefa	-0.0013632469
234	0x3d856855	0.065140404
235	0x3ba0b2df	0.0049041356
236	0x3d1dfaa2	0.0385691
237	0xbe62c4e6	-0.22145423
238	0xbd1cb178	-0.038255185
239	0x3df045a2	0.117320314
240	0xbdf42c76	-0.11922543
241	0xbd8418ed	-0.06450067
242	0xbc213ee0	-0.009841651
243	0x3d9b3e48	0.075802386
244	0xbd5639cc	-0.052301213
245	0x3e4759ba	0.19467822
246	0xbe3ce2e7	-0.18445931
247	0xbe151cf9	-0.14561833
248	0x3dc014a2	0.093789354
249	0xbcb6aad1	-0.022298248
250	0x3bd3e9a1	0.0064670597
251	0x3d22b36a	0.039721884
252	0x3e75d6a9	0.24007668
253	0xbd77d2b5	-0.06050368
254	0xbdeb1d62	-0.11480214
255	0xbc8f951d	-0.017527157
