Models/SubjectDependent/GeneratedTFLiteFilesAndOGModels/SimpleMLP.tflite (tflite, 512836 bytes, 10 tensors)

arith.constant f4 [21, 32]
-0.92471176 -0.56372136 0.5482968 0.33252943 0.59491915 0.25031278 -0.4793494 -0.0912453
-1.2603072 -0.34265387 0.112585664 -1.2618428 0.384243 -0.6262947 -0.92880994 -0.9385065
0.42578793 0.4792364 -0.23343937 -0.07588956 0.70931906 -1.4593189 -0.0028033315 0.5804062
-0.90373117 -1.3713013 0.74672616 0.27143812 0.28573817 -1.4879864 0.44887462 0.60868865
-1.108477 0.1784449 0.8185047 -0.7274808 -1.1184506 0.84398603 1.212389 -1.6620402
-1.8406602 -0.4208105 -1.8316389 0.96141404 0.23269159 0.11979741 0.5000826 -2.3440256
-0.65021133 1.1467098 -1.5336914 0.6435875 0.62764335 -1.6783311 0.63873935 0.24070479
-1.9408429 -0.8603911 0.37607425 -0.6922069 1.154338 -3.652377 -1.7632289 -1.5401087
-1.3456932 -0.14954591 -1.1407065 -0.97116184 -0.23084436 0.9565627 0.08010783 -1.035902
-1.0135883 0.41862276 -0.9990801 -1.2444127 -1.1648182 0.2905098 0.39419898 -1.1508181
-1.2496508 0.12516008 0.9283351 0.70768356 0.7750524 -0.03689597 0.92746234 0.74381346
-1.2797711 0.6257397 1.1090965 -0.10362172 -1.294825 -2.5117218 -1.0638803 -0.8043309
-1.4495859 -0.1357758 -0.60725135 0.47664154 -0.25929767 0.8719579 -1.0945028 -0.2555066
-2.2203922 0.4918619 -0.28988725 0.06392114 -0.07373986 -1.5334654 -0.5189468 0.6401999
-0.91875035 -1.0623999 -1.9352119 1.3239663 0.8561866 0.40757576 -1.8107635 0.47264266
-0.4462629 0.47330654 0.9475505 0.5759788 -1.5553002 -0.097579606 -1.7584773 1.4188389
0.75647306 -0.03437284 0.12875222 0.8102165 1.0960064 -0.9914923 -0.11260938 -1.2224725
-0.979626 0.7638105 0.6085985 -2.1326377 -1.6556863 -0.0444546 -1.1595417 -1.1375457
0.6906119 -0.49607387 -0.69689167 -0.17004742 0.88712806 -2.1416883 0.6084925 0.46500418
0.24849485 0.6338895 0.16745599 -0.66754353 -1.3375069 -3.2340784 0.5560531 -0.1386954
-0.8422925 -0.031017577 0.52554613 0.06494634 0.98634785 0.07092707 -1.4381256 -1.4987398
0.7000747 -0.35308102 0.26812097 -0.19902915 -0.3409195 -0.95218974 0.43808302 -1.2694525
-0.37238294 -1.026901 0.77441615 -0.3273785 -0.13130623 0.22565623 0.7011906 -0.6281875
0.48750466 -0.8151603 -2.2417893 0.008914274 1.3743694 0.8645295 0.37356028 -0.05510886
0.92675275 -1.2169554 -1.9070396 -0.67734736 0.114645235 -0.70151603 -0.4431664 0.39731374
0.8047967 1.3523338 -0.036974665 -1.895263 -1.2336743 1.1161125 -0.6835325 -1.341192
0.37511107 -1.0457401 0.6596956 -1.0656561 -0.75517696 -1.8995214 0.66911787 0.8291046
0.6478847 -0.21924417 -0.60085106 0.3884303 -0.47661695 -2.7216449 1.0992404 0.10207205
-0.7238942 -0.976091 0.010779456 -1.6858691 -1.0635675 0.6024295 0.113696106 -1.4007277
0.6951288 -1.3958834 0.970779 -0.8397842 0.029261706 0.23233575 -0.27196205 0.9531698
1.2259195 -0.02206037 0.49240565 -1.7137053 0.33128572 0.60555714 -0.028594676 -0.80527806
-0.97595584 0.17318068 0.012851028 -1.3004997 0.34653988 0.9162232 -0.48981914 -1.3540981
00000000: e9b9 6cbf 0b50 10bf 2e5d 0c3f 4c41 aa3e
00000010: 9f4c 183f ff28 803e 496d f5be d1de babd
00000020: bf51 a1bf 5470 afbe 5093 e63d 1184 a1bf
00000030: 80bb c43e d954 20bf 7dc6 6dbf f641 70bf
00000040: e000 da3e 795e f53e bb0a 6fbe fc6b 9bbd
00000050: ef95 353f f6ca babf 19b8 37bb 8095 143f
00000060: ed5a 67bf cd86 afbf 7229 3f3f f0f9 8a3e
00000070: 464c 923e 5776 bebf e5d2 e53e 05d3 1b3f
00000080: 93e2 8dbf 43ba 363e 8689 513f 2f3c 3abf
00000090: 6429 8fbf 780f 583f 902f 9b3f bcbd d4bf
000000a0: c19a ebbf 7974 d7be 2573 eabf 3b1f 763f
000000b0: b446 6e3e 5858 f53d 6a05 003f 8404 16c0
000000c0: 4074 26bf 63c7 923f 0050 c4bf 27c2 243f
000000d0: 3cad 203f 8ed3 d6bf 6c84 233f 517b 763e
000000e0: 8a6d f8bf 9742 5cbf ce8c c03e 7934 31bf
000000f0: 59c1 933f 8bc0 69c0 7cb1 e1bf 4822 c5bf
00000100: ad3f acbf 9022 19be ac02 92bf 109e 78bf
00000110: 7762 6cbe 4be1 743f 930f a43d 7098 84bf
00000120: 43bd 81bf b955 d63e b7c3 7fbf ea48 9fbf
00000130: c318 95bf b3bd 943e 73d4 c93e 024e 93bf
00000140: 8ff4 9fbf f729 003e 5ea7 6d3f c02a 353f
00000150: d669 463f 3b20 17bd 2c6e 6d3f 8f6a 3e3f
00000160: 8acf a3bf 7a30 203f e0f6 8d3f a037 d4bd
00000170: d3bc a5bf 0dc0 20c0 3b2d 88bf a1e8 4dbf
00000180: 088c b9bf d008 0bbe d374 1bbf 5c0a f43e
00000190: aac2 84be a238 5f3f ab18 8cbf c3d1 82be
000001a0: e81a 0ec0 53d5 fb3e 1a6c 94be 16e9 823d
000001b0: ec04 97bd 9848 c4bf b3d9 04bf 24e4 233f
000001c0: 3933 6bbf b8fc 87bf 06b5 f7bf ba77 a93f
000001d0: 0c2f 5b3f c5ad d03e 19c7 e7bf 38fe f13e
000001e0: 927c e4be 3c55 f23e ab92 723f 5973 133f
000001f0: 1414 c7bf d1d7 c7bd c915 e1bf 839c b53f
00000200: 38a8 413f 89ca 0cbd 9fd7 033e 596a 4f3f
00000210: f049 8c3f 70d2 7dbf bf9f e6bd fb79 9cbf
00000220: c5c8 7abf 1689 433f 1ccd 1b3f 237d 08c0
00000230: 87ed d3bf 0716 36bd dd6b 94bf 199b 91bf
00000240: f1cb 303f 65fd fdbe 7e67 32bf e920 2ebe
00000250: d31a 633f 6c11 09c0 2ac6 1b3f 0715 ee3e
00000260: 6f75 7e3e 9546 223f 9579 2b3e 22e4 2abf
00000270: 6d33 abbf 24fb 4ec0 7f59 0e3f 2b06 0ebe
00000280: 7ba0 57bf 9318 febc 318a 063f 9602 853d
00000290: 4b81 7c3f 3642 913d 8014 b8bf b5d6 bfbf
000002a0: 1838 333f 09c7 b4be 2747 893e 4cce 4bbe
000002b0: 008d aebe b5c2 73bf 6b4c e03e 6b7d a2bf
000002c0: faa8 bebe 7e71 83bf 2340 463f 289e a7be
000002d0: 2475 06be 6d12 673e 3a81 333f e5d0 20bf
000002e0: 369a f93e 58ae 50bf 7a79 0fc0 2d0d 123c
000002f0: 56eb af3f ce51 5d3f 4b43 bf3e d4b9 61bd
00000300: ab3f 6d3f 32c5 9bbf e019 f4bf a366 2dbf
00000310: 1fcb ea3d 8e96 33bf b5e6 e2be b56c cb3e
00000320: 2807 4e3f 4619 ad3f bf72 17bd fa97 f2bf
00000330: 0ae9 9dbf c6dc 8e3f fcfb 2ebf 2eac abbf
00000340: 8f0e c03e d0da 85bf d0e1 283f 6b67 88bf
00000350: 4753 41bf 8423 f3bf 4f4b 2b3f 3340 543f
00000360: c6db 253f 8b81 60be 60d1 19bf 56e0 c63e
00000370: 2307 f4be 6e2f 2ec0 e9b3 8c3f 270b d13d
00000380: 2151 39bf 1ae1 79bf 519c 303c 8fca d7bf
00000390: fb22 88bf d238 1a3f 81d9 e83d 0c4b b3bf
000003a0: f6f3 313f 4fac b2bf f984 783f 19fc 56bf
000003b0: 3fb6 ef3c 6ce9 6d3e 9c3e 8bbe f002 743f
000003c0: eeea 9c3f f3b7 b4bc 981c fc3e b25a dbbf
000003d0: 489e a93e cb05 1b3f 623f eabc b426 4ebf
000003e0: 3ed8 79bf 4756 313e 1e8d 523c c676 a6bf
000003f0: ad6d b13e 9b8d 6a3f 93c9 fabe 1653 adbf

arith.constant1 f4 [32, 32]
0.08132931 0.1503211 -0.17786473 0.13206369 0.06815403 -0.1382102 0.28910378 0.20832951
0.012305728 0.3553213 -0.46596697 -0.29699197 -0.12890844 -0.23832457 0.3507506 0.20635769
-0.23866786 -0.3159094 0.117433384 -0.27714658 -0.19091296 0.012957919 0.28949514 -0.50733036
0.20953287 -0.023625737 -0.34811386 0.25411326 -0.059703566 -0.03506207 -0.5220096 -0.18105064
0.5840692 0.1691788 -0.4415026 -0.2870529 0.2657436 -0.37973025 0.17201224 0.23361729
-0.038317904 -0.030069793 0.26788127 -0.17068 3.268288e-05 0.04596385 -0.11340664 0.3989381
0.044195432 0.3333818 -0.3165441 -0.07888592 -0.5502298 -0.050387528 0.54557425 -0.5288177
-0.7133757 -0.1890034 0.08423983 0.26496205 -0.30227104 -0.06874967 0.066774026 -0.015899362
-0.17257509 -0.2740954 -0.828949 0.06511396 0.32548714 0.4585646 -0.18961102 0.08100124
0.08268457 0.053829912 0.18189524 -0.2295648 0.60222435 0.13524441 -0.085594885 0.17395741
-0.40220553 0.063955784 -0.057797138 -0.443528 0.04964161 0.35064137 0.111983195 0.35087597
0.01453779 -0.12878823 -0.05748149 -0.015186821 -0.73537284 0.10407913 -0.15602948 0.6847301
-0.053157736 0.16409059 -0.13999741 -0.43726087 0.26811752 0.3362631 -0.28056294 -0.16724052
0.09760219 0.07608381 -0.16008876 -0.38982567 -0.29821298 -0.078142725 -0.10234481 0.13700153
0.5977621 -0.28393972 -0.25411683 -0.23422374 -0.1329066 0.13633974 -0.4300599 0.1326714
0.18371482 0.28495398 0.024027571 -0.13625333 0.27953652 0.34180275 0.5241242 0.2784621
0.16201466 0.16249432 -0.3022825 -0.3186481 0.19181381 0.2140016 0.24280295 -0.40182447
-0.2141062 -0.393443 0.07429637 -0.11772264 -0.32910344 0.006270271 0.060443465 -0.3068338
0.22671369 0.28790236 -0.20790724 0.20349811 -0.52464944 0.475575 -0.24841025 0.3655801
-0.2537395 0.20324644 0.009636906 0.24446468 -0.16379854 -0.21708919 0.41083062 -0.18854707
-0.6179214 -0.40104553 0.4648719 -0.07704889 0.6494954 -0.28843126 -0.19815926 -0.10060903
0.28314888 0.09984445 -0.01855938 0.1914672 0.34728968 -0.43398136 0.022164062 0.055114057
-0.14409804 -0.39567053 -0.2050325 -0.24460404 0.50896645 -0.062300693 -0.33161175 0.3700356
-0.3508266 0.32951576 0.41171506 -0.25986207 0.13608174 0.1478983 -0.45838147 -0.17551365
0.062061273 -0.14111885 0.24325636 0.22258069 -0.16704284 0.096090116 -0.3038885 -0.17338149
0.5483225 0.51449615 -0.27890006 0.2720647 0.42637587 -0.44601622 -0.29240057 -0.100333035
-0.32715663 -0.032794744 0.05401694 0.03974912 0.065024845 0.19531427 -0.04720358 -0.32823366
-0.31922835 0.20717007 -0.30383325 -0.18404502 -0.53903574 -0.18128055 0.25722092 0.052705508
0.31981486 0.085935794 0.27767336 0.30387717 -0.32299688 -0.025932224 0.07356133 0.27356198
0.0008415282 0.4288253 -0.4613135 0.18041016 -0.17592616 -0.043317128 -0.099724084 0.017953351
-0.04527203 -0.16842647 0.28080878 0.0030105007 -0.4462033 -0.52916 -0.14460202 0.2686781
0.35650697 -0.05401002 -0.18821837 -0.35648212 0.2204654 0.15322915 0.052064236 -0.23111546
00000000: fb8f a63d c6ed 193e 2c22 36be b43b 073e
00000010: 5794 8b3d fa86 0dbe 6905 943e 5554 553e
00000020: f79d 493c acec b53e 3993 eebe 550f 98be
00000030: 9300 04be 5b0b 74be 9595 b33e 6e4f 533e
00000040: 5965 74be e0be a1be ea80 f03d 28e6 8dbe
00000050: b07e 43be 744d 543c b538 943e 67e0 01bf
00000060: c98f 563e c38a c1bc fb3b b2be 221b 823e
00000070: ba8b 74bd 3f9d 0fbd 6ca2 05bf 5765 39be
00000080: 8f85 153f 353d 2d3e a10c e2be 99f8 92be
00000090: 8c0f 883e 016c c2be fa23 303e 5f39 6f3e
000000a0: 3cf3 1cbd ed54 f6bc bc27 893e bdc6 2ebe
000000b0: fa14 0938 9744 3c3d be41 e8bd 9d41 cc3e
000000c0: 4506 353d 05b1 aa3e 1112 a2be f18e a1bd
000000d0: dcdb 0cbf 2763 4ebd c1aa 0b3f 9960 07bf
000000e0: ca9f 36bf 1b8a 41be ef85 ac3d 1ba9 873e
000000f0: 45c3 9abe a1cc 8cbd d2c0 883d 613f 82bc
00000100: 86b7 30be 3b56 8cbe 0036 54bf 785a 853d
00000110: 40a6 a63e fbc8 ea3e 6429 42be fae3 a53d
00000120: 8756 a93d c17c 5c3d bf42 3a3e 0913 6bbe
00000130: 602b 1a3f 837d 0a3e 5f4c afbd e421 323e
00000140: e2ed cdbe 40fb 823d b1bc 6cbd 1a16 e3be
00000150: 0055 4b3d 4487 b33e 7257 e53d 04a6 b33e
00000160: e92f 6e3c 10e1 03be b671 6bbd 25d2 78bc
00000170: 6541 3cbf 7027 d53d 31c6 1fbe 794a 2f3f
00000180: edbb 59bd 5d07 283e 7b5b 0fbe a8e0 dfbe
00000190: b346 893e ad2a ac3e f2a5 8fbe 1941 2bbe
000001a0: a8e3 c73d d4d1 9b3d 4fee 23be 3b97 c7be
000001b0: 5faf 98be 4b09 a0bd 289a d1bd 214a 0c3e
000001c0: f006 193f 8c60 91be 9a1b 82be 59d8 6fbe
000001d0: ab18 08be a59c 0b3e d030 dcbe 03db 073e
000001e0: bd1f 3c3e 7de5 913e 78d5 c43c fe85 0bbe
000001f0: 691f 8f3e c500 af3e 012d 063f 9692 8e3e
00000200: 2ce7 253e e964 263e c6c4 9abe d825 a3be
00000210: d76a 443e 3c23 5b3e 56a1 783e f0bb cdbe
00000220: a83e 5bbe 5c71 c9be b228 983d 9118 f1bd
00000230: 3f80 a8be d876 cd3b 9193 773d 5219 9dbe
00000240: a227 683e f067 933e a3e5 54be cf61 503e
00000250: 6d4f 06bf 917e f33e 425f 7ebe 512d bb3e
00000260: 25ea 81be d61f 503e 1de4 1d3c f354 7a3e
00000270: ceba 27be a14c 5ebe 6458 d23e 7c12 41be
00000280: 1930 1ebf d755 cdbe b103 ee3e cfcb 9dbd
00000290: 5545 263f 43ad 93be 43ea 4abe 1b0c cebd
000002a0: e4f8 903e 3f7b cc3d d709 98bc fa0f 443e
000002b0: f4cf b13e ce32 debe 6891 b53c 47bf 613d
000002c0: 708e 13be 5495 cabe 0af4 51be 7b79 7abe
000002d0: a04b 023f 032f 7fbd 04c9 a9be 4e75 bd3e
000002e0: 8b9f b3be 4ab6 a83e 51cc d23e a40c 85be
000002f0: 0359 0b3e a772 173e fab0 eabe dab9 33be
00000300: f633 7e3d 7681 10be 3218 793e 31ec 633e
00000310: 470d 2bbe e5ca c43d 4697 9bbe eb8a 31be
00000320: dd5e 0c3f 05b6 033f fdcb 8ebe 104c 8b3e
00000330: f04d da3e 3d5c e4be 87b5 95be 687b cdbd
00000340: 1381 a7be c853 06bd de40 5d3d f9cf 223d
00000350: bf2b 853d 7700 483e 8b58 41bd 3e0e a8be
00000360: e671 a3be 6424 543e 0890 9bbe 4c76 3cbe
00000370: 3ffe 09bf 9ca1 39be 76b2 833e bbe1 573d
00000380: c6be a33e 1bff af3d 342b 8e3e ca95 9b3e
00000390: d95f a5be d16f d4bc 53a7 963d 5110 8c3e
000003a0: 009a 5c3a fd8e db3e 4831 ecbe 71bd 383e
000003b0: fd25 34be 4d6d 31bd 243c ccbd e812 933c
000003c0: 2a6f 39bd fd77 2cbe 2bc6 8f3e d24b 453b
000003d0: c274 e4be 0877 07bf 8d12 14be 2d90 893e
000003e0: 1588 b63e 9c39 5dbd 51bc 40be d384 b6be
000003f0: afc1 613e 1ae8 1c3e 4f41 553d 88a9 6cbe

arith.constant2 f4 [32, 64]
-0.48194242 0.108029395 0.14485928 0.23181948 -0.16230229 -0.30130172 0.17932792 0.21258609
-0.13706385 -0.45810696 -0.28621215 -0.16216011 0.11877024 0.026535759 -0.87415516 0.12836722
0.058946658 -0.117264 -0.25389963 0.21048944 0.26207638 -0.37969697 0.32657644 0.31608075
0.008639104 0.30665717 0.11700667 -0.24507307 0.092410766 -0.49409047 0.05424868 -0.14058362
-0.36254838 0.17280571 -0.35411075 -0.37916824 0.31371456 -0.2785261 -0.4498048 -0.32530776
0.31477034 -0.17664114 0.2677881 -0.019277312 0.27215666 -0.0732728 0.16502787 -0.59429497
0.16464663 0.15708087 -0.5055824 0.023158504 -0.24841812 -0.2886387 0.20033431 -0.8633548
-0.3162619 -0.18960877 -0.44412977 0.036880564 0.11485082 0.25924546 0.115940265 -0.13148575
0.016009837 0.6052136 0.20337743 -0.0081603555 -0.3546139 0.12980309 -0.24218574 0.25525078
-0.28685418 0.073488824 0.119288705 0.14864028 0.023511171 -0.0068758684 0.21005997 0.19797486
-0.16819738 -0.42680222 -0.09112347 0.06386033 -0.3571327 0.20199963 0.3416845 0.05283456
-0.13427134 0.5298302 -0.1579286 0.32164225 -0.5524432 -0.6244846 0.6130972 0.24700426
0.05381543 -0.2662225 0.042708438 -0.097110316 0.040157456 0.26443484 0.5066098 -0.11828216
0.28430262 -0.014373443 -0.14829779 0.022693675 0.056940548 -0.31790686 0.028219817 0.19010694
-0.14019331 0.09079528 0.118894726 -0.062017918 -0.033466954 -0.10133643 -0.015756266 0.38180873
-0.14739178 -0.039982893 0.08914748 0.017109074 -0.05751225 -0.16874294 -0.11525254 0.2930905
-0.50071204 -0.008963239 0.08351161 0.1631162 -0.6803623 0.24823053 0.036747124 0.28172448
-0.40800565 -0.087950654 0.17747267 0.46458882 0.15318085 0.27503666 -0.4680147 -0.1060176
0.072004706 0.09397266 -0.12518474 -0.82835174 -0.7380996 -0.41473398 -0.23047744 -0.39681736
-0.076084286 -0.42420277 -0.3432014 -0.17136748 0.4874803 0.15853783 0.18792841 -0.3228996
0.23230553 -0.7922808 -0.37997073 0.10677707 -0.03210312 -0.051093534 -0.108319886 -0.3134316
0.15456083 0.58054507 -0.34862968 0.1831911 -0.33412775 0.4094461 -0.49092555 0.20104538
-0.54936224 0.16439055 -0.11478169 -0.37277374 0.64571345 -0.1003122 -0.24556677 -0.20588152
0.3661145 0.09928801 -0.5821735 0.23656853 -0.40279445 -0.16291393 -0.30579892 -0.17913844
0.1754895 0.2749012 -0.17822272 -0.104912475 -0.15882558 0.3061941 0.18404108 0.027403826
-0.24975185 -0.6363245 -0.37357584 0.21069779 0.1706938 -0.17818403 -0.07719436 -0.392359
-0.4963538 -0.2924904 0.039371684 0.35379028 -0.26031417 -0.65690255 0.37789828 0.32974443
-0.48583153 0.00972423 -0.93919766 -0.24677494 -0.057038378 -0.0623751 0.093563944 -0.61695164
-0.6155294 0.18289901 -0.3937419 -0.14200382 -0.0012312158 -0.5657598 -0.4200223 -0.3884167
-0.056501124 -0.61862695 -0.03118401 0.024184026 -0.05422454 -0.6924495 -0.4379999 -0.22954413
-0.1262378 -0.14671837 0.30299404 0.16916555 -0.16720866 -0.058411065 -0.13748038 -0.30594435
-0.099381596 -0.38201797 0.401766 -0.16086696 0.2002113 0.20111501 -0.09514632 -1.0846133
00000000: 28c1 f6be 843e dd3d fe55 143e 1662 6d3e
00000010: 9232 26be 3844 9abe bda1 373e 2bb0 593e
00000020: 775a 0cbe ff8c eabe 668a 92be 4d0d 26be
00000030: d03d f33d 8561 d93c a2c8 5fbf b272 033e
00000040: 0d72 713d 1c28 f0bd 22ff 81be 8b8a 573e
00000050: e02e 863e a467 c2be 0735 a73e 56d5 a13e
00000060: 078b 0d3c 2b02 9d3e 31a1 ef3d 6ff4 7abe
00000070: db41 bd3d 6df9 fcbe dd33 5e3d 27f5 0fbe
00000080: f19f b9be fbf3 303e 014e b5be 5722 c2be
00000090: 329f a03e f99a 8ebe d14c e6be bd8e a6be
000000a0: 9429 a13e 6ae1 34be 861b 893e 74eb 9dbc
000000b0: 1e58 8b3e 0d10 96bd 11fd 283e b723 18bf
000000c0: 2099 283e cfd9 203e d96d 01bf e7b6 bd3c
000000d0: 5261 7ebe 74c8 93be 7024 4d3e d204 5dbf
000000e0: 14ed a1be cd28 42be fa64 e3be 1310 173d
000000f0: e836 eb3d d2bb 843e 1772 ed3d 33a4 06be
00000100: 1027 833c 47ef 1a3f 2c42 503e 03b3 05bc
00000110: f48f b5be 1aeb 043e 8aff 77be 3bb0 823e
00000120: 8dde 92be 4f81 963d a34d f43d 2835 183e
00000130: 809a c03c f74e e1bb f619 573e ecb9 4a3e
00000140: ef3b 2cbe d285 dabe f19e babd 34c9 823d
00000150: 19da b6be fed8 4e3e 45f1 ae3e 0d69 583d
00000160: 6d7e 09be f4a2 073f 09b8 21be 4bae a43e
00000170: eb6c 0dbf 39de 1fbf f0f3 1c3f afee 7c3e
00000180: 916d 5c3d 514e 88be 0bef 2e3d c6e1 c6bd
00000190: 257c 243d 0164 873e 2eb1 013f eb3d f2bd
000001a0: 1d90 913e 977e 6bbc 60db 17be 16e8 b93c
000001b0: 7e3a 693d b0c4 a2be 3f2d e73c 65ab 423e
000001c0: d68e 0fbe e0f2 b93d 147f f33d 8006 7ebd
000001d0: a514 09bd 7989 cfbd 4913 81bc 6f7c c33e
000001e0: dfed 16be 1ac5 23bd f492 b63d 5428 8c3c
000001f0: f791 6bbd f3ca 2cbe 8609 ecbd f50f 963e
00000200: aa2e 00bf 8dda 12bc 2308 ab3d ef07 273e
00000210: 392c 2ebf 2530 7e3e 2784 163d 313e 903e
00000220: 1ee6 d0be 791f b4bd 65bb 353e 96de ed3e
00000230: 71db 1c3e 9bd1 8c3e 9f9f efbe c11f d9bd
00000240: 3477 933d bd74 c03d 6e30 00be dc0e 54bf
00000250: 18f4 3cbf 0358 d4be 4702 6cbe a52b cbbe
00000260: 14d2 9bbd 1b31 d9be 18b8 afbe f57a 2fbe
00000270: 0597 f93e be57 223e 4e70 403e 1953 a5be
00000280: 80e1 6d3e ead2 4abf 868b c2be f0ad da3d
00000290: 907e 03bd 7447 51bd d1d6 ddbd 1b7a a0be
000002a0: 3245 1e3e 9a9e 143f 977f b2be 7396 3b3e
000002b0: cb12 abbe eba2 d13e 985a fbbe d7de 4d3e
000002c0: 01a3 0cbf ff55 283e aa12 ebbd 33dc bebe
000002d0: 7a4d 253f 7c70 cdbd db75 7bbe 9bd2 52be
000002e0: 5c73 bb3e 8357 cb3d 5309 15bf 053f 723e
000002f0: 133b cebe e9d2 26be ad91 9cbe 1170 37be
00000300: 85b3 333e dabf 8c3e 0480 36be 5adc d6bd
00000310: 2ca3 22be 79c5 9c3e 4475 3c3e fd7d e03c
00000320: f3be 7fbe 2ae6 22bf 5545 bfbe 29c1 573e
00000330: 5bca 2e3e e075 36be 1418 9ebd 47e3 c8be
00000340: 1622 febe 4dc1 95be 3444 213d 0024 b53e
00000350: e647 85be c42a 28bf e27b c13e 43d4 a83e
00000360: e9be f8be 6052 1f3c 426f 70bf 92b2 7cbe
00000370: 13a1 69bd 087d 7fbd 749e bf3d 8bf0 1dbf
00000380: 5693 1dbf e149 3b3e 8a98 c9be 7369 11be
00000390: bf60 a1ba a2d5 10bf 2a0d d7be 8ede c6be
000003a0: b96d 67bd 565e 1ebf 9c75 ffbc 941d c63c
000003b0: 8d1a 5ebd 5f44 31bf 8641 e0be 9e0d 6bbe
000003c0: 7b44 01be 573d 16be 0922 9b3e bc39 2d3e
000003d0: bf38 2bbe 7140 6fbd a8c7 0cbe bda4 9cbe
000003e0: 9488 cbbd dc97 c3be 46b4 cd3e 4fba 24be
000003f0: 3104 4d3e 18f1 4d3e 13dc c2bd 9cd4 8abf

arith.constant3 f4 [64, 128]
0.07295265 0.5365076 -0.09229018 -0.53169763 -0.014610354 0.044606764 0.07147017 -0.2667539
-0.017394198 -0.2024192 0.0050081676 0.20573287 -0.23970246 0.2806104 0.37180153 -0.14078237
0.5145702 -0.00092151004 0.0041628494 -0.34382588 -0.093820624 0.14230533 -0.22591394 0.052653804
0.24349444 -0.33747378 0.3578569 -0.0029373306 0.0661793 -0.13057311 0.18353549 -0.22017479
0.47095647 -0.29466167 0.3985711 0.17631729 0.15608305 -0.38107756 -0.08861932 0.16702715
-0.12934232 0.40731463 0.09034363 -0.010341969 0.12802799 0.20364268 -0.12798655 0.049969472
0.0043942267 -0.1458845 -0.00037766428 0.4956636 0.060308363 0.12331275 -0.02007989 -0.45184666
-0.01073097 -0.42912966 0.012496401 -0.04394225 0.016846683 0.15864341 -0.0925452 0.33784518
0.11950528 0.077799894 0.40684018 -0.25234857 0.18803443 -0.116432875 -0.14678654 -0.17423128
-0.5218068 -0.23911282 0.27097684 -0.45387578 -0.028825182 0.4083966 -0.06642313 -0.06924031
-0.011260358 -0.031459197 -0.08891774 -0.16848879 0.08945059 0.60299814 0.12639078 -0.0029507363
0.35008433 0.013560709 0.34961754 -0.59145164 0.40991446 0.359875 -0.2665473 -0.07308438
-0.37162036 0.16341642 -0.08818826 -0.14339758 0.15594618 -0.154185 -0.2694651 0.3994697
0.4103499 -0.13711303 0.20461966 0.5320254 -0.44283488 -0.37604344 0.08255667 0.3589099
0.5896143 -0.003913678 0.023691267 -0.4046126 0.3272618 0.47653872 0.009073577 -0.23999725
-0.07498969 0.7378082 0.00059658743 -0.30095333 0.17959179 0.29557064 -0.24955137 0.35949603
-0.032772224 0.008770855 0.542321 -0.2740191 -0.028540423 -0.06105973 0.27371916 0.5352426
0.16424263 0.23332042 -0.47265154 0.13664573 0.5111453 0.21219505 -0.68509585 0.3199866
0.24352409 -0.22841294 0.36892 0.19322497 -0.10445838 -0.11434814 0.016190484 -0.11490942
0.0047954023 0.45660302 0.2546833 -0.15885079 0.08926578 -0.3945695 -0.1315193 0.44091105
0.35263994 -0.023153022 -0.29570755 -0.13704665 -0.07726107 -0.34726527 0.004601051 0.036974195
-0.078600906 -0.25048345 -0.16950752 -0.47938707 0.19495259 0.49874878 -0.0122439 0.49320704
0.025304405 -0.5761706 -0.41196647 0.7379096 -0.25597584 0.4593819 -1.1651138 0.13035034
0.20741987 -0.6892851 -0.4388285 0.02608899 0.18950239 0.19651715 0.4610986 0.29428536
-0.048286926 0.12986964 -0.3966267 -0.29899946 -0.16940917 -0.083109654 -0.2772333 0.04577526
0.21308182 -0.18031064 -0.05109214 -0.237387 0.5351312 -0.8701779 0.08784121 -0.16250692
0.07053524 -0.01520554 -0.027537728 0.48769742 -0.13901219 -0.22759707 0.1488114 -0.28474548
0.22373042 0.02163029 0.11924507 -0.460888 -0.15775752 0.48093504 0.12526192 -0.024771083
0.20989151 0.049513496 -0.26028618 -0.5409956 0.03446874 -0.68870324 -0.19721512 -0.14624982
-0.29984856 -0.2406658 0.3212709 -0.051717065 0.115716785 0.17644724 0.31067243 -0.11265302
0.19680701 -0.459254 -0.23657201 -0.2478497 0.02115334 -0.84384954 -0.17504841 -0.20126617
-0.26432875 -0.2502359 -0.039781738 -0.34678268 0.12359967 0.25612372 -0.05076651 -0.10495416
00000000: 3368 953d 9058 093f a202 bdbd 561d 08bf
00000010: 4460 6fbc 95b5 363d f45e 923d f893 88be
00000020: 477e 8ebc fb46 4fbe 8e1b a43b a3ab 523e
00000030: 9074 75be 2bac 8f3e c55c be3e 4129 10be
00000040: dfba 033f 7e91 71ba 8368 883b f209 b0be
00000050: 0725 c0bd 7db8 113e fc55 67be 84ab 573d
00000060: 9b56 793e 5dc9 acbe 0539 b73e 3b80 40bb
00000070: 0389 873d f5b4 05be baf0 3b3e 8075 61be
00000080: 3521 f13e e5dd 96be 8311 cc3e 858c 343e
00000090: 3cd4 1f3e 991c c3be 0c7e b5bd 2a09 2b3e
000000a0: 5072 04be 8b8b d03e 1506 b93d 5d71 29bc
000000b0: c519 033e b587 503e e80e 03be caac 4c3d
000000c0: 72fd 8f3b bf62 15be 3e01 c6b9 9fc7 fd3e
000000d0: e705 773d 658b fc3d 957e a4bc 7258 e7be
000000e0: f3d0 2fbc e2b6 dbbe b4bd 4c3c cafc 33bd
000000f0: 0e02 8a3c 6b73 223e 5688 bdbd 0bfa ac3e
00000100: 2fbf f43d 8d55 9f3d 5b4d d03e d533 81be
00000110: 198c 403e 5c74 eebd 364f 16be af69 32be
00000120: 2195 05bf fed9 74be 7abd 8a3e 6862 e8be
00000130: ca22 ecbc 5c19 d13e da08 88bd ddcd 8dbd
00000140: 5d7d 38bc 5cdb 00bd 811a b6bd 5388 2cbe
00000150: df31 b73d 165e 1a3f 966c 013e 2461 41bb
00000160: 413e b33e bc2d 5e3c 1201 b33e 6069 17bf
00000170: 4fe0 d13e 8941 b83e e378 88be 43ad 95bd
00000180: 0645 bebe a256 273e 0c9c b4bd d1d6 12be
00000190: 5bb0 1f3e ace2 1dbe 54f7 89be 4b87 cc3e
000001a0: 6219 d23e 5c67 0cbe d187 513e d132 083f
000001b0: 41bb e2be c488 c0be 7913 a93d 0ac3 b73e
000001c0: f6f0 163f 503e 80bb 3014 c23c 6229 cfbe
000001d0: dc8e a73e e2fc f33e 57a9 143c d7c1 75be
000001e0: 3294 99bd 00e1 3c3f 4e64 1c3a 8e16 9abe
000001f0: e9e6 373e 0955 973e 658a 7fbe dd0f b83e
00000200: 2b3c 06bd a2b3 0f3c 8dd5 0a3f 3b4c 8cbe
00000210: 9bcd e9bc c419 7abd eb24 8c3e a905 093f
00000220: 382f 283e 8ceb 6e3e 62ff f1be dcec 0b3e
00000230: 6bda 023f a949 593e 7162 2fbf 49d5 a33e
00000240: 615e 793e 15e5 69be 15e3 bc3e c4dc 453e
00000250: 46ee d5bd 5c2f eabd e8a1 843c a155 ebbd
00000260: c022 9d3b dfc7 e93e d965 823e c8a9 22be
00000270: fad0 b63d 0305 cabe ffac 06be 18bf e13e
00000280: 398d b43e 68ab bdbc fb66 97be f555 0cbe
00000290: 0d3b 9ebd c1cc b1be 6ac4 963b 4172 173d
000002a0: 83f9 a0bd 5e3f 80be 6193 2dbe 3972 f5be
000002b0: a7a1 473e 005c ff3e a49a 48bc a285 fc3e
000002c0: 2f4b cf3c eb7f 13bf 45ed d2be a5e7 3c3f
000002d0: 440f 83be 1b34 eb3e 7322 95bf 8f7a 053e
000002e0: e065 543e fd74 30bf 21ae e0be 94b8 d53c
000002f0: ea0c 423e cb3b 493e 1e15 ec3e 92ac 963e
00000300: 83c8 45bd 8cfc 043e a812 cbbe 7516 99be
00000310: 9979 2dbe 6535 aabd 86f1 8dbe d77e 3b3d
00000320: 1f32 5a3e 5aa3 38be fe45 51bd 9415 73be
00000330: 5cfe 083f fbc3 5ebf 18e6 b33d 3768 26be
00000340: c874 903d a820 79bc cd96 e1bc 7ab3 f93e
00000350: 3659 0ebe 350f 69be 0462 183e 29ca 91be
00000360: 9619 653e 0232 b13c c236 f43d 83f9 ebbe
00000370: 308b 21be 1e3d f63e a944 003e baec cabc
00000380: cded 563e aace 4a3d 3b44 85be b07e 0abf
00000390: 182f 0d3d db4e 30bf c3f2 49be 83c2 15be
000003a0: c085 99be 1871 76be 9f7d a43e 46d5 53bd
000003b0: ecfc ec3d 96ae 343e 7510 9f3e a0b6 e6bd
000003c0: c787 493e 5723 ebbe ef3f 72be 50cc 7dbe
000003d0: c549 ad3c 8606 58bf e43f 33be b818 4ebe
000003e0: 1956 87be eb1e 80be 2df2 22bd 808d b1be
000003f0: d321 fd3d a622 833e 8bf0 4fbd 35f2 d6bd

arith.constant4 f4 [128, 900]
0.08569242 0.032169785 0.034771986 -0.3044157 0.16136135 -0.6390479 -0.018759143 -0.04808917
-0.14360374 0.22219075 0.40619206 -0.027177367 -0.46115318 0.1836354 -0.36128938 -0.05803886
0.034945395 -0.087869905 0.100190304 0.2816944 0.16123109 -0.09870835 0.44809723 -0.16815053
-0.047284972 0.021376284 -0.1049025 -0.00077567936 0.14733158 0.16286638 -0.11726612 0.42988336
-0.10899109 0.059774235 -0.05585747 0.03362604 -0.3993622 -0.19110307 0.12687282 0.1643789
0.3845527 0.21897067 -0.046507053 -0.026426692 0.03869516 -0.19027345 0.3844231 -0.018496336
-0.030419609 0.09582817 0.2997736 0.050445057 0.042569015 0.0124539435 -0.17940348 0.225031
0.07788937 -0.14973888 -0.18003227 0.2827119 0.075575724 0.040230755 -0.016792603 0.06751647
0.19149859 0.10359991 -0.46216437 -0.13054258 0.22746994 0.015265639 0.07523652 -0.01670479
0.46224996 0.2529953 -0.08862074 -0.35698754 0.16645715 -0.056326002 -0.12328113 -0.017179545
0.058635008 0.3194827 0.48185346 -0.053900484 -0.3349207 0.12394102 -0.18355165 0.007066611
0.015793774 -0.016371615 -0.007936285 0.08038834 0.011292373 -0.46680838 0.14217639 -0.08870108
-0.03810127 -0.035318702 -0.1464009 0.092356764 0.10816358 -0.005457366 -0.3024491 0.12378457
-0.08924905 -0.14823703 0.0034938788 -0.11313199 -0.15792048 0.13193472 0.26010424 -0.4089838
0.25384825 -0.10719445 -0.067844614 0.026140068 -0.025727816 -0.19884755 -0.11503957 0.21572292
-0.41078475 0.20117998 0.12686034 -0.11186575 -7.229839e-05 -0.04322492 0.060014598 -0.0054772226
-0.08337926 -0.27096415 -0.073685154 -0.00047443798 -0.21984433 0.10848889 -0.057653237 0.014572406
0.051818248 0.10828668 -0.31746703 -0.15789203 -0.04064871 -0.114572726 0.07660127 0.012776427
-0.019556243 0.4213118 0.03009961 -0.010795837 -0.0035045068 0.1532943 -0.18366686 0.09868659
-0.023280567 -0.017201856 0.10959823 0.0344543 0.023154432 -0.06842237 0.0036827787 -0.26238102
0.048886344 -0.032534108 -0.07841411 -0.04984125 0.11339574 0.25804487 -0.33091828 0.0017410241
-0.19922243 0.0074694147 -0.13029134 0.09152004 0.05232439 0.0003814139 0.30053616 -0.3637203
-0.14390595 -0.22193182 0.013794816 -0.015012888 0.19418421 -0.22710775 0.038230248 0.26907524
-0.31692472 -0.060689993 -0.1820836 0.028852295 -0.12102248 0.14800553 -0.18777974 0.13401395
-0.04620462 -0.07449486 -0.25895914 -0.25383723 0.038818344 -0.23507987 0.189547 -0.17035177
-0.00555581 0.18745713 -0.12417751 -0.1818887 -0.23157924 0.10067251 -0.18782696 0.2981819
-0.054814402 0.08997132 0.19866405 0.28587583 -0.07923938 -0.2659081 0.10173439 -0.13397764
0.28050742 -0.052773327 0.20259747 0.055119287 0.43204758 0.0962537 -0.3003221 -0.027453508
0.033031266 0.25122866 0.2921527 0.24285042 -0.10425713 0.320382 0.14486021 -0.19109443
-0.06435012 0.016561635 0.16232689 0.28360927 0.39409617 -0.060393564 0.27400318 0.02011139
-0.1398245 0.018719124 -0.038419146 0.18366145 0.33182624 0.31178972 0.0007229029 0.24407774
0.03675145 -0.3156945 0.07020851 -0.08591627 0.06843726 0.07398905 0.3644595 -0.1374945
00000000: 827f af3d 77c4 033d 126d 0e3d 60dc 9bbe
00000010: e93b 253e a598 23bf c6ac 99bc 26f9 44bd
00000020: dc0c 13be f985 633e 68f8 cf3e 12a3 debc
00000030: 451c ecbe eb0a 3c3e ecfa b8be 28ba 6dbd
00000040: e722 0f3d 23f5 b3bd 9330 cd3d 403a 903e
00000050: c319 253e 9a27 cabd 006d e53e a72f 2cbe
00000060: e3ad 41bd 511d af3c 1fd7 d6bd f656 4bba
00000070: 17de 163e 72c6 263e 3829 f0bd ac19 dc3e
00000080: b836 dfbd d4d5 743d cdca 64bd 75bb 093d
00000090: 3479 ccbe 86b0 43be f3ea 013e f152 283e
000000a0: 17e4 c43e d939 603e 2e7e 3ebd ca7c d8bc
000000b0: d17e 1e3d 0bd7 42be 1bd3 c43e a185 97bc
000000c0: 8b32 f9bc 8f41 c43d ed7b 993e 7a9f 4e3d
000000d0: d95c 2e3d a00b 4c3c 8cb5 37be 876e 663e
000000e0: 7684 9f3d 2655 19be 615a 38be 9dbf 903e
000000f0: 72c7 9a3d 01c9 243d a490 89bc 1346 8a3d
00000100: 3518 443e 312c d43d cfa0 ecbe f4ac 05be
00000110: e1ed 683e bb1c 7a3c 9b15 9a3d 7cd8 88bc
00000120: 07ac ec3e 9a88 813e ca7e b5bd 12c7 b6be
00000130: be73 2a3e 18b6 66bd d17a fcbd 1ebc 8cbc
00000140: 432b 703d 3d93 a33e 7fb5 f63e c1c6 5cbd
00000150: ba7a abbe cad4 fd3d f7f4 3bbe 088f e73b
00000160: f261 813c c41d 86bc 3107 02bc a4a2 a43d
00000170: a503 393c 8201 efbe b096 113e e9a8 b5bd
00000180: 1410 1cbd 58aa 10bd 1eea 15be 8b25 bd3d
00000190: de84 dd3d b4d3 b2bb 9cda 9abe c482 fd3d
000001a0: 35c8 b6bd 73cb 17be 8ff9 643b bfb1 e7bd
000001b0: e8b5 21be e519 073e 622c 853e 5366 d1be
000001c0: 66f8 813e c488 dbbd 1ef2 8abd b223 d63c
000001d0: 24c3 d2bc b19e 4bbe de99 ebbd 78e6 5c3e
000001e0: 6152 d2be 2002 4e3e ade7 013e df19 e5bd
000001f0: e79e 97b8 9d0c 31bd ded1 753d 467a b3bb
00000200: bfc2 aabd d0bb 8abe 3ee8 96bd fdbd f8b9
00000210: df1e 61be 6c2f de3d cd25 6cbd 1ac1 6e3c
00000220: 5f3f 543d 68c5 dd3d 0a8b a2be 73ae 21be
00000230: 437f 26bd 1ba5 eabd 20e1 9c3d 3854 513c
00000240: 6a34 a0bc 2eb6 d73e 7593 f63c 06e1 30bc
00000250: deab 65bb 2ef9 1c3e 2a13 3cbe 321c ca3d
00000260: e3b6 bebc e8ea 8cbc 0975 e03d f41f 0d3d
00000270: 5dae bd3c 0721 8cbd c65a 713b ce56 86be
00000280: 0c3d 483d 7c42 05bd 9497 a0bd 5726 4cbd
00000290: 073c e83d 751e 843e 1f6e a9be 1333 e43a
000002a0: f700 4cbe fec1 f43b 186b 05be dc6e bb3d
000002b0: 1952 563d 82f8 c739 e0df 993e 8c39 babe
000002c0: 155c 13be 1842 63be a703 623c 9ef8 75bc
000002d0: 3ad8 463e ef8e 68be 5297 1c3d 3bc4 893e
000002e0: f543 a2be 1296 78bd 2074 3abe a65b ec3c
000002f0: a2da f7bd c38e 173e 5549 40be f43a 093e
00000300: 0e41 3dbd c390 98bd 4b96 84be f4f6 81be
00000310: fcff 1e3d c7b8 70be 9c18 423e b270 2ebe
00000320: 830d b6bb c3f4 3f3e c750 febd 0841 3abe
00000330: 1c23 6dbe 642d ce3d b655 40be 4cab 983e
00000340: 1185 60bd e242 b83d 976e 4b3e 515e 923e
00000350: 4248 a2bd 1b25 88be 1f5a d03d 6f31 09be
00000360: ab9e 8f3e d828 58bd b675 4f3e c3c4 613d
00000370: 5735 dd3e a920 c53d d1c3 99be 2ee6 e0bc
00000380: cb4b 073d 0ba1 803e 0a95 953e c8ad 783e
00000390: c384 d5bd 1c09 a43e 3c56 143e 42ae 43be
000003a0: ffc9 83bd 44ac 873c 0539 263e 3c35 913e
000003b0: f9c6 c93e 3e5f 77bd 254a 8c3e a4c0 a43c
000003c0: 272e 0fbe d958 993c 655d 1dbd bf11 3c3e
000003d0: 21e5 a93e e7a2 9f3e 3181 3d3a 84ef 793e
000003e0: b088 163d b6a2 a1be 7bc9 8f3d dff4 afbd
000003f0: d628 8c3d 9287 973d 709a ba3e 5ccb 0cbe

arith.constant5 f4 [21]
0.16843814 0.041459296 0.11507878 -0.14457086 0.018167904 -0.015780378 0.30465588 -0.28934655
-0.09526713 -0.3050924 0.32827473 0.114755176 0.08935597 -0.048855733 0.08429431 -0.030830054
0.023188164 -0.21483655 -0.007107253 -0.24305148 0.20010675
00000000: 0c7b 2c3e 39d1 293d 6cae eb3d 620a 14be
00000010: dbd4 943c da45 81bc dbfb 9b3e 3b25 94be
00000020: 6a1b c3bd 1235 9cbe a013 a83e c304 eb3d
00000030: 4300 b73d f31c 48bd 7fa2 ac3d 4f8f fcbc
00000040: 1bf5 bd3c 1dfe 5bbe f6e3 e8bb 7de2 78be
00000050: c9e8 4c3e

arith.constant6 f4 [32]
-0.24889012 0.58448106 0.13742374 -0.08936849 -0.08079993 0.53696233 -0.8977499 0.015479118
0.97120947 -0.34525338 0.27050763 -0.58775955 0.029851984 -0.65698576 -0.004199624 0.14462587
0.23053005 0.12721506 0.7242096 -0.021619502 0.13851656 1.4635231 -1.1103255 -0.6387269
0.62432986 0.0028521398 -0.022868644 -0.44726303 -0.8776838 2.014402 0.07031531 0.1933771
00000000: 0ddd 7ebe 8da0 153f cfb8 0c3e d406 b7bd
00000010: 6f7a a5bd 5d76 093f f0d2 65bf 209c 7d3c
00000020: 2fa1 783f 0dc5 b0be fa7f 8a3e 6977 16bf
00000030: 268c f43c 3830 28bf 009d 89bb ce18 143e
00000040: 1210 6c3e aa44 023e cd65 393f 621b b1bc
00000050: 49d7 0d3e ba54 bb3f 251f 8ebf 9b83 23bf
00000060: 15d4 1f3f f7ea 3a3b 0657 bbbc a9ff e4be
00000070: e3af 60bf f6eb 0040 7901 903d a604 463e

arith.constant7 f4 [32]
-0.19441302 -0.67959636 0.04772047 0.4498403 0.4678592 0.23719305 -0.08241686 -0.13553002
-0.70995206 0.6618458 0.85437167 -1.5201395 0.90646154 0.7532327 0.50814253 -0.9227903
0.034595508 0.21660814 -0.3975367 0.6427882 0.16411169 -0.31985125 -0.3937323 0.09523531
-0.44575047 0.32078445 0.110713884 -0.16561288 0.10191956 -0.07304665 -0.42825273 0.006845615
00000000: 3514 47be 07fa 2dbf 8a76 433d 7851 e63e
00000010: 3e8b ef3e bce2 723e 2cca a8bd 62c8 0abe
00000020: 6bbf 35bf ba6e 293f 1ab8 5a3f ee93 c2bf
00000030: dd0d 683f dcd3 403f a115 023f fc3b 6cbf
00000040: 05b4 0d3d 86ce 5d3e ee89 cbbe c48d 243f
00000050: e50c 283e 8bc3 a3be 4897 c9be bb0a c33d
00000060: 6839 e4be dc3d a43e f6bd e23d 6c96 29be
00000070: 34bb d03d 7b99 95bd f143 dbbe 2e51 e03b

arith.constant8 f4 [128]
-0.50540984 -1.4740804 -0.98350835 -0.99708897 -1.1088843 -1.1972698 -0.8720114 -1.7125243
-0.8176866 -0.7759671 0.23140459 -1.1389049 -0.8331277 -1.2158129 -2.085053 -0.9225243
-1.1172727 0.03118644 0.8039544 -1.4895779 -0.16165791 -1.2756144 -1.1147126 1.0536144
-2.0304623 -1.3308493 -1.9698143 -1.8269829 -1.8824328 -1.2844529 -0.8224516 -1.6664573
-1.1947896 -1.6754276 -1.9626267 -1.5945582 -0.91371936 0.12147524 -0.01818211 -0.387076
-0.8250918 -1.1850208 -0.5108228 -0.5315323 -1.7238784 -1.5050452 0.1660765 -1.423865
-1.8198154 -1.5513812 -0.7500367 -2.029625 0.3761013 -0.85480636 -1.9262305 -0.3437681
0.6390344 -0.42886874 -1.933831 -0.9106052 -0.04938839 -1.3964645 -0.90230983 -0.7767288
-1.1986619 -1.9699329 -2.053354 -1.1213701 -0.6441686 -0.32744402 -0.2884735 -1.3344868
-0.4063148 -1.1221222 -1.6258482 -0.24957418 -1.6299781 -1.5795375 -1.5851676 0.4708961
-0.82763886 -1.4249284 -1.2158939 -1.0503772 -1.6354402 -2.229036 -1.6758087 -1.2145597
-1.4390048 -1.3928734 -0.7833897 -0.4358227 -1.9281608 -1.1491196 -1.6103644 -1.1714535
-1.0784905 -0.81904274 -0.9853539 -0.9965231 -1.3166205 -1.2232889 -0.60910624 -1.5017701
-1.29066 -0.3185854 -0.89225686 -1.3257126 -1.1116312 -1.2168503 -1.5044501 -0.45354077
-1.6822404 -1.3402286 -1.2165118 -1.0096264 -1.8504838 -1.4323384 -1.6616365 -0.030648088
-2.1143656 -1.4278647 -0.60010725 -1.9879447 -1.4523994 -1.4485233 -1.3056625 -1.4093281
00000000: 8a62 01bf abae bcbf 34c7 7bbf 3941 7fbf
00000010: ecef 8dbf 2340 99bf 243c 5fbf ff33 dbbf
00000020: e953 51bf c8a5 46bf 53f5 6c3e a3c7 91bf
00000030: db47 55bf c29f 9bbf 8271 05c0 8d2a 6cbf
00000040: cb02 8fbf b47a ff3c f5cf 4d3f 7daa bebf
00000050: a789 25be 5547 a3bf e7ae 8ebf d6dc 863f
00000060: 18f3 01c0 4559 aabf e022 fcbf 93da e9bf
00000070: 8ff3 f0bf f468 a4bf 308c 52bf 794e d5bf
00000080: deee 98bf 6974 d6bf 5a37 fbbf 7c1a ccbf
00000090: 83e9 69bf 03c8 f83d a6f2 94bc d32e c6be
000000a0: 3739 53bf c3ae 97bf 48c5 02bf 8012 08bf
000000b0: 0ca8 dcbf 52a5 c0bf f50f 2a3e 3541 b6bf
000000c0: b6ef e8bf a993 c6bf 6802 40bf 60e5 01c0
000000d0: 5990 c03e 97d4 5abf b98e f6bf 5f02 b0be
000000e0: c297 233f af94 dbbe c687 f7bf 6c1d 69bf
000000f0: 7b4b 4abd 59bf b2bf c7fd 66bf b3d7 46bf
00000100: c16d 99bf c326 fcbf 276a 03c0 0e89 8fbf
00000110: 3ce8 24bf bea6 a7be ccb2 93be 77d0 aabf
00000120: 7e08 d0be b3a1 8fbf cb1b d0bf 6090 7fbe
00000130: 1fa3 d0bf 492e cabf c6e6 cabf 4b19 f13e
00000140: 24e0 53bf 0e64 b6bf 69a2 9bbf c372 86bf
00000150: 1b56 d1bf 87a8 0ec0 e680 d6bf b176 9bbf
00000160: 4f31 b8bf ad49 b2bf 3a8c 48bf 2724 dfbe
00000170: f9cd f6bf 5a16 93bf 6c20 cebf 30f2 95bf
00000180: fa0b 8abf c9ac 51bf 2740 7cbf 231c 7fbf
00000190: 0587 a8bf bb94 9cbf 63ee 1bbf 013a c0bf
000001a0: 5934 a5bf a01d a3be f26a 64bf f3b0 a9bf
000001b0: ee49 8ebf c0c1 9bbf d291 c0bf 7f36 e8be
000001c0: a753 d7bf 9c8c abbf a9b6 9bbf 703b 81bf
000001d0: a7dc ecbf dd56 b7bf 81b0 d4bf b311 fbbc
000001e0: c451 07c0 45c4 b6bf a1a0 19bf f974 febf
000001f0: 39e8 b9bf 3669 b9bf f31f a7bf dd64 b4bf

arith.constant9 f4 [64]
-1.205619 -0.27281225 -0.90689737 1.1536043 -0.12866235 0.684728 0.15791613 -0.44211516
-0.5718898 -0.8080087 0.44839075 -0.27146363 0.4043246 0.6454227 0.062254984 -0.7472035
0.15591364 0.6526813 -0.21206255 -0.4050501 -0.3777487 0.1708637 -0.1418075 0.06059153
-0.34271497 0.18315825 0.6143937 -0.2040669 0.95065516 0.7372351 -0.84366775 -1.09285
-0.60635036 -1.0943273 -1.1665093 -0.19800593 -0.086816825 0.025871698 -1.1468801 -0.50181836
-0.4642968 -0.9195477 -0.6177181 -0.18677771 -0.35200644 -0.014341554 0.10056516 0.43311885
0.3805939 0.77043784 -0.3196892 -0.4460599 0.39075965 0.36592022 0.9090206 0.02004804
0.36949793 0.5636432 0.7729152 -1.2793187 -0.094533056 0.12554897 -0.35959506 -0.5586865
00000000: b951 9abf 0cae 8bbe 6d2a 68bf 4ea9 933f
00000010: 10c0 03be 564a 2f3f c4b4 213e eb5c e2be
00000020: 5f67 12bf a8d9 4ebf 7993 e53e 48fd 8abe
00000030: a203 cf3e 6c3a 253f 15ff 7e3d bb48 3fbf
00000040: d3a7 1f3e 1f16 273f ed26 59be ba62 cfbe
00000050: 4768 c1be e5f6 2e3e fc35 11be d32e 783d
00000060: 5678 afbe d68d 3b3e e848 1d3f eaf6 50be
00000070: 235e 733f 71bb 3c3f 9cfa 57bf 82e2 8bbf
00000080: c739 1bbf eb12 8cbf 2d50 95bf 11c2 4abe
00000090: 05cd b1bd e2f0 d33c f8cc 92bf 2b77 00bf
000000a0: 4fb8 edbe 7a67 6bbf c622 1ebf a842 3fbe
000000b0: 303a b4be d6f8 6abc 1bf5 cd3d c1c1 dd3e
000000c0: 34dd c23e 6a3b 453f 4eae a3be f761 e4be
000000d0: a611 c83e e559 bb3e 93b5 683f ca3b a43c
000000e0: d52e bd3e ec4a 103f c5dd 453f b7c0 a3bf
000000f0: 8c9a c1bd e98f 003e d81c b8be 1406 0fbf
