Models/SubjectDependent/GeneratedTFLiteFilesAndOGModels/SimpleMLP.tflite (tflite, 507884 bytes, 8 tensors)

arith.constant f4 [21, 32]
0.17650914 0.024655718 -0.13379744 -0.12805487 -0.22725306 -0.2555748 0.05253223 0.13414699
-0.1082471 0.21435586 0.117524475 0.09819713 0.07159193 -0.11695989 -0.2253772 -0.7615163
0.101075806 0.096795864 -0.009834861 0.070294805 0.042772803 -0.06497206 0.06841955 0.12127137
0.037521675 0.29556924 0.22230963 0.038797166 0.005357692 -0.05345087 -0.015833031 -0.041332208
-0.20423804 -0.13608937 -0.0012159051 -0.02537387 -0.44280672 -0.20897754 0.12614527 0.2354239
-0.5666899 0.2371778 -0.4359147 -0.06391971 -0.40949437 0.15061343 -0.46318805 0.02554749
-0.051826622 0.15680264 -0.01850429 -0.023707325 0.19052519 0.14061156 0.047101565 0.00023249618
0.35823694 0.13409914 0.24911052 -0.45554444 -0.5029566 -0.0038034273 -0.13745281 -0.49524063
0.25042495 -0.08390955 0.1840766 0.11370437 -0.12292246 -0.008573552 -0.2739405 -0.12822042
0.13439627 0.21098703 -0.29706734 0.12744395 -0.19801047 0.17041345 -0.18912604 -0.4013642
-0.30614954 0.11128518 0.048613675 -0.08594055 0.09843833 0.009169614 0.32109293 -0.18380496
0.09545697 -0.11933769 0.062296607 -0.40504715 0.18105787 -0.18082866 -0.20369834 -0.26068035
-0.09908937 -0.10805745 0.061145462 0.31029817 0.070833705 -0.1668228 -0.1956963 0.031012561
-0.081567936 -0.26188418 0.0635737 0.37703627 0.04821662 -0.27779335 0.10586125 -0.41908517
-0.4943902 0.0031591181 0.35355365 0.040657338 -0.3928286 -0.40507504 0.2863949 -0.3606364
0.30852225 0.26374164 -0.015023073 -0.25556076 0.1778426 -0.1358748 -0.15344808 0.00655415
0.23871434 0.08392038 0.039371904 -0.19617927 0.10555613 -0.2566977 0.18493079 0.012699203
-0.22841983 0.17796895 -0.023037475 0.06407821 0.029255116 0.09466511 -0.10960841 -0.7939939
-0.013889221 0.12197652 -0.0073840152 -0.1692722 -0.17311944 0.18853574 -0.07397014 -0.16554548
-0.05250708 0.24531305 0.05507557 0.20178714 0.2661438 -0.37403306 -0.27858493 -0.025332367
0.114540815 0.19128902 -0.090875246 -0.035532247 0.00986876 0.038609415 -0.22453989 0.23560463
0.2577977 0.09734965 -0.16185099 0.31495452 -0.15556003 -0.28626627 -0.08723174 0.37430325
-0.14038362 -0.2882099 -0.051748622 0.023369348 -0.160217 -0.13247861 0.24598539 0.2218875
-0.17429756 -0.2076064 0.11410613 -0.13428968 0.05522053 0.16977379 0.23997256 0.16242915
0.02340861 0.16205405 0.2252654 -0.20829494 -0.10393798 -0.6269164 0.41626808 -0.16649692
0.08049923 0.059032496 0.043259513 -0.09679245 -0.31385428 -0.025857368 -0.12949507 -0.31419852
0.034040604 -0.19102725 -0.11480968 -0.1582084 0.057946086 0.2857124 0.039957818 -0.18195961
0.071700126 0.12374069 -0.09221241 0.25845972 0.07427706 -0.4981081 -0.3673045 0.24488093
-0.5213871 -0.060393658 0.30849892 0.13896523 -0.16599913 0.04843367 -0.17337893 0.064444214
-0.026352756 0.17414488 0.19450606 0.0034425969 -0.1785458 0.10536419 0.2507816 -0.028828196
0.051134396 -0.21738195 -0.17091443 -0.18434675 -0.022985402 -0.36254275 0.42951086 -0.08418357
-0.5769984 0.079869024 -0.17513484 0.00029518362 -0.08946899 0.16850543 0.29657322 0.0076762484
00000000: d0be 343e cafa c93c 3202 09be d120 03be
00000010: 07b5 68be b3da 82be 092c 573d d45d 093e
00000020: a8b0 ddbd 1a80 5b3e acb0 f03d 941b c93d
00000030: ca9e 923d ab88 efbd 48c9 66be bbf2 42bf
00000040: d500 cf3d e93c c63d 6622 21bc b9f6 8f3d
00000050: 8932 2f3d 1210 85bd 8d1f 8c3d 205d f83d
00000060: 54b0 193d da54 973e 23a5 633e c7e9 1e3d
00000070: 948f af3b 4def 5abd 46b4 81bc f64b 29bd
00000080: c723 51be 035b 0bbe 015f 9fba dddc cfbc
00000090: 90b7 e2be 35fe 55be 3a2c 013e f612 713e
000000a0: 9712 11bf bdde 723e 3630 dfbe 56e8 82bd
000000b0: 3fa9 d1be 683a 1a3e fc26 edbe f848 d13c
000000c0: 2748 54bd df90 203e 4f96 97bc dd35 c2bc
000000d0: 0919 433e 7afc 0f3e 92ed 403d 38ca 7339
000000e0: d56a b73e 4951 093e d416 7f3e 1f3d e9be
000000f0: c4c1 00bf ec42 79bb 6ec0 0cbe 2e90 fdbe
00000100: b337 803e c5d8 abbd 947e 3c3e d6dd e83d
00000110: c5be fbbd 1578 0cbc ee41 8cbe 374c 03be
00000120: 2d9f 093e fc0c 583e 3619 98be ab80 023e
00000130: 42c3 4abe dd80 2e3e 42aa 41be 9c7f cdbe
00000140: a2bf 9cbe 7ce9 e33d 221f 473d 9901 b0bd
00000150: 099a c93d 263c 163c 4b66 a43e 5e37 3cbe
00000160: f27e c33d 5267 f4bd ba2a 7f3d 5762 cfbe
00000170: 3c67 393e 262b 39be 4c96 50be e577 85be
00000180: 5eef cabd 394d ddbd aa73 7a3d 67df 9e3e
00000190: 4311 913d 99d3 2abe 9c64 48be 0e0e fe3c
000001a0: 170d a7bd af15 86be ee32 823d e60a c13e
000001b0: ca7e 453d ee3a 8ebe c8cd d83d 5592 d6be
000001c0: b620 fdbe 3509 4f3b fc04 b53e 4f88 263d
000001d0: d520 c9be ff65 cfbe 5aa2 923e 56a5 b8be
000001e0: a1f6 9d3e 2509 873e 5623 76bc dcd8 82be
000001f0: 5f1c 363e c322 0bbe 7e21 1dbe 32c4 d63b
00000200: 8871 743e 73de ab3d 6f44 213d 38e3 48be
00000210: d02d d83d e26d 83be 7f5e 3d3e 5110 503c
00000220: e3e6 69be 7e3d 363e 16b9 bcbc 703b 833d
00000230: 6da8 ef3c c8df c13d 607a e0bd 2f43 4bbf
00000240: 9d8f 63bc d3ce f93d 9cf5 f1bb b155 2dbe
00000250: 3946 31be 830f 413e a87d 97bd c184 29be
00000260: aa11 57bd 5833 7b3e ec96 613d 4aa1 4e3e
00000270: 0044 883e 4381 bfbe afa2 8ebe d385 cfbc
00000280: 6094 ea3d 45e1 433e cd1c babd 438a 11bd
00000290: 94b0 213c e824 1e3d c9ed 65be 5742 713e
000002a0: 0ffe 833e 415f c73d 44bc 25be b841 a13e
000002b0: 214b 1fbe 7e91 92be 8ea6 b2bd ada4 bf3e
000002c0: b9c0 0fbe 3f90 93be 5df6 53bd 1371 bf3c
000002d0: ed0f 24be 79a8 07be 98e3 7b3e 7a36 633e
000002e0: 0f7b 32be c696 54be 7ab0 e93d 3c83 09be
000002f0: ec2e 623d 2ed9 2d3e 5ebb 753e d453 263e
00000300: 6ac3 bf3c 7ff1 253e f9ab 663e 454b 55be
00000310: 70dd d4bd 987d 20bf 1721 d53e 2b7e 2abe
00000320: c8dc a43d 0fcc 713d e330 313d 1f3b c6bd
00000330: 82b1 a0be d5d2 d3bc 5b9a 04be a1de a0be
00000340: 296e 0b3d a69c 43be 5621 ebbd 6201 22be
00000350: e058 6d3d e548 923e cfaa 233d 9f53 3abe
00000360: 84d7 923d c26b fd3d dcd9 bcbd d554 843e
00000370: 921e 983d 0608 ffbe 560f bcbe 11c2 7a3e
00000380: a079 05bf 575f 77bd 92f3 9d3e e74c 0e3e
00000390: adfb 29be 6262 463d 3f8a 31be 54fb 833d
000003a0: bce1 d7bc 0953 323e 992c 473e 319d 613b
000003b0: b6d4 36be 2ec9 d73d 7266 803e 1c29 ecbc
000003c0: 4d72 513d 6099 5ebe 3104 2fbe 65c5 3cbe
000003d0: e24b bcbc 349f b9be d9e8 db3e 7068 acbd
000003e0: 2bb6 13bf 5f92 a33d 8c56 33be e0c2 9a39
000003f0: 853b b7bd b08c 2c3e 72d8 973e 0a89 fb3b

arith.constant1 f4 [32, 64]
0.15625712 0.2040146 0.12312993 0.019373825 0.043264505 0.200543 0.090375796 0.021620607
0.07871775 0.33539787 0.10711697 -0.44284734 -0.002896274 -0.039594293 -0.04790768 0.14897345
-0.07377452 -0.08707941 -0.19138034 0.23914622 -0.20042308 0.049026355 0.22613187 -0.16999373
0.0039465195 0.14657249 0.019447802 -0.18509753 -0.09337978 -0.108663365 -0.046569586 0.092760704
0.13581423 -0.19150604 -0.16310543 -0.0329156 0.34735677 0.21954885 0.333066 0.07746806
-0.08261992 -0.033265594 0.09087678 -0.16837852 -0.24870129 0.27421066 0.08860396 -0.28676194
0.0234728 0.17485593 0.18832615 0.22714214 0.12059292 -0.030019553 0.03157683 -0.051143333
0.08063337 0.02834339 0.12449044 0.080164514 -0.20525576 0.00680918 0.25786388 0.25765356
0.08766977 0.0036028048 -0.030899605 -0.12760054 -0.020086909 -0.0069438093 0.21226619 -0.0839254
0.09482462 0.1627516 -0.2537728 -0.46365318 -0.011186605 -0.116237715 0.41034314 -0.04560527
0.08290953 -0.22337766 -0.137026 -0.10957004 0.03414148 0.13671957 -0.00023743112 -0.061842203
0.045393903 0.07275191 -0.08412287 -0.07229101 0.15808223 0.24161778 -0.0649009 0.14764906
0.026731905 -0.031490203 0.40284914 -0.121560164 0.06649783 -0.11648474 -0.002087796 0.16067415
0.12857246 -0.004848629 0.13511269 -0.008115836 0.047203816 0.09364732 -0.0868754 0.034902614
0.17144027 0.100563906 0.0024759092 -0.08266881 0.044796295 0.31827232 0.119968876 0.07187008
0.015761886 -0.03242677 0.25144258 -0.2676942 0.19128612 -0.017756844 0.28796858 0.17289276
-0.23742495 0.12172657 -0.22418153 0.11359911 -0.321373 -0.17411707 0.048330538 0.048643306
-0.20314112 -0.07245598 -0.161671 -0.12959011 -0.47423133 -0.3270413 -0.29817796 -0.17264265
-0.10809046 0.13648476 -0.13010563 -0.22083144 -0.017069831 -0.0520226 0.13115704 0.24612242
-0.0011972627 0.16531728 -0.15276763 0.09164182 -0.084337644 -0.02723102 -0.21572313 0.22622266
0.060364634 0.21051691 0.0885086 -0.22974662 -0.043750755 0.18872042 -0.17743191 -0.02172677
0.021147804 -0.1486158 0.0786684 0.3150061 0.1287722 0.1681446 0.043559603 0.18472475
-0.0050675524 0.19062161 0.06306396 0.14813182 0.14339308 -0.07791575 -0.061057396 0.03097813
-0.4787368 0.0049113594 0.046714395 -0.098939225 -0.23999922 -0.25585896 0.012655881 -0.013857757
0.03921224 -0.04621687 0.050776284 0.16389231 0.15421611 -0.03659445 0.020332297 -0.048948616
0.03995754 0.09348949 0.05397866 -0.12323574 0.20120914 -0.121616125 -0.21037222 0.15412134
0.16590226 0.20630787 -0.009984022 -0.28857985 -0.05241525 0.09156618 0.33451864 0.17129408
0.08963494 0.00073611335 -0.12471735 -0.12665321 -0.4750425 0.21100733 -0.06608592 -0.30541372
0.01733205 -0.123023085 -0.1315755 -0.01544838 -0.08678776 -0.18173185 0.2558281 -0.0024900343
-0.33011803 -0.055080634 0.14597347 0.090513416 0.06556394 0.10986737 0.040559582 0.1501651
-0.001649074 -0.015367759 -0.19985068 0.21829982 -0.011519235 0.15415098 -0.07399018 -0.33835423
-0.32263353 0.03621088 0.04867393 0.20048726 0.007768676 -0.017003044 0.09705675 -0.14675666
00000000: de01 203e 34e9 503e 8b2b fc3d dbb5 9e3c
00000010: 1f36 313d 255b 4d3e f216 b93d b31d b13c
00000020: c636 a13d 45b9 ab3e 2460 db3d e3bc e2be
00000030: 6acf 3dbb a02d 22bd d83a 44bd 7f8c 183e
00000040: 1817 97bd b156 b2bd 35f9 43be bfe2 743e
00000050: b53b 4dbe dccf 483d 1d8f 673e d612 2ebe
00000060: ce51 813b 1917 163e ff50 9f3c 358a 3dbe
00000070: e63d bfbd e68a debd c0bf 3ebd 53f9 bd3d
00000080: e312 0b3e 291a 44be 1c05 27be 82d2 06bd
00000090: bfd8 b13e 6ad1 603e a087 aa3e 93a7 9e3d
000000a0: a234 a9bd 8141 08bd 9b1d ba3d 6b6b 2cbe
000000b0: 8dab 7ebe 5765 8c3e fe75 b53d 76d2 92be
000000c0: 084a c03c 6f0d 333e 92d8 403e f397 683e
000000d0: 6cf9 f63d 91eb f5bc b556 013d ac7b 51bd
000000e0: 1c23 a53d 6630 e83c d8f4 fe3d 4b2d a43d
000000f0: 912e 52be 8b1f df3b bc06 843e 2beb 833e
00000100: 358c b33d 091d 6c3b 2b21 fdbc b7a9 02be
00000110: 4d8d a4bc e588 e3bb 4f5c 593e 15e1 abbd
00000120: 6933 c23d 5ba8 263e 82ee 81be f363 edbe
00000130: 0648 37bc 0a0e eebd 7f18 d23e 97cc 3abd
00000140: 79cc a93d 1dbd 64be 8b50 0cbe 4266 e0bd
00000150: f0d7 0b3d 3700 0c3e eef6 78b9 404e 7dbd
00000160: f5ee 393d f4fe 943d 9c48 acbd 4f0d 94bd
00000170: 4fe0 213e a76a 773e c3ea 84bd 5131 173e
00000180: defc da3c dffb 00bd 3e42 ce3e 89f4 f8bd
00000190: 0430 883d 8d8f eebd 68d3 08bb c487 243e
000001a0: 80a8 033e 3fe1 9ebb fb5a 0a3e 49f8 04bc
000001b0: ca58 413d 2bca bf3d bbeb b1bd 0bf6 0e3d
000001c0: 0a8e 2f3e 73f4 cd3d dd42 223b 444e a9bd
000001d0: 527c 373d 97f4 a23e 3eb2 f53d 9f30 933d
000001e0: 121f 813c efd1 04bd 15bd 803e 370f 89be
000001f0: 82e0 433e cd76 91bc 9e70 933e cd0a 313e
00000200: 871f 73be c84b f93d d88f 65be a6a6 e83d
00000210: 008b a4be bf4b 32be 3ef6 453d 343e 473d
00000220: 3a04 50be cd63 94bd 158d 25be 45b3 04be
00000230: 73ce f2be f571 a7be c8aa 98be 3cc9 30be
00000240: 885e ddbd a9c2 0b3e 693a 05be a321 62be
00000250: 08d6 8bbc a615 55bd 084e 063e 8407 7c3e
00000260: 78ed 9cba ef48 293e 1e6f 1cbe b5ae bb3d
00000270: 37b9 acbd 9713 dfbc 86e6 5cbe eaa6 673e
00000280: e840 773d bf91 573e ff43 b53d b342 6bbe
00000290: fe33 33bd ed3f 413e b6b0 35be 57fc b1bc
000002a0: 293e ad3c be2e 18be e61c a13d 7b48 a13e
000002b0: dcdc 033e 192e 2c3e 8e6b 323d 7c28 3d3e
000002c0: b60d a6bb 5032 433e ad27 813d deaf 173e
000002d0: a3d5 123e 4b92 9fbd 5217 7abd d9c5 fd3c
000002e0: fd1c f5be 78ef a03b 9857 3f3d a6a0 cabd
000002f0: 5bc2 75be f2ff 82be 9d5a 4f3c a50b 63bc
00000300: 049d 203d e74d 3dbd cbfa 4f3d 63d3 273e
00000310: d4ea 1d3e 10e4 15bd eb8f a63c 587e 48bd
00000320: 84aa 233d 6b77 bf3d ba18 5d3d 0563 fcbd
00000330: c509 4e3e e011 f9bd d16b 57be fcd1 1d3e
00000340: 48e2 293e 5f42 533e 0694 23bc bdc0 93be
00000350: 60b1 56bd 0d87 bb3d 0746 ab3e b767 2f3e
00000360: 8692 b73d bbf7 403a cf6b ffbd 61b1 01be
00000370: c538 f3be 4e12 583e 0e58 87bd 305f 9cbe
00000380: f1fb 8d3c 87f3 fbbd babb 06be 341b 7dbc
00000390: c8bd b1bd ea17 3abe e7fb 823e d82f 23bb
000003a0: 3b05 a9be 3b9c 61bd 127a 153e 195f b93d
000003b0: 6346 863d 2502 e13d ce21 263d e1c4 193e
000003c0: be25 d8ba 0ec9 7bbc a8a5 4cbe fd89 5f3e
000003d0: 2cbb 3cbc c1d9 1d3e 2a88 97bd c43c adbe
000003e0: 3930 a5be dc51 143d 515e 473d 884c 4d3e
000003f0: 6190 fe3b f849 8bbc b0c5 c63d 6147 16be

arith.constant2 f4 [64, 128]
-0.12160635 0.113105044 -0.011951438 -0.12697367 -0.368495 -0.33043924 0.14629295 -0.028857734
-0.057313453 0.12964179 -0.3021875 0.20629868 -0.035391174 -0.08219471 -0.0013889751 0.03550835
0.182855 0.12398395 0.2571825 -0.15287049 -0.19136862 0.20956975 -0.12246895 0.11075313
-0.023030244 -0.021839181 0.22460264 -0.17249434 -0.27655193 0.1443267 -0.049587905 -0.004994886
0.2081496 -0.11138022 -0.41040304 -0.2468143 0.14485617 -0.008715266 -0.22466864 0.06455975
0.2103889 0.13565889 -0.23017737 -0.2775184 0.14867322 -0.050847888 -0.15512101 -0.060816538
-0.10235492 0.16508237 -0.20201933 0.007147945 0.09033315 -0.069146276 -0.07508307 0.027861755
-0.3247771 -0.20950305 -0.06179721 -0.078305125 -0.03470549 0.13883832 0.18018275 -0.09531759
0.09444215 -0.045540098 -0.06403471 0.048009176 -0.2635114 0.18574609 0.21550493 0.010247416
0.1345139 -0.04143359 0.0022361665 -0.113745965 -0.05913888 0.06626146 0.092488885 0.25580582
0.07886721 -0.0033361088 0.081105664 -0.14835155 0.19022883 0.012724591 -0.025488226 0.08152909
-0.074051514 0.054397404 -0.14573142 -0.08086199 0.1545491 -0.09429663 0.0068078893 0.053421002
0.13140377 -0.64211464 0.19661406 0.06547738 0.10105066 0.002810871 -0.29632038 0.12765077
-0.10388453 -0.09232752 0.09448031 -0.2512985 0.05101572 -0.36214486 -0.020529648 0.14291891
0.06465219 -0.06337107 -0.052443113 -0.08660906 -0.0393576 -0.08904043 0.11729813 0.111861736
-0.062724 0.117437646 0.05483528 -0.07712644 -0.29211408 0.18847544 0.08439139 -0.12644124
-0.062066074 -0.13640508 0.0005985406 -0.16973351 0.054780975 0.26137462 -0.011736791 -0.24964507
0.056558542 -0.17885892 -0.3042889 0.21049239 -0.20147316 -0.026335068 0.009935425 0.20815374
0.04782727 0.17465399 0.06789455 0.06989773 0.055300683 -0.16164319 0.17918958 -0.007954275
-0.2907022 0.20088772 -0.2897829 0.012954231 0.093154654 -0.22928089 -0.1296961 -0.073489994
0.008692983 0.12714949 -0.23968194 0.021759152 -0.013312303 0.21438238 -0.16285299 -0.045630377
0.20717521 -0.11281144 0.022025978 -0.08484647 -0.0134701375 0.31913906 -0.16116016 0.19475867
-0.32054332 -0.027838629 0.11512842 -0.09451309 -0.15459372 0.16492026 0.21072419 -0.1627981
-0.13573806 -0.029390842 0.02887959 0.05867991 0.08079762 0.0733631 -0.22413497 -0.06660223
0.082457975 0.17132126 0.11174839 0.03823329 0.28316063 -0.10315113 0.18608795 0.12858556
-0.024389448 0.23248956 0.24231294 -0.19021887 0.039817546 0.41949582 -0.2522467 0.15149976
0.20268665 -0.06352832 0.1665083 0.042365704 -0.1428862 -0.13874668 -0.084205516 -0.10766633
0.08243197 0.05811399 0.14975265 0.24910039 -0.36628774 0.07896727 0.010484069 0.12966995
-0.03296789 -0.090668775 -0.20761047 -0.024873268 0.02449483 -0.15744206 0.119064 0.06551764
-0.09689909 0.14499477 -0.35052013 0.14491771 0.06326005 0.108103946 0.1257726 -0.005512152
0.031339504 0.17875552 0.18719885 -0.090127744 -0.094102696 -0.06839522 0.07819039 -0.17167829
-0.15830389 0.16385311 -0.019686136 0.08825711 0.076155245 0.01642485 0.07601094 0.047745664
00000000: c00c f9bd 9ea3 e73d f7cf 43bc 6305 02be
00000010: 60ab bcbe 552f a9be d2cd 153e 0e67 ecbc
00000020: 83c1 6abd d1c0 043e 52b8 9abe f63f 533e
00000030: 56f6 10bd b355 a8bd 450e b6ba 3471 113d
00000040: 573e 3b3e 4ceb fd3d 6dad 833e 158a 1cbe
00000050: 23f6 43be 7499 563e 00d1 fabd 89d2 e23d
00000060: eca9 bcbc 15e8 b2bc 3cfe 653e 5ba2 30be
00000070: 3798 8dbe 61ca 133e b01c 4bbd 24ac a3bb
00000080: 2b25 553e 501b e4bd 5920 d2be e3bc 7cbe
00000090: 2d55 143e 7aca 0ebc 890f 66be e737 843d
000000a0: 3070 573e 2aea 0a3e 9eb3 6bbe e416 8ebe
000000b0: cb3d 183e e045 50bd 0bd8 1ebe c31a 79bd
000000c0: 759f d1bd 5a0b 293e 28de 4ebe 4f39 ea3b
000000d0: 9600 b93d 909c 8dbd 27c5 99bd 563e e43c
000000e0: 2f49 a6be f887 56be 121f 7dbd 705e a0bd
000000f0: 5827 0ebd a22b 0e3e d481 383e de35 c3bd
00000100: e36a c13d 4188 3abd a124 83bd 45a5 443d
00000110: f7ea 86be 3934 3e3e 53ad 5c3e c7e4 273c
00000120: 03be 093e 45b6 29bd a68c 123b a5f3 e8bd
00000130: 9c3b 72bd 17b4 873d d06a bd3d fbf8 823e
00000140: 2285 a13d 9ea2 5abb ba1a a63d 78e9 17be
00000150: 59cb 423e ce7a 503c afcc d0bc b9f8 a63d
00000160: 52a8 97bd d0cf 5e3d 9e3a 15be f99a a5bd
00000170: 1f42 1e3e 971e c1bd b714 df3b fbcf 5a3d
00000180: b68e 063e a061 24bf 3255 493e 0119 863d
00000190: a6f3 ce3d 9736 383b 4eb7 97be e2b6 023e
000001a0: 6ac1 d4bd 3616 bdbd e57e c13d 32aa 80be
000001b0: dcf5 503d 0d6b b9be cb2d a8bc 5659 123e
000001c0: 5e68 843d b1c8 81bd 97ce 56bd 1760 b1bd
000001d0: 6f35 21bd d45a b6bd 013a f03d c417 e53d
000001e0: 7175 80bd 2683 f03d f59a 603d 78f4 9dbd
000001f0: fa8f 95be b5ff 403e 65d5 ac3d d079 01be
00000200: ff38 7ebd c6ad 0bbe 61e7 1c3a 9fce 2dbe
00000210: 0462 603d e5d2 853e ab4b 40bc f5a2 7fbe
00000220: eea9 673d cb26 37be c1cb 9bbe 518b 573e
00000230: fb4e 4ebe a4bc d7bc 31c8 223c 4126 553e
00000240: 87e6 433d 7fd8 323e 4c0c 8b3d 8b26 8f3d
00000250: f882 623d cb85 25be 797d 373e a652 02bc
00000260: ebd6 94be 83b5 4d3e 6d5e 94be fc3d 543c
00000270: dec7 be3d 9cc8 6abe 0ecf 04be ec81 96bd
00000280: 036d 0e3c 7a33 023e 2f6f 75be 4040 b23c
00000290: d91b 5abc 0e87 5b3e efc2 26be ebe6 3abd
000002a0: bd25 543e af09 e7bd d36f b43c fcc3 adbd
000002b0: dab1 5cbc 3266 a33e 2b07 25be d16e 473e
000002c0: 411e a4be d60d e4bc 73c8 eb3d 1490 c1bd
000002d0: d14d 1ebe dbe0 283e 15c8 573e 8cb4 26be
000002e0: ebfe 0abe 10c5 f0bc e494 ec3c 585a 703d
000002f0: 3979 a53d 653f 963d a383 65be c066 88bd
00000300: badf a83d d76e 2f3e 57dc e43d 839a 1c3d
00000310: 6efa 903e e640 d3bd d78d 3e3e efab 033e
00000320: 61cc c7bc be11 6e3e e220 783e bcc8 42be
00000330: b917 233d 28c8 d63e 7b26 81be c122 1b3e
00000340: 178d 4f3e 231b 82bd 2781 2a3e a987 2d3d
00000350: c350 12be 9c13 0ebe f173 acbd 2a80 dcbd
00000360: 18d2 a83d ef08 6e3d c258 193e 2c14 7f3e
00000370: 118a bbbe 98b9 a13d 5fc5 2b3c 33c8 043e
00000380: 5709 07bd 8db0 b9bd d797 54be 06c3 cbbc
00000390: 62a9 c83c 7e38 21be d4d7 f33d 1d2e 863d
000003a0: 0873 c6bd 8279 143e 6077 b3be 4f65 143e
000003b0: 7c8e 813d 9a65 dd3d 88ca 003e 489f b4bb
000003c0: da5d 003d b00b 373e 0eb1 3f3e e594 b8bd
000003d0: eab8 c0bd cb12 8cbd 4822 a03d 6fcc 2fbe
000003e0: 6a1a 22be 1cc9 273e d244 a1bc 25c0 b43d
000003f0: 48f7 9b3d 688d 863c a0ab 9b3d f590 433d

arith.constant3 f4 [21]
-0.5048815 -1.1132743 -0.14523925 0.28402182 -0.32009983 0.35886043 -0.23486856 0.1470613
0.30168006 0.17039238 0.22270967 0.19653603 0.20865239 -0.1630466 -0.123685785 0.25612637
-0.34897834 0.04957267 -0.16255304 0.001331382 -0.0248313
00000000: ea3f 01bf c67f 8ebf 99b9 14be 4f6b 913e
00000010: 20e4 a3be 8ebc b73e 6281 70be 3d97 163e
00000020: cf75 9a3e 577b 2e3e 010e 643e be40 493e
00000030: f9a8 553e b0f5 26be f94e fdbd ff22 833e
00000040: 4aad b2be b60c 4b3d 4e74 26be c481 ae3a
00000050: 036b cbbc

arith.constant4 f4 [32]
-0.32285386 -0.07966045 0.10258043 0.23509432 0.11946628 0.07271757 -0.2651395 0.29947248
0.29432723 -0.44884026 0.274867 0.054387856 -0.06761698 -0.062312856 0.49136934 0.031810816
0.1320482 -0.11751356 0.48824123 -0.049864 -0.041056022 -0.6574688 0.3029518 0.26581234
-0.17027548 -0.43421993 -0.197009 -0.3084865 0.13705282 0.43722022 0.24434906 0.06868389
00000000: 1a4d a5be 0525 a3bd b015 d23d 91bc 703e
00000010: bdaa f43d f3ec 943d 5dc0 87be 7554 993e
00000020: 0fb2 963e 64ce e5be 5ebb 8c3e cdc5 5e3d
00000030: c57a 8abd c43b 7fbd c394 fb3e 0f4c 023d
00000040: a537 073e f3aa f0bd c1fa f93e 323e 4cbd
00000050: 5c2a 28bd e04f 28bf 801c 9b3e 8e18 883e
00000060: b25c 2ebe 1352 debe babc 49be f1f1 9dbe
00000070: 9357 0c3e 54db df3e a436 7a3e 24aa 8c3d

sequential_1/dense_1_2/Add/ReadVariableOp f4 [64]
-0.19137672 -0.321198 -0.10449135 0.09961997 -0.5603478 0.08211279 0.05377198 0.12895277
-0.0144789545 -0.47549215 0.29192615 0.15706614 0.16551028 -0.6019265 0.372145 -0.36663368
0.04210775 0.18293837 0.12618862 -0.15112197 0.20332083 -0.029289791 -0.23696545 -0.057554707
-0.4142444 -0.35522366 0.036939003 0.07356649 0.3633782 -0.21212 0.03186928 0.15132897
-0.1046818 0.16252717 0.08351671 -0.12686655 -0.105698265 -0.10089143 0.020757679 -0.043789502
0.24804504 0.030454818 0.13884346 0.360457 0.33262637 -0.185474 -0.35261953 0.5172327
-0.02078717 0.18203352 -0.6250277 0.35213834 -0.10250596 0.3010418 0.19700414 0.122901596
0.123187035 -0.210396 -0.27319846 0.6493498 0.20880185 -0.26832896 0.05080582 -0.13098176
00000000: 42f8 43be 1074 a4be 90ff d5bd 8e05 cc3d
00000010: f472 0fbf c02a a83d 0240 5c3d 320c 043e
00000020: 2339 6dbc b573 f3be 5877 953e f2d5 203e
00000030: 877b 293e db17 1abf ca89 be3e 69b7 bbbe
00000040: 2d79 2c3d 3254 3b3e 9737 013e b8bf 1abe
00000050: 5633 503e 25f1 efbc 12a7 72be 7cbe 6bbd
00000060: d817 d4be e0df b5be 5a4d 173d 07aa 963d
00000070: b50c ba3e fc35 59be 5d89 023d fbf5 1a3e
00000080: 6963 d6bd 866d 263e cf0a ab3d 4ee9 01be
00000090: 5578 d8bd 2ba0 cebd 020c aa3c 9f5c 33bd
000000a0: 85ff 7d3e 627c f93c fb2c 0e3e d28d b83e
000000b0: 014e aa3e e5ec 3dbe 8c8a b4be 5d69 043f
000000c0: db49 aabc ff66 3a3e d101 20bf 7a4b b43e
000000d0: a5ee d1bd 2722 9a3e 74bb 493e d5b3 fb3d
000000e0: 7c49 fc3d 0d72 57be abe0 8bbe ca3b 263f
000000f0: 27d0 553e 6a62 89be c319 503d 1520 06be

sequential_1/dense_1/Add/ReadVariableOp f4 [128]
-0.020305691 -0.81267285 0.09868852 -0.118132465 -0.71882087 -0.4553142 -0.952922 -0.58979565
-0.42048344 -0.47787777 -0.2854054 -0.6956284 -0.33048055 -0.40158272 -0.8084358 -0.8287153
-0.6890743 -0.23462823 -0.9006272 -1.125572 -0.6373938 -0.6780874 -0.7931883 0.20415607
-0.5475742 -0.621771 -0.50445384 -0.9715557 -0.5105615 -0.28358316 -0.16891745 -0.4409952
-0.6096656 -1.0098066 0.25723803 -0.91498744 -0.13243116 -0.77483106 0.20891432 -0.6646002
-0.8105255 -0.7561416 -0.71212626 -0.6909994 -0.7821681 -0.627265 -0.3342801 -0.74600124
-0.45666403 -0.6638425 -0.64306384 -0.67181915 -0.6147794 -0.84565973 -0.021712745 -0.62237614
-0.73574734 -0.9380371 -0.4569666 -0.6405713 -0.12139709 -0.7323927 -0.47654206 -0.65215313
-0.5326879 -0.90660155 0.12436788 -0.15530252 -0.356079 -0.14964858 -0.710999 -0.59486765
-0.8293458 -0.5582895 -0.35446957 0.111070886 -1.0439472 -0.64543915 -0.6005793 -0.425912
-0.5902179 -0.6142031 -0.1814047 0.109179154 -0.4179264 -0.78311974 -0.20019712 -0.54854983
0.475295 -0.63575906 -0.07768565 0.15237337 -0.4978516 -0.20161586 -0.81711227 -0.4671784
0.23303127 -0.15527228 -0.4083853 -0.47077665 -0.62600553 -0.5141427 -1.0632565 -0.2651713
-0.34137416 -0.31608003 -0.8894365 -0.32731244 -0.10902898 -0.39705953 -0.7798583 -0.3893574
-0.4871981 -0.74691236 -0.09944589 -0.2042216 -0.60381114 -0.642653 -0.7905777 -0.27357903
-0.8113508 -0.6863968 -0.66899866 -0.5225777 0.16374943 -1.0029696 -0.2010003 -0.5390191
00000000: 1f58 a6bc 540b 50bf 351d ca3d 6fef f1bd
00000010: a504 38bf f11e e9be b2f2 73bf d9fc 16bf
00000020: 9b49 d7be 65ac f4be a820 92be b414 32bf
00000030: bf34 a9be 409c cdbe a6f5 4ebf b026 54bf
00000040: 2c67 30bf 6242 70be 818f 66bf be12 90bf
00000050: 3d2c 23bf 2397 2dbf 630e 4bbf 4a0e 513e
00000060: d32d 0cbf 622c 1fbf e323 01bf e0b7 78bf
00000070: 29b4 02bf d031 91be b2f8 2cbe 1fca e1be
00000080: 0b13 1cbf 5841 81bf b4b4 833e 9e3c 6abf
00000090: 099c 07be 545b 46bf a3ed 553e 3d23 2abf
000000a0: 997e 4fbf 7f92 41bf e84d 36bf 56e5 30bf
000000b0: 2b3c 48bf 7094 20bf c326 abbe f0f9 3ebf
000000c0: decf e9be 95f1 29bf d59f 24bf 57fc 2bbf
000000d0: 2f62 1dbf 287d 58bf edde b1bc 0b54 1fbf
000000e0: f059 3cbf 3323 70bf 87f7 e9be 7bfc 23bf
000000f0: 0a9f f8bd 177e 3bbf 52fd f3be 82f3 26bf
00000100: 3c5e 08bf 0a17 68bf 96b4 fe3d a007 1fbe
00000110: fd4f b6be 7a3d 19be 0804 36bf 3f49 18bf
00000120: 0250 54bf 10ec 0ebf 097d b5be 2279 e33d
00000130: 10a0 85bf 803b 25bf 91bf 19bf 2311 dabe
00000140: 8518 17bf 6a3c 1dbf 27c2 39be 5299 df3d
00000150: 73fa d5be 897a 48bf 7900 4dbe c36d 0cbf
00000160: de59 f33e 1bc1 22bf a719 9fbd c407 1c3e
00000170: 68e6 febe 6374 4ebe 452e 51bf 0232 efbe
00000180: c09f 6e3e b2ff 1ebe e117 d1be a309 f1be
00000190: e641 20bf db9e 03bf ca18 88bf 88c4 87be
000001a0: 98c8 aebe 3ed5 a1be 1cb2 63bf 7f95 a7be
000001b0: 964a dfbd 634b cbbe cba4 47bf da59 c7be
000001c0: 0872 f9be a635 3fbf 49aa cbbd 781f 51be
000001d0: 5e93 1abf e884 24bf 4d63 4abf 8d12 8cbe
000001e0: b0b4 4fbf b3b7 2fbf 7f43 2bbf a7c7 05bf
000001f0: eead 273e 4f61 80bf 06d3 4dbe 28fd 09bf

sequential_1/dense_1/MatMul f4 [128, 900]
-0.2992861 -0.2465694 -0.09350623 0.11289669 -0.17087704 0.1301704 0.042853616 -0.03727517
0.03828487 -0.30735242 -0.07130976 -0.012000813 0.20141801 -0.15843101 -0.0052736686 0.013437656
-0.03754175 0.09801455 -0.27574572 -0.01199516 -0.016907504 0.11907609 -0.083136655 0.121529594
0.08594759 -0.05359724 0.038226344 -0.26155695 0.01982075 -0.0916444 0.14598374 -0.17811693
0.108069934 0.0017026267 -0.001045075 0.030585526 -0.28000864 0.049569275 -0.10431446 0.08698638
-0.19350739 0.08980733 0.123550825 -0.030258987 0.014815481 -0.2588156 -0.038517565 -0.0379783
-0.056536715 -0.036809757 0.037599366 -0.02075542 -0.07537923 0.044592384 -0.16873865 0.09314507
-0.11622707 -0.1345443 0.009209736 -0.013298109 0.012736404 -0.036821805 0.047843404 -0.14882416
0.034925044 -0.030236498 -0.07973205 0.04924877 -0.13205531 0.07416064 0.015726784 0.025517054
-0.07488186 0.053618968 -0.083797745 -0.10747634 -0.078207016 -0.10087752 -0.0046919435 -0.06503572
0.050972495 -0.06250684 0.13377495 -0.10912737 -0.15271589 -0.100662485 -0.12111144 0.0148150725
-0.07071161 0.08046598 -0.14486352 0.020948002 -0.075495176 -0.14657216 0.056443952 -0.027416205
0.08091724 0.037831813 -0.05853928 -0.1699231 0.11960618 0.03777291 -0.14535104 0.008842817
-0.10227731 -0.0109627135 -0.013011105 0.0022745226 -0.040946767 0.050598413 -0.024528213 -0.10778356
0.07568916 -0.08534813 -0.0068983263 -0.0021708529 0.042409603 -0.15531693 0.08410421 -0.07781017
-0.07104974 0.11289013 -0.16698605 0.08781259 0.04129426 -0.11254142 -0.24886796 -0.04180173
0.042011872 -0.1562573 0.104032084 -0.21649954 0.12932086 -0.11429894 0.0054510995 -0.13257965
-0.0044227014 -0.06561463 -0.21426103 0.20809412 -0.23068719 0.029241731 -0.12567179 -0.10112924
-0.104780294 -0.09439229 -0.07786729 -0.075077645 0.23401067 -0.15906715 0.13650623 -0.037838757
-0.012682054 -0.111661375 -0.025535101 -0.062164675 -0.17394602 0.13286239 -0.2396051 -0.003047081
-0.03376113 -0.033653144 -0.18497816 -0.17407717 0.1265375 -0.06545611 0.15296675 -0.1809431
0.101613425 -0.0027554678 -0.06910377 -0.21020499 -0.02969493 0.12931 -0.11355453 0.054986637
-0.12709288 0.12964489 -0.080817595 0.024641877 -0.19921088 -0.09388706 -0.012444986 -0.15700512
0.14956588 -0.14945713 -0.012801196 -0.051020905 -0.0009426109 -0.18700756 -0.047684588 0.09896294
-0.05352217 0.11082575 -0.12227454 0.09904519 -0.13282415 -0.020125182 -0.17389159 -0.010694494
-0.04105856 -0.073763184 0.038712885 -0.21897437 0.10599169 -0.15606055 0.0027893572 -0.09515833
-0.14490213 -0.0040004943 -0.046076123 0.08135391 -0.21250679 0.05027849 -0.10699644 0.021173742
-0.23067974 -0.021940425 -0.05157224 0.04765231 0.041936643 -0.2046057 0.062167946 -0.056783188
-0.07523979 -0.17516045 0.08987217 -0.0077358116 0.04818341 0.1548409 -0.08415968 0.018742586
-0.053988352 0.012010713 -0.08020969 0.047962446 0.16441621 0.026192198 0.16051835 -0.027623022
0.07919036 -0.00033660806 -0.027034028 -0.19062519 0.02575302 0.064548135 -0.08484991 0.14533551
-0.07522086 0.0824316 -0.047361262 -0.11026071 -0.2393144 0.08307571 -0.024296237 -0.05827934
00000000: 073c 99be b07c 7cbe 3280 bfbd 6136 e73d
00000010: 64fa 2ebe 644b 053e 4687 2f3d d9ad 18bd
00000020: 99d0 1c3d 4c5d 9dbe da0a 92bd 0f9f 44bc
00000030: 8640 4e3e bd3b 22be bdce acbb 9d29 5c3c
00000040: 61c5 19bd dabb c83d 8b2e 8dbe 5987 44bc
00000050: 9b81 8abc 2ade f33d 8d43 aabd 82e4 f83d
00000060: 4a05 b03d c888 5bbd 3a93 1c3d cbea 85be
00000070: 205f a23c 0fb0 bbbd c37c 153e 4964 36be
00000080: c553 dd3d ac2a df3a e6fa 88ba 7f8e fa3c
00000090: 4b5d 8fbe 2709 4b3d d2a2 d5bd ea25 b23d
000000a0: cd26 46be e8ec b73d 3708 fd3d b2e1 f7bc
000000b0: a2bc 723c 7a83 84be 98c4 1dbd 228f 1bbd
000000c0: 0b93 67bd d4c5 16bd cb01 1a3d 4507 aabc
000000d0: 6d60 9abd 81a6 363d d3c9 2cbe d8c2 be3d
000000e0: 7508 eebd fbc5 09be 6fe4 163c 50e0 59bc
000000f0: 5aac 503c 76d2 16bd 72f7 433d 5c65 18be
00000100: 900d 0f3d 88b2 f7bc 8f4a a3bd 14b9 493d
00000110: 8239 07be 89e1 973d 75d5 803c 2409 d13c
00000120: a95b 99bd 909f 5b3d 279e abbd 8e1c dcbd
00000130: 002b a0bd e098 cebd e0be 99bb 7331 85bd
00000140: 89c8 503d 9603 80bd 4dfc 083e 2c7e dfbd
00000150: 8e61 1cbe 2228 cebd 4609 f8bd ebba 723c
00000160: 40d1 90bd 59cb a43d 1a57 14be 259b ab3c
00000170: 379d 9abd 0317 16be c631 673d f397 e0bc
00000180: f0b7 a53d 88f5 1a3d e2c6 6fbd 5200 2ebe
00000190: 16f4 f43d c4b7 1a3d e7d6 14be 76e1 103c
000001a0: c476 d1bd f49c 33bc 882c 55bc 2810 153b
000001b0: ccb7 27bd 4840 4f3d 64ef c8bc a1bd dcbd
000001c0: eb02 9b3d 00cb aebd 5b0b e2bb de44 0ebb
000001d0: b1b5 2d3d 670b 1fbe d43e ac3d f05a 9fbd
000001e0: 8782 91bd f132 e73d 64fe 2abe 16d7 b33d
000001f0: 2c24 293d 1e7c e6bd 3ed7 7ebe 4a38 2bbd
00000200: a414 2c3d ea01 20be c60e d53d 0eb2 5dbe
00000210: b06c 043e 9015 eabd 239f b23b f6c2 07be
00000220: 4fec 90bb f760 86bd 3e67 5bbe a016 553e
00000230: 4339 6cbe 5b8c ef3c 1bb0 00be d91c cfbd
00000240: 0d97 d6bd bf50 c1bd e378 9fbd 4fc2 99bd
00000250: 7ea0 6f3e 80e2 22be 4ac8 0b3e d0fc 1abd
00000260: 64c8 4fbc b8ae e4bd fd2e d1bc 63a0 7ebd
00000270: e81e 32be 140d 083e 0a5b 75be 89b1 47bb
00000280: 1c49 0abd e1d7 09bd ea6a 3dbe 4941 32be
00000290: 0c93 013e da0d 86bd 51a3 1c3e 2649 39be
000002a0: b31a d03d 1495 34bb 4786 8dbd fa3f 57be
000002b0: c842 f3bc d769 043e 478f e8bd ab39 613d
000002c0: a324 02be a1c1 043e b283 a5bd c3dd c93c
000002d0: f0fd 4bbe dc47 c0bd 0ee6 4bbc f3c5 20be
000002e0: cc27 193e 4a0b 19be 1cbc 51bc 4cfb 50bd
000002f0: 8c19 77ba e97e 3fbe ea50 43bd 15ad ca3d
00000300: 103a 5bbd 9cf8 e23d 136b fabd 34d8 ca3d
00000310: 0e03 08be 91dd a4bc a310 32be f537 2fbc
00000320: 052d 28bd 2711 97bd 6791 1e3d d13a 60be
00000330: 2c12 d93d 56ce 1fbe a6cd 363b 5fe2 c2bd
00000340: 3961 14be 9416 83bb 51ba 3cbd e19c a63d
00000350: 619b 59be d1f0 4d3d f320 dbbd 8e74 ad3c
00000360: 4f37 6cbe 68bc b3bc 6a3d 53bd 122f 433d
00000370: c2c5 2b3d 2884 51be d1a3 7e3d 7d95 68bd
00000380: 5217 9abd 435d 33be e60e b83d b17c fdbb
00000390: f85b 453d 9d8e 1e3e e95b acbd 0d8a 993c
000003a0: e422 5dbd 95c8 443c fa44 a4bd 4574 443d
000003b0: b95c 283e 0591 d63c ec5e 243e ad49 e2bc
000003c0: 8e2e a23d c57a b0b9 7776 ddbc 4033 43be
000003d0: fff7 d23c d031 843d cac5 adbd d5d2 143e
000003e0: 650d 9abd e6d1 a83d e2fd 41bd 5ed0 e1bd
000003f0: d60e 75be 9923 aa3d e708 c7bc 51b6 6ebd
