Models/GeneratedTFLiteFilesAndOGModels/conv_mlp_model.tflite (tflite, 133232 bytes, 11 tensors)

arith.constant2 f4 [64, 1, 3, 64]
0	0x3e39debc	0.18151373
1	0xbe912382	-0.28347403
2	0x3de2930f	0.110632055
3	0xbe9442be	-0.2895717
4	0xbecd9897	-0.4015548
5	0xbebaa800	-0.364563
6	0x3e8481ad	0.25880185
7	0x3e9aface	0.30269474
8	0xbd0975f7	-0.033559766
9	0xbdde2823	-0.10847499
10	0x3d08ad10	0.03336817
11	0xbf40a36b	-0.75249356
12	0x3e503f7e	0.2033672
13	0x3e37beeb	0.17943923
14	0x3dab1652	0.08353867
15	0x3e88cc1a	0.26718217
16	0xbeffe5c5	-0.49979988
17	0x3d6e5dcc	0.05819492
18	0x3e9142c4	0.2837125
19	0xbda41eab	-0.08013662
20	0x3efb417a	0.49073392
21	0x3e77a0cf	0.24182437
22	0xbede704d	-0.43445054
23	0xbc9823d6	-0.018571775
24	0xbee52ad7	-0.44759247
25	0xbef13d24	-0.4711696
26	0x3e60ccb5	0.2195309
27	0x3ba41ee9	0.0050085676
28	0x3f0fb8ee	0.56141555
29	0xbea4a596	-0.32157582
30	0x3c30e005	0.010795598
31	0xbdf226af	-0.118237846
32	0x3b370533	0.0027926683
33	0x3c9acdc3	0.018896943
34	0x3e20b6e8	0.15694773
35	0x3df9ab7d	0.12190912
36	0x3dac859e	0.08423923
37	0xbda59e77	-0.080868654
38	0x3d85c93c	0.06532523
39	0xbdee2384	-0.11627868
40	0x3f279b8b	0.65471715
41	0xbe67b62a	-0.22628084
42	0x3e839e8d	0.25706902
43	0xbe3c3e33	-0.18383102
44	0xbd8c3c1f	-0.06847405
45	0xbed27b84	-0.4110986
46	0xbe9fdceb	-0.31223235
47	0xbdaf62d9	-0.085637756
48	0xbe1b9697	-0.15194164
49	0xbdca1f48	-0.09869248
50	0xbf17d776	-0.5931314
51	0x3df3025f	0.118656866
52	0xbe606ffd	-0.2191772
53	0x3d0451bf	0.03230452
54	0xbee275f5	-0.4423062
55	0xbdcb15d1	-0.099162705
56	0xbdc2a876	-0.095047876
57	0x3d5da247	0.054109838
58	0x3dc82f28	0.09774619
59	0x3e6a010c	0.22851962
60	0x3cd7167e	0.026255842
61	0xbbb99c49	-0.0056643826
62	0x3edfdb78	0.4372213
63	0x3e0754c7	0.13215934
64	0x3e8777b7	0.26458523
65	0xbee84182	-0.45362478
66	0x3da60d1c	0.08107969
67	0xbe481fcf	-0.19543384
68	0xbf1fa663	-0.6236326
69	0xbdfc8f74	-0.12332049
70	0x3eb8b1cb	0.36073145
71	0x3eb841b9	0.35987642
72	0x3d6fe1d5	0.05856498
73	0xbe600b95	-0.21879418
74	0xbcd2f875	-0.02575324
75	0xbeb5fb12	-0.35543114
76	0x3e75a9fa	0.23990622
77	0x3e94d8b7	0.2907159
78	0xbd34c1ca	-0.044130124
79	0x3e36c71c	0.17849392
80	0xbebc0546	-0.36722773
81	0x3d9f25cd	0.07770882
82	0x3ea95e60	0.33079815
83	0xbede4004	-0.43408215
84	0x3ebc7358	0.3680675
85	0x3cc9a0a3	0.02461273
86	0xbea305c2	-0.3184033
87	0x3c5674e3	0.013089391
88	0xbf152174	-0.5825417
89	0xbee1ea83	-0.4412423
90	0xbe23f979	-0.16013135
91	0xbd37db94	-0.04488714
92	0x3eaf00ed	0.34180394
93	0x3d52f6b7	0.051504817
94	0x3da9bb85	0.0828772
95	0x3d41457b	0.047185402
96	0x3e67d4d8	0.22639787
97	0xbd85f0a1	-0.06540037
98	0x3e4612da	0.19343129
99	0xbd74c827	-0.059761193
100	0x3e1697a1	0.1470628
101	0xbe1338af	-0.14377092
102	0x3e14f0a9	0.1454493
103	0xbe887d08	-0.2665789
104	0x3f0f8b05	0.560715
105	0x3e6715ea	0.22566953
106	0x3e6c187f	0.2305622
107	0x3e2ad3b7	0.16682325
108	0x3dd77773	0.1052083
109	0xbebb0d5c	-0.3653363
110	0xbe202f0e	-0.1564295
111	0xbe0391c0	-0.12848568
112	0xbe09fccf	-0.13475345
113	0xbcfef73c	-0.03112375
114	0xbeba6b7d	-0.36410132
115	0xbeb7b5d0	-0.358809
116	0x3d9d9726	0.07694845
117	0x3dd50851	0.10401977
118	0xbf012175	-0.50441676
119	0xbe4e7a2d	-0.20163794
120	0xbdd30395	-0.103034176
121	0x3c8a6d0e	0.016897704
122	0x3e3ff68e	0.18746397
123	0x3e02b9e0	0.12766218
124	0x3c80c5ba	0.015719283
125	0xbcbef592	-0.023310456
126	0x3e5df138	0.21674049
127	0x3e5de052	0.21667603
128	0x3ec9ca33	0.39412078
129	0xbe35ef15	-0.17766984
130	0x3ddcb7a8	0.10777217
131	0xbe9100cd	-0.28320923
132	0xbf0c8a44	-0.54898477
133	0xbd01588b	-0.03157858
134	0x3e8088aa	0.25104266
135	0x3ecc17a2	0.3986178
136	0x3dbf449e	0.093392596
137	0xbe4af445	-0.19819744
138	0x3e3b8822	0.1831365
139	0x3e3de2de	0.18543574
140	0x3e3aecf9	0.1825446
141	0x3f2959d6	0.66152704
142	0x3e0a6685	0.1351567
143	0x3e4b3c50	0.19847226
144	0xbef37b53	-0.47555026
145	0xbd0a79f1	-0.0338077
146	0x3e9ccd80	0.30625534
147	0xbe929677	-0.2863042
148	0x3e9072a2	0.28212458
149	0xbe2c65f5	-0.16835769
150	0x3bea597e	0.0071517816
151	0x3e6a00b7	0.22851835
152	0xbf34043c	-0.7031896
153	0xbecfa5b3	-0.40556106
154	0xbed2a696	-0.4114272
155	0x3da27b06	0.07933621
156	0x3eb1278d	0.34600487
157	0x3f09a59f	0.5376834
158	0xbece3893	-0.40277538
159	0x3e2ebece	0.17064974
160	0x3eee0432	0.46487576
161	0x3c12f1dc	0.008968797
162	0x3df61392	0.120154515
163	0x3e2658d5	0.16244824
164	0x3c9bf755	0.019038836
165	0xbe5e2419	-0.21693458
166	0xbce7d661	-0.028300466
167	0xbe4dca17	-0.20096622
168	0x3e11404f	0.14184688
169	0x3f1e1f87	0.61766857
170	0xbb14adb2	-0.0022686538
171	0x3e853e39	0.26024035
172	0x3f166bfd	0.5875853
173	0xbee6ec36	-0.4510209
174	0x3ca0c511	0.019625219
175	0xbddea991	-0.10872186
176	0xbdd6a209	-0.104801245
177	0x3cdd1845	0.026989112
178	0xbc938685	-0.01800848
179	0xbf05ac65	-0.5221618
180	0x3e6b0797	0.22952114
181	0x3e296889	0.16543783
182	0xbd9ed3b0	-0.0775522
183	0xbe244f7f	-0.1604595
184	0x3e628228	0.22119963
185	0x3e1a92df	0.1509509
186	0xbd2e9275	-0.04262014
187	0x3ec69f63	0.38793477
188	0xbd7e7fb0	-0.06213349
189	0xbcf7fb49	-0.03027119
190	0x3d4eea0f	0.050516184
191	0x3de612a3	0.112340234
192	0x3e6d5b0c	0.23179263
193	0x3d381fc8	0.044952184
194	0xbd97d231	-0.07413138
195	0xbbc076ed	-0.005873552
196	0xbdfd2e86	-0.12362389
197	0xbefead0d	-0.49741402
198	0x3e896cb6	0.26840752
199	0xbc47a460	-0.012185186
200	0xbf6a5c19	-0.9154678
201	0xbf8949f0	-1.0725689
202	0x3e80fc7a	0.25192624
203	0xbff81f3c	-1.9384532
204	0xbcadb477	-0.021204216
205	0x3ef73745	0.48284355
206	0xbecd1d66	-0.40061492
207	0xbd94a36e	-0.07257734
208	0x3e2b3ac6	0.16721639
209	0x3f0a667f	0.54062647
210	0xbdeb522f	-0.11490285
211	0xbd1b7cf2	-0.037960954
212	0x3dc02467	0.09381943
213	0xbe45aca9	-0.19304146
214	0x3dbac4f1	0.09119595
215	0x3ec03d0e	0.3754658
216	0x3e9b926f	0.30385157
217	0xbd6d602f	-0.057953056
218	0x3dad277a	0.08454795
219	0x3e3eed1b	0.18645136
220	0x3cb6d648	0.022318974
221	0xbec854bc	-0.39127147
222	0x3f15f789	0.58580834
223	0xbeb4f17b	-0.35340485
224	0x3e777273	0.24164753
225	0x3dd9a39c	0.10626909
226	0x3e5e42e4	0.21705204
227	0x3b98120c	0.004640823
228	0x3e7a41e5	0.244392
229	0x3ed9ec4e	0.425631
230	0x3c5de32f	0.013542934
231	0xbb9663f9	-0.0045895544
232	0x3e3bc530	0.1833694
233	0xbd89a9bc	-0.067218274
234	0x3ec5fecc	0.38670957
235	0xbdab47b9	-0.083632894
236	0x3d8e19f3	0.06938543
237	0xbecd94c6	-0.40152568
238	0x3ecda494	0.40164626
239	0xbef5a2f4	-0.47975886
240	0x3e83332c	0.2562498
241	0x3e08402d	0.13305731
242	0x3ea6e7fc	0.32598865
243	0x3dae4bcc	0.08510551
244	0xbde102d0	-0.109868646
245	0x3ed64794	0.41851485
246	0xbe52cac7	-0.20585166
247	0xbcdf3329	-0.027246075
248	0x3dddfca9	0.10839207
249	0xbed970a2	-0.42468745
250	0x3e0dc116	0.13843188
251	0x3ec896f5	0.3917767
252	0xbe644884	-0.22293288
253	0x3db95dc3	0.09051087
254	0x3e8e95b5	0.27848592
255	0x3eb04dc1	0.34434322

arith.constant3 f4 [64, 1, 3, 9]
0	0xbdaf0287	-0.08545404
1	0xbe1b773a	-0.151822
2	0xbe131148	-0.14362061
3	0xbe19dd4e	-0.15025827
4	0x3e295be0	0.16538954
5	0x3cfe5610	0.031046897
6	0x3eaaaa6d	0.3333315
7	0x3df72919	0.12068386
8	0xbd363e50	-0.04449302
9	0x3d52ee2e	0.051496677
10	0xbe21496f	-0.15750669
11	0xbf09caa8	-0.53824854
12	0xbe221010	-0.1582644
13	0x3e5e29e9	0.21695675
14	0xbd4c232b	-0.049838226
15	0x3e13575f	0.14388798
16	0x3e2a8821	0.16653492
17	0xbd8f9f1f	-0.07012772
18	0x3e58fb7d	0.21189685
19	0xbd93be2f	-0.07214009
20	0xbf39b2fc	-0.72538733
21	0xbe4656d9	-0.19369067
22	0x3ea141c9	0.31495503
23	0x3d56e441	0.052463774
24	0x3e404572	0.18776491
25	0x3e2d3392	0.16914204
26	0x3cff4788	0.031162038
27	0x3e74c211	0.23902155
28	0x3e92fe17	0.2870948
29	0xbbf86e26	-0.00758149
30	0x3de94d71	0.11391724
31	0x3ebc7fa3	0.3681613
32	0x3eba0941	0.36335185
33	0xbda97df8	-0.0827598
34	0x3d337bfc	0.043819413
35	0x3ec2d9ba	0.38056737
36	0xbcb05907	-0.021526827
37	0x3da2cce4	0.07949236
38	0xbb397553	-0.002829869
39	0x3e286409	0.1644441
40	0x3e41c533	0.18922882
41	0xbd9b142d	-0.075722076
42	0xbd777792	-0.060416766
43	0x3e52a2c6	0.20569906
44	0x3eb57ddf	0.35447595
45	0x3e396a53	0.18106966
46	0x3dcb9306	0.09940152
47	0x3cae3c6e	0.02126905
48	0xbd5ea3f6	-0.054355584
49	0x3f060657	0.52353424
50	0xbe613e87	-0.21996509
51	0x3dd08f88	0.101836264
52	0x3e91044f	0.283236
53	0x3f0ad8e9	0.5423723
54	0xbe36105f	-0.17779683
55	0x3d2bc854	0.041939095
56	0xbdc714c7	-0.0972076
57	0x3eedcb43	0.4644414
58	0x3d0ad850	0.033897698
59	0x3df984a1	0.121835
60	0xbe57e934	-0.21085054
61	0xbcdcf687	-0.026973022
62	0xbe8b26db	-0.27178082
63	0xbd38af85	-0.045089263
64	0x3e6f3fd1	0.23364188
65	0xbc362bb7	-0.011118821
66	0x3d8eabaf	0.0696634
67	0x3e94dd61	0.2907515
68	0x3de4ca4c	0.111713976
69	0xbd64decb	-0.055876534
70	0xbde30c31	-0.1108631
71	0xbe2dcd6c	-0.16972893
72	0xbe980eae	-0.296987
73	0x3e29ff5d	0.1660132
74	0xbdd20c29	-0.102562256
75	0xbe9317af	-0.28729007
76	0x3e6b9b6c	0.23008507
77	0xbd38c80f	-0.045112666
78	0x3cf1ddea	0.029524762
79	0xbe55f265	-0.20893247
80	0xbe8e3b11	-0.2777944
81	0x3d34f2a2	0.044176705
82	0x3de974fe	0.113992676
83	0x3e46b6a9	0.19405617
84	0xbe7e669b	-0.24843828
85	0xbda08bd5	-0.07839171
86	0x3de7f763	0.11326482
87	0xbe2c95c7	-0.1685401
88	0x3e175ba3	0.1478105
89	0xbeae1354	-0.3399912
90	0x3b79c51e	0.0038111876
91	0x3e3f0847	0.18655501
92	0x3d27fd89	0.041013274
93	0x3db4c943	0.0882745
94	0xbd518326	-0.051150464
95	0x3d7c5f33	0.061614227
96	0xbc4f8bc8	-0.012667604
97	0x3db2c13e	0.08728264
98	0xbebc3bbd	-0.36764327
99	0x3e2fdefa	0.17174903
100	0x3e2a030d	0.16602726
101	0x3dd13284	0.10214713
102	0x3e201fac	0.15637082
103	0x3e0a85fe	0.13527676
104	0xbe38460c	-0.17995471
105	0xbe2f209b	-0.17102282
106	0xbe04f3ce	-0.12983629
107	0xbe99157c	-0.29899204
108	0xbe322840	-0.17398167
109	0xbf0d6823	-0.55237025
110	0x3e1b2188	0.1514951
111	0x3efeefce	0.4979233
112	0xbce4dc38	-0.02793704
113	0x3f262c47	0.6491131
114	0xbcd2ccdb	-0.025732448
115	0xbe3b174d	-0.18270607
116	0xbe69d9d1	-0.22836997
117	0xbde2db87	-0.11077028
118	0xbf75fa16	-0.96084726
119	0x3e27f6f7	0.16402803
120	0xbc77490f	-0.015093102
121	0x3e30abdd	0.1725306
122	0x3c8bc112	0.017059837
123	0xbd3655c3	-0.044515382
124	0xbe74fb2f	-0.23923944
125	0xbbc10f9c	-0.0058917534
126	0xbe7ea11e	-0.24866149
127	0xbf64ecd4	-0.8942387
128	0x3de1db34	0.11028138
129	0xbf094292	-0.53617203
130	0x3da72a54	0.0816237
131	0xbee6e283	-0.4509469
132	0xbd9b00c0	-0.075685024
133	0xbd423111	-0.047410075
134	0xbca80a52	-0.020512734
135	0x3f021ce6	0.50825346
136	0x3ecf79a3	0.4052249
137	0xbef74782	-0.48296744
138	0x3dcf336b	0.10117229
139	0xbea2e0ac	-0.31812036
140	0x3e816337	0.25271007
141	0x3e19f626	0.15035304
142	0x3ec218ba	0.3790949
143	0x3d2a192e	0.04152792
144	0x3c8d20d1	0.017227562
145	0x3ea9fec7	0.33202192
146	0xbd3ebae7	-0.046564963
147	0x3e25a714	0.16177016
148	0x3e482747	0.19546233
149	0x3e686b4b	0.22697179
150	0xbc9f32f2	-0.019433472
151	0x3e8620b0	0.26196814
152	0xbdd2d36e	-0.10294233
153	0xbeacb66c	-0.33732927
154	0x3ee6c6a3	0.45073423
155	0xbdbf139c	-0.09329912
156	0x3def211a	0.116762355
157	0x3f012160	0.5044155
158	0x3ea6d475	0.32583967
159	0xbd0f12ae	-0.034929924
160	0x3eded829	0.43524292
161	0xbdbeffd3	-0.09326138
162	0x3e5f3dfc	0.21800989
163	0xbeaeb0c1	-0.34119228
164	0xbed07693	-0.40715465
165	0x3e3b59ed	0.18296023
166	0x3d9562c4	0.07294229
167	0xbde3ab72	-0.11116685
168	0x3e2386fa	0.15969458
169	0xbd62744b	-0.055286687
170	0xbdc05021	-0.093902834
171	0x3db11c8e	0.086480245
172	0xbea45bcc	-0.32101285
173	0xbe0760bd	-0.13220496
174	0xbca98965	-0.020695398
175	0x3e81a802	0.25323492
176	0xb9e999d1	-0.00044555825
177	0x3e19c9d6	0.150184
178	0xbdb498ae	-0.08818184
179	0x3e753acc	0.2394821
180	0x3cde9a82	0.027173284
181	0xbf274ba6	-0.65349805
182	0xbe110531	-0.14162137
183	0xbec41483	-0.382969
184	0xbe662f6e	-0.2247903
185	0xbd213a1e	-0.039362065
186	0x3e5d8191	0.21631457
187	0x3c986985	0.018605003
188	0x3e3bc553	0.18336992
189	0x3e567df2	0.20946482
190	0xbf0ea616	-0.5572218
191	0x3e795c63	0.24351649
192	0x3cb402e4	0.021974035
193	0xbee480a0	-0.44629383
194	0xbedea66b	-0.43486342
195	0xbe172691	-0.14760806
196	0xbbd2e3a5	-0.0064358287
197	0x3e079f93	0.13244466
198	0x3e8ede1c	0.2790383
199	0xbf31ac3e	-0.69403446
200	0x3dca66d4	0.09882894
201	0xbdcba760	-0.099440336
202	0xbe4bff5b	-0.19921629
203	0xbeb367c2	-0.35040098
204	0xbc14ee02	-0.009089949
205	0x3d23765c	0.0399078
206	0x3cfbd380	0.0307405
207	0x3dfe9833	0.124313734
208	0xbecee32e	-0.404077
209	0x3e8e9e1d	0.27855006
210	0x3e9b26e3	0.30303106
211	0x3d575697	0.052572813
212	0x3d93973c	0.0720658
213	0xbdeb3e9f	-0.114865534
214	0xbdd71861	-0.10502697
215	0x3bd611b9	0.0065328744
216	0xbd928f45	-0.07156233
217	0xbd96c31a	-0.073614314
218	0xbe2cee70	-0.16887832
219	0x3f872e8e	1.0561082
220	0x3e07b762	0.13253549
221	0x3ea5fcaf	0.32419345
222	0x3dd5878f	0.104262464
223	0x3e34a3b3	0.17640571
224	0x3e29fb52	0.16599777
225	0x3e1ce761	0.15322639
226	0xbe983f30	-0.29735708
227	0x3d52fcbf	0.05151057
228	0x3f5a82d2	0.85355866
229	0x3ebe6210	0.3718419
230	0x3e4f3122	0.20233586
231	0x3ddffcea	0.109369114
232	0xbc1dfe99	-0.00964322
233	0xbd1a28e2	-0.037636645
234	0x3e2f3a9c	0.17112201
235	0xbd5e91e7	-0.054338362
236	0x3cb760c5	0.02238501
237	0x3f27e328	0.6558099
238	0x3ef02f1a	0.46910936
239	0x3ecaf8af	0.39642856
240	0x3dbfaa2e	0.09358631
241	0x3e625bb9	0.22105302
242	0xbdaf10dc	-0.085481375
243	0xbe26c8e9	-0.16287579
244	0xbe6dd036	-0.23223957
245	0x3da601cf	0.08105814
246	0xbe2a4e5c	-0.16631454
247	0x3f93e622	1.1554606
248	0x3cb7b38d	0.022424484
249	0x3d5c8254	0.053835228
250	0x3dbb1f95	0.09136883
251	0xbd6f6af6	-0.058451615
252	0xbe1251b2	-0.14288977
253	0x3d074720	0.033026814
254	0x3d52e73c	0.051490054
255	0xbed7e0ae	-0.42163604

arith.constant4 f4 [64]
0	0x00000000	0.0
1	0x00000000	0.0
2	0x00000000	0.0
3	0x00000000	0.0
4	0x00000000	0.0
5	0x00000000	0.0
6	0x00000000	0.0
7	0x00000000	0.0
8	0x00000000	0.0
9	0x00000000	0.0
10	0x00000000	0.0
11	0x00000000	0.0
12	0x00000000	0.0
13	0x00000000	0.0
14	0x00000000	0.0
15	0x00000000	0.0
16	0x00000000	0.0
17	0x00000000	0.0
18	0x00000000	0.0
19	0x00000000	0.0
20	0x00000000	0.0
21	0x00000000	0.0
22	0x00000000	0.0
23	0x00000000	0.0
24	0x00000000	0.0
25	0x00000000	0.0
26	0x00000000	0.0
27	0x00000000	0.0
28	0x00000000	0.0
29	0x00000000	0.0
30	0x00000000	0.0
31	0x00000000	0.0
32	0x00000000	0.0
33	0x00000000	0.0
34	0x00000000	0.0
35	0x00000000	0.0
36	0x00000000	0.0
37	0x00000000	0.0
38	0x00000000	0.0
39	0x00000000	0.0
40	0x00000000	0.0
41	0x00000000	0.0
42	0x00000000	0.0
43	0x00000000	0.0
44	0x00000000	0.0
45	0x00000000	0.0
46	0x00000000	0.0
47	0x00000000	0.0
48	0x00000000	0.0
49	0x00000000	0.0
50	0x00000000	0.0
51	0x00000000	0.0
52	0x00000000	0.0
53	0x00000000	0.0
54	0x00000000	0.0
55	0x00000000	0.0
56	0x00000000	0.0
57	0x00000000	0.0
58	0x00000000	0.0
59	0x00000000	0.0
60	0x00000000	0.0
61	0x00000000	0.0
62	0x00000000	0.0
63	0x00000000	0.0

arith.constant5 f4 [21, 64]
0	0xbec285b3	-0.3799263
1	0xbe718610	-0.23586297
2	0x3e41b31a	0.18915978
3	0x3db0ea7d	0.08638475
4	0xbe087f2d	-0.13329764
5	0xbe963f3b	-0.29345116
6	0x3b35963f	0.0027707962
7	0x3eaabc88	0.33346963
8	0x3c3d1db6	0.011542728
9	0xbdafc9fd	-0.08583448
10	0x3d928824	0.07154873
11	0x3e4e114b	0.20123784
12	0x3e2b7cd0	0.16746831
13	0xbe67977d	-0.22616382
14	0xbdd6431f	-0.10462021
15	0xbea31307	-0.31850454
16	0x3d1aaed7	0.037764397
17	0x3d94edbe	0.07271908
18	0xbd000064	-0.031250373
19	0x3e5249c9	0.2053596
20	0x3e41ea53	0.18937044
21	0x3e9b56a0	0.30339527
22	0xbeb49619	-0.35270765
23	0x3dd3e65c	0.10346672
24	0xbb0cbb73	-0.0021474033
25	0xbe8d769b	-0.2762955
26	0xbed4999e	-0.4152345
27	0x3cc988c5	0.02460135
28	0xbe97ffcb	-0.29687342
29	0x3e499226	0.19684657
30	0xbc618f30	-0.013767049
31	0x3e544f86	0.20733461
32	0x3e8bfb83	0.27340326
33	0xbea2b220	-0.31776524
34	0xbcb73e65	-0.02236862
35	0x3e505952	0.20346573
36	0xbe530687	-0.20607959
37	0xbc65af94	-0.014018912
38	0xbdbc64b0	-0.09198892
39	0xbc7e93a8	-0.015538134
40	0xbe5e9c1c	-0.21739239
41	0x3e2a1786	0.16610536
42	0x3df69e00	0.12041855
43	0xbe0e24e3	-0.13881259
44	0xbe5f60e3	-0.21814303
45	0xbd15371f	-0.03642952
46	0x3da789c4	0.081805736
47	0xbe91f163	-0.28504476
48	0x3dc5ab49	0.09651811
49	0x3d5124a1	0.051060323
50	0x3e1b8852	0.15188721
51	0x3e7bc358	0.24586236
52	0x3e705991	0.23471667
53	0x3d4d51f3	0.05012698
54	0xbe391783	-0.18075375
55	0x3e3cd753	0.18441515
56	0xbe1643ca	-0.14674297
57	0xbe50e643	-0.20400338
58	0xbed82cda	-0.4222172
59	0x3ea98b88	0.33114266
60	0x3c988295	0.018616954
61	0xbde12118	-0.1099264
62	0x3cbc998c	0.023022436
63	0xbff406b3	-1.9064544
64	0xbe8c4c63	-0.27402028
65	0xbee3850a	-0.44437438
66	0x3e436e2d	0.19084997
67	0xbe87d83b	-0.26532158
68	0xbe2ae56d	-0.16689081
69	0xbdbbbc8a	-0.0916682
70	0xbe3b577b	-0.1829509
71	0xbec6cb28	-0.3882687
72	0x3dba3355	0.09091822
73	0x3ef5e3dd	0.48025408
74	0xbb671e76	-0.003526596
75	0x3e93ce03	0.28868112
76	0x3ea98036	0.3310563
77	0x3de7c6d2	0.11317219
78	0xbac73cd4	-0.0015200623
79	0xbe29b0e1	-0.1657138
80	0x3ecbc0d9	0.3979557
81	0x3ec41a78	0.38301444
82	0xbe011676	-0.12606224
83	0xbf0444bc	-0.5166738
84	0xbe8311c0	-0.2559948
85	0x3ea14aed	0.31502476
86	0xbe95e34c	-0.29274976
87	0xbee42651	-0.44560483
88	0xbe06ba31	-0.13156964
89	0xbea0b0a1	-0.31384757
90	0xbea652eb	-0.32485136
91	0x3e265809	0.1624452
92	0x3d03903f	0.032119986
93	0x3edb803e	0.4287128
94	0x3d00e69d	0.03146993
95	0x3e90614a	0.28199226
96	0xbe546dc1	-0.20744993
97	0xbdf821fc	-0.12115857
98	0xbe03c979	-0.12869824
99	0xbebe7c75	-0.37204328
100	0xbe81c118	-0.2534263
101	0x3e0e65af	0.13905977
102	0x3d7da0e1	0.061921004
103	0xbe551720	-0.20809603
104	0xbe089741	-0.13338949
105	0x3f049803	0.5179445
106	0x3e8fee8c	0.28111684
107	0x3d5530cd	0.052048493
108	0xbe87aa5f	-0.2649717
109	0x3d9cf7a1	0.07664419
110	0xbf07ecbd	-0.5309561
111	0xbe5edc18	-0.21763647
112	0xbec56fe0	-0.38561916
113	0xbd8748d3	-0.06605687
114	0xbd434dac	-0.047681496
115	0xbeb9fb38	-0.36324477
116	0x3e6c3de6	0.23070487
117	0xbf4223bb	-0.7583577
118	0xbe50052a	-0.2031447
119	0xbf05634b	-0.52104634
120	0xbdfff9b7	-0.12498801
121	0xbd9ede8e	-0.07757293
122	0x3f576d9e	0.8415164
123	0x3ec3eb6a	0.38265544
124	0x3d1bd716	0.03804692
125	0x3c7abcce	0.015303804
126	0x3e9059d0	0.28193521
127	0x40034a66	2.051416
128	0xbe5b97e4	-0.2144466
129	0xbe9f7c65	-0.31149593
130	0x3d8e1840	0.06938219
131	0xbe896306	-0.2683336
132	0x3dce9db6	0.10088675
133	0xbd3afe85	-0.045652885
134	0xbf5ae9f9	-0.85513264
135	0x3d1696ec	0.036765024
136	0xbf2b2856	-0.6685842
137	0x3f1277a2	0.57213795
138	0xbe44faad	-0.1923625
139	0x3e16fdf5	0.14745314
140	0x3e7b58e7	0.24545632
141	0xbe1effeb	-0.15527312
142	0xbe82334d	-0.25429764
143	0x3e6c00ab	0.2304713
144	0x3e2d5925	0.16928537
145	0x3e5348ba	0.20633212
146	0xbdb32617	-0.087474994
147	0x3e152359	0.14564265
148	0x3eaf81a4	0.34278595
149	0xbe8e8070	-0.27832365
150	0x3e59e48f	0.21278594
151	0xbeee413f	-0.46534154
152	0xbbf225be	-0.007389753
153	0xbf28a6fa	-0.65879786
154	0xbe1c1e16	-0.15245852
155	0x3cd8607a	0.026413191
156	0xbd95c37d	-0.07312677
157	0x3ea68464	0.3252288
158	0xbd3eb7d3	-0.046562027
159	0xbcd78f3f	-0.026313422
160	0xbcbfdfaf	-0.02342209
161	0xbe50d4e7	-0.20393716
162	0xbeba410b	-0.3637775
163	0xbe0dfb64	-0.13865429
164	0xbe8bf386	-0.2733423
165	0x3edd822a	0.4326337
166	0xbe96e265	-0.294696
167	0x3bd932ea	0.006628384
168	0x3e1e8ff1	0.15484597
169	0x3ef731c6	0.48280162
170	0xbe5123b7	-0.2042378
171	0xbd52280b	-0.05130772
172	0xbed40fd1	-0.41418317
173	0xbc9f4658	-0.019442722
174	0xbe45fd5a	-0.19334927
175	0xbf159c59	-0.5844169
176	0xbe86ab5c	-0.26302612
177	0xbe436c8e	-0.19084379
178	0xbe3a2228	-0.18177092
179	0xbe675edb	-0.22594778
180	0xbd1dc261	-0.038515452
181	0xbed3251a	-0.41239244
182	0xbe841628	-0.25798154
183	0x3ebeba1b	0.37251362
184	0xbe170a70	-0.14750075
185	0xbe7942eb	-0.24341933
186	0xbee3f5e9	-0.44523552
187	0x3de8da1e	0.113697276
188	0xbd802f35	-0.06259004
189	0xbe12437b	-0.14283554
190	0x3e9d3050	0.30700922
191	0xc04d5002	-3.2080083
192	0xbef428ff	-0.47687528
193	0xbd9e6bcb	-0.077354036
194	0xbf11339e	-0.56719387
195	0x3edf13ee	0.43569893
196	0xbe8bbeb6	-0.27293938
197	0x3f8abbb7	1.0838536
198	0xbec08fd8	-0.37609744
199	0x3eb4d6ec	0.35320222
200	0x3edabf91	0.4272428
201	0xbecd247d	-0.400669
202	0x3e71c440	0.2361002
203	0xbf874dec	-1.0570655
204	0xbedba2a3	-0.4289752
205	0x3e2832ba	0.164256
206	0xbde7d764	-0.113203794
207	0xbdc7df62	-0.09759404
208	0x3ef1d675	0.4723393
209	0xbe20626f	-0.1566255
210	0xbe9276df	-0.28606316
211	0x3f2cedb8	0.6755023
212	0xbf3540d8	-0.7080207
213	0x3e4f9172	0.20270327
214	0xbf096e02	-0.53683484
215	0x3e70ca45	0.2351466
216	0xbe27117c	-0.16315264
217	0xbf2b1402	-0.66827404
218	0x3e72662e	0.23671791
219	0xbce8b61e	-0.028407153
220	0x3e14097f	0.14456747
221	0x3ec6d6b6	0.38835686
222	0xbe9bcac5	-0.30428138
223	0xbe9ba3fd	-0.3039855
224	0x3e93a117	0.2883384
225	0x3ed28da4	0.41123688
226	0xbd922562	-0.071360365
227	0xbf35fa5d	-0.7108515
228	0xbe046830	-0.1293037
229	0x3e4129a0	0.18863535
230	0x3e22edb8	0.15910995
231	0xbed4b2ba	-0.41542608
232	0xbc1d535b	-0.009602393
233	0x3e0a4f14	0.13506728
234	0xbed02d5e	-0.40659612
235	0xbe69b135	-0.22821505
236	0x3e175b5f	0.14780949
237	0xbe5fbbe9	-0.21849026
238	0xbd88a119	-0.06671352
239	0xbea44ef8	-0.32091498
240	0x3d31027a	0.043215252
241	0xbf06a115	-0.5258954
242	0x3e952d09	0.29135922
243	0xbee6f782	-0.45110708
244	0x3e034e13	0.12822752
245	0xbf1b8044	-0.6074259
246	0xbf140fe3	-0.5783674
247	0x3da84424	0.08216122
248	0x3e04b638	0.12960136
249	0x3f09a63f	0.53769296
250	0xbf1de073	-0.6167061
251	0x3eed2971	0.4632068
252	0xbe843032	-0.2581802
253	0xbe85c9be	-0.2613048
254	0xbea927f1	-0.33038285
255	0xbf7b3d85	-0.98140746

arith.constant6 f4 [64, 128]
0	0xbcb21012	-0.021736179
1	0x3d35b535	0.044362266
2	0xbfe57b73	-1.7928299
3	0x3e8a979f	0.27068803
4	0x3f1e2736	0.6177858
5	0x3e78e1b8	0.24304855
6	0x3cf3a173	0.02974007
7	0x3ea1f0ab	0.31628928
8	0x3e4cd849	0.20004381
9	0xbdfccbc7	-0.12343555
10	0xbfc76358	-1.5577192
11	0x3ddd60a7	0.108094506
12	0xbddc61ad	-0.10760818
13	0xbed31e5c	-0.412341
14	0x3e7b8631	0.24562909
15	0xbfe3e863	-1.7805294
16	0x3d810ea8	0.063016236
17	0xbfdd6c7d	-1.7298733
18	0x3d4a8418	0.04944238
19	0x3db16328	0.08661491
20	0x3e3c1b27	0.18369733
21	0xbee51d14	-0.44748747
22	0xc0223334	-2.5343752
23	0xc06208c2	-3.5317845
24	0x3d25ef5b	0.04051147
25	0xbc47ea29	-0.012201824
26	0x3f0322fd	0.5122526
27	0x3dd3b3e6	0.10337047
28	0x3e03ff50	0.12890363
29	0xbc93158c	-0.01795461
30	0x3ecab4f6	0.39591187
31	0xbf98168f	-1.1881884
32	0xbf34e29f	-0.70658296
33	0xbfa2a096	-1.2705257
34	0xbfbb31cb	-1.4624571
35	0x3d878e24	0.06618908
36	0xbfb6ad0a	-1.4271557
37	0xc0480e8c	-3.1258879
38	0xc02548df	-2.5825727
39	0xbf1190f2	-0.56861794
40	0x3e0a1400	0.13484192
41	0x3e41ebe4	0.18937641
42	0x3c49ab7f	0.012308954
43	0xbea9924f	-0.33119437
44	0xbfd8063e	-1.6876905
45	0xbf9e6825	-1.2375532
46	0x3e32b5f9	0.1745223
47	0x3e897311	0.268456
48	0xbf2e31aa	-0.6804453
49	0x3e81e1a6	0.2536747
50	0xbd9353ba	-0.07193704
51	0xbf0d969c	-0.55307937
52	0xbde49c81	-0.11162663
53	0xbe11a6e4	-0.1422382
54	0x3c3c892c	0.011507314
55	0x3d7bf5c0	0.061513662
56	0x3e33aaf3	0.1754568
57	0x3ec6750e	0.3876118
58	0x3e8640c5	0.2622129
59	0x3ec29fac	0.38012445
60	0x3baec8ae	0.0053339815
61	0x3e9f8faa	0.31164294
62	0x3dc3a6ae	0.09553276
63	0x3d75a610	0.059972823
64	0x3e1951b4	0.14972574
65	0x3d65ad3c	0.056073412
66	0x3dfc27cb	0.123122774
67	0xbfcea843	-1.6145099
68	0x3ca718c9	0.02039756
69	0x3dc71998	0.097216785
70	0x3e787d4b	0.24266545
71	0xbf516fd8	-0.81811285
72	0x3ed8baa7	0.42329904
73	0xbfd031a8	-1.6265154
74	0xbf7cdded	-0.9877613
75	0xbec219d9	-0.37910345
76	0x3eae0532	0.3398834
77	0xbf86654d	-1.0499665
78	0xbd260151	-0.0405286
79	0xbfa20248	-1.2656946
80	0xbfccd5c8	-1.6002741
81	0xc01ed04b	-2.4814632
82	0xbaf567d3	-0.0018722959
83	0x3e1c6471	0.1527269
84	0x3e877c47	0.26462004
85	0x3ee1f215	0.44130006
86	0xbeef8f7f	-0.46789166
87	0xbf2043f1	-0.6260367
88	0xbdeb9512	-0.11503042
89	0xbf4772f1	-0.7790976
90	0xbd1d07c7	-0.038337495
91	0xbf869e7f	-1.0517119
92	0x3b920898	0.004456591
93	0xbf5ec239	-0.8701511
94	0xbf942221	-1.1572915
95	0xc0263f51	-2.5976145
96	0x3e834a2b	0.25642523
97	0x3ca96f76	0.020683032
98	0xbf5e55d7	-0.8684973
99	0xbf1b6e2b	-0.6071498
100	0xbfc9bcbb	-1.5760721
101	0xbf89ea9e	-1.0774724
102	0xbfbfb298	-1.4976377
103	0xbe39f258	-0.18158853
104	0xbf821288	-1.0161905
105	0xbd915693	-0.07096591
106	0x3cf2c838	0.029636487
107	0xbc151260	-0.009098619
108	0xbf524661	-0.8213864
109	0xbfe10f45	-1.7582785
110	0xbdda0b06	-0.10646634
111	0x3ed156f3	0.4088665
112	0x3d3ee840	0.04660821
113	0x3d461415	0.048358995
114	0x3e73f621	0.2382436
115	0xbe71df1d	-0.23620267
116	0x3eb55f1d	0.35424128
117	0xbd83dedb	-0.06438991
118	0x3e81b1c0	0.25330925
119	0xbfa2b0ed	-1.2710243
120	0x3d7637d1	0.060111824
121	0xbdb29127	-0.08719092
122	0x3e93b1fe	0.28846735
123	0xbf12c8af	-0.5733747
124	0xbdacb65e	-0.08433221
125	0x3e34c1ba	0.17652026
126	0xbf354018	-0.70800924
127	0xbff8f454	-1.9449563
128	0x3e9fa2ab	0.31178793
129	0x3f0af2f7	0.54276985
130	0xbe3c34f3	-0.18379574
131	0x3ee5c6d5	0.4487826
132	0xbd4cac1f	-0.049968835
133	0xbe93afaf	-0.28844973
134	0xbe9902e9	-0.29885033
135	0x3e20f67a	0.15719023
136	0x3e6e0fcf	0.23248218
137	0xbcbcef25	-0.023063252
138	0xbc8b4225	-0.016999314
139	0x3e45565e	0.19271228
140	0xbd21f55a	-0.039540626
141	0xbd3c879e	-0.046027772
142	0x3eb06ae4	0.3445655
143	0xbdf66ea0	-0.12032819
144	0xbdd507b3	-0.10401859
145	0x3da2fe01	0.07958604
146	0x3e459c40	0.19297886
147	0x3e60f017	0.21966587
148	0xbbe008b8	-0.006836977
149	0xbe1f1273	-0.15534382
150	0x3db3042a	0.087410286
151	0x3b6ff274	0.003661302
152	0x3e3b236b	0.1827523
153	0xbcde5613	-0.027140653
154	0xbbc93ec3	-0.006141515
155	0xbdcfa986	-0.10139756
156	0xbc34561d	-0.011006859
157	0x3e11e341	0.14246847
158	0xbd34b2c2	-0.04411579
159	0xbe585d67	-0.2112938
160	0xbdc3e834	-0.095657736
161	0xbfd272d6	-1.6441295
162	0x3e98466f	0.29741237
163	0x3ee4fbcc	0.44723356
164	0x3ec1831d	0.37795344
165	0x3e0a0cff	0.1348152
166	0xbd91879b	-0.07105943
167	0xbdf5fe48	-0.12011391
168	0xbef82368	-0.48464513
169	0x3e37e55d	0.17958589
170	0x3eeb4c73	0.45956764
171	0xbf487fcc	-0.7832
172	0x3e5511b0	0.20807528
173	0xbe5f47af	-0.21804689
174	0x3ee2920c	0.4425205
175	0xbc227ef7	-0.009917966
176	0x3f0b2148	0.5434766
177	0xbe0ad3d3	-0.13557367
178	0xbdebdab0	-0.11516321
179	0x3e0361bd	0.12830253
180	0xbe90afe6	-0.282592
181	0x3d2dcd93	0.04243238
182	0xbe543c91	-0.20726229
183	0x3d7a5497	0.061115827
184	0x3d9a70a8	0.07541019
185	0x3d9020e6	0.07037525
186	0xbe706c74	-0.23478872
187	0x3e556451	0.20839049
188	0x3e0af624	0.13570458
189	0x3e9e2dbd	0.3089427
190	0x3ec43c27	0.38327143
191	0xbcb7599c	-0.022381596
192	0x3dda039b	0.10645219
193	0x3df22c9c	0.11824915
194	0xbd350aed	-0.044199873
195	0x3e92e28d	0.2868847
196	0x3d71e16a	0.059052862
197	0x3d8ef826	0.06980924
198	0xbeb7a3d0	-0.35867167
199	0xbc895ee5	-0.016768882
200	0x3e3eed4b	0.18645208
201	0x3e476ed0	0.19475865
202	0x3deda0b4	0.11602917
203	0x3e35487a	0.17703429
204	0x3d0c64df	0.034275886
205	0x3cfc94cb	0.030832669
206	0x3e216391	0.15760638
207	0x3ea9e56e	0.33182853
208	0xbfb0fd7b	-1.3827356
209	0x3e5c6df6	0.21526322
210	0xbe2fbf84	-0.17162901
211	0xbf15d8ca	-0.5853392
212	0x3cbb9e40	0.022902608
213	0x3d025494	0.03181894
214	0xbe43f3e8	-0.19136012
215	0x3e20f481	0.15718271
216	0xbca40837	-0.020023448
217	0x3df41e9e	0.11919902
218	0x3e2ef5a8	0.17085898
219	0x3da5bac4	0.08092263
220	0x3c6c7e34	0.014434386
221	0x3e3dd0dd	0.18536706
222	0x3e7529fc	0.23941797
223	0xbf270c04	-0.6525271
224	0x3de35e3f	0.111019604
225	0x3d1e446b	0.038639467
226	0x3e22c0f7	0.15893923
227	0x3cadc55a	0.021212269
228	0xbf9f2154	-1.2432046
229	0x3e9266eb	0.28594145
230	0x3e8a21f5	0.26979032
231	0x3db92fa1	0.090422876
232	0x3e17c75e	0.14822146
233	0xbd0a16e9	-0.033713255
234	0xbc7e37d7	-0.015516243
235	0x3ed06ad5	0.40706506
236	0xbe488a0f	-0.19583915
237	0xbdf05e36	-0.11736719
238	0x3e20f753	0.15719347
239	0xbad0af14	-0.0015921318
240	0x3db3329b	0.087498866
241	0x3e6083a5	0.21925218
242	0x3ed01f07	0.40648672
243	0x3e342328	0.17591536
244	0xbdf0d1b9	-0.117587514
245	0xbc9969cb	-0.018727204
246	0xbd97cf5a	-0.07412596
247	0xbe42b32f	-0.19013666
248	0x3eb4af37	0.35289928
249	0x3e76dc3e	0.24107453
250	0x3e6e099f	0.23245858
251	0x3e0fd082	0.14044383
252	0xbe2bdf22	-0.16784337
253	0x3e968385	0.29397216
254	0x3d4adca5	0.04952683
255	0x3e5d41a2	0.21607068

arith.constant7 f4 [128, 64]
0	0xbeb69eb6	-0.35667962
1	0xbf6fadd0	-0.9362459
2	0x3ee2bb70	0.44283628
3	0x3e2c71d0	0.16840291
4	0x3e86e0f7	0.2634351
5	0xbed18f8a	-0.40929824
6	0xbe4fecc8	-0.20305169
7	0x3e7d8ebc	0.2476148
8	0xbef079cf	-0.46967933
9	0xbebe1634	-0.37126315
10	0x3ec99ba8	0.3937657
11	0x3e80ad13	0.25132045
12	0xbf074d9f	-0.52852815
13	0xbf43894d	-0.7638138
14	0x3eaa3da8	0.33250165
15	0x3ceead4b	0.029135367
16	0x3dbc694d	0.09199772
17	0xbc482a52	-0.012217121
18	0xbe820328	-0.25393033
19	0x3f3692c9	0.71317726
20	0x3cdc2eaa	0.02687772
21	0xbebafe75	-0.3652226
22	0x3d134cea	0.035962023
23	0x3d0b0fe4	0.0339507
24	0xbe6f0a2a	-0.23343721
25	0x3dc5399e	0.0963013
26	0xbc9f2c43	-0.019430285
27	0xbe186422	-0.14881948
28	0x3f0812d0	0.53153706
29	0x3ca3df8a	0.020004053
30	0xbf074edc	-0.52854705
31	0xbb9aa76c	-0.0047196653
32	0x3e596e03	0.21233372
33	0xbe8b76be	-0.2723903
34	0x3edfc392	0.43703896
35	0xbe1c0312	-0.15235546
36	0x3decbb39	0.115591474
37	0x3e5c2f31	0.21502377
38	0x3ea5e5e7	0.32401964
39	0xbe5ed21a	-0.21759835
40	0xbe4b1373	-0.19831638
41	0x3d8558a2	0.06511046
42	0xbf2d5308	-0.6770482
43	0xbf9f0717	-1.2424039
44	0x3edfc38f	0.43703887
45	0x3e5afac2	0.21384719
46	0x3d23ca65	0.03998794
47	0x3d2c11ad	0.042009044
48	0xbf134925	-0.57533485
49	0xbd86ac72	-0.0657586
50	0xbe400de7	-0.18755303
51	0x3dd806bb	0.10548159
52	0xbd0ac612	-0.0338803
53	0xbe3e051e	-0.1855664
54	0xbf053721	-0.52037245
55	0x3e81b388	0.25332284
56	0xbecce761	-0.40020278
57	0x3edcd047	0.43127653
58	0xbe50ce03	-0.20391087
59	0x3da7e967	0.08198815
60	0xbebdacd3	-0.37045917
61	0x3e19aac9	0.15006556
62	0x3e612529	0.21986832
63	0xbea8d3dd	-0.3297414
64	0xbe2c1c79	-0.16807736
65	0x3e8fe6e7	0.28105852
66	0x3ec44c77	0.38339588
67	0x3e051f53	0.1300023
68	0x3e533613	0.20626096
69	0xbe5aca1f	-0.21366166
70	0x3ea52983	0.32258233
71	0x3f05eaac	0.52311206
72	0x3d9742be	0.07385777
73	0xbe7dc7bb	-0.24783222
74	0x3df5e90d	0.120073415
75	0xbeb06a03	-0.3445588
76	0x3eb6050a	0.3555072
77	0xbb9d745d	-0.0048051313
78	0x3d61443f	0.054996725
79	0x3f67e750	0.9058733
80	0x3d124f35	0.03572007
81	0xbe0eef18	-0.13958395
82	0xbc419f66	-0.011817789
83	0x3de4149a	0.11136742
84	0xbe809fb5	-0.25121847
85	0xbd7ff28a	-0.062487163
86	0x3e4b7bc9	0.19871439
87	0xbea1ca7c	-0.31599796
88	0xbeb8e583	-0.36112604
89	0xbf0f4bdd	-0.55975133
90	0x3e955310	0.29164934
91	0xbed6e96d	-0.41974965
92	0x3e890e0c	0.2676853
93	0x3e919369	0.28432778
94	0xbe87cc0e	-0.2652287
95	0xbd9f8a0e	-0.07790004
96	0x3e15a23c	0.14612669
97	0xbf1a0788	-0.6016774
98	0xbe774d50	-0.24150586
99	0xbf08c04b	-0.53418416
100	0xbf41861c	-0.7559526
101	0xbeaac75b	-0.3335522
102	0x3eda6e20	0.42662144
103	0xbd862cca	-0.065515116
104	0xbf00f171	-0.5036841
105	0xbd838634	-0.064220816
106	0x3e253261	0.161325
107	0x3eb7e125	0.3591396
108	0xbcba83e6	-0.022767972
109	0x3e16fa97	0.1474403
110	0x3d5ea579	0.054357026
111	0xbe5bb66a	-0.21456304
112	0xbcef36f9	-0.029201018
113	0x3e83d6ec	0.2574991
114	0xbc232cc9	-0.009959408
115	0xbc067845	-0.008207385
116	0x3bc6ee03	0.0060708537
117	0xbf9a6af3	-1.2063888
118	0x3d1856bb	0.037192088
119	0x3efab444	0.48965657
120	0xbfa2bef1	-1.2714521
121	0xbea5a7dc	-0.3235463
122	0x3eb6495b	0.3560284
123	0x3e1019d7	0.14072357
124	0xbd73a495	-0.05948313
125	0xbdb02277	-0.08600324
126	0xbcdd55a7	-0.027018381
127	0xbe73f572	-0.23824099
128	0x3ed772be	0.4207973
129	0x3c01034f	0.007874324
130	0xbe1f9c13	-0.15586881
131	0xbdac89ce	-0.08424722
132	0x3e4195f1	0.18904854
133	0x3ec5d55a	0.38639337
134	0xbee96fcf	-0.45593116
135	0xbe013b2a	-0.12620226
136	0xbe8e2dc3	-0.27769288
137	0x3f08a927	0.53383106
138	0x3e11932b	0.14216296
139	0xbe1fec5c	-0.15617508
140	0xbf15722b	-0.5837733
141	0x3e82f5a3	0.2557803
142	0xbec73a92	-0.38911873
143	0x3d4d7c0d	0.050167132
144	0xbea09269	-0.31361702
145	0xbea1e83d	-0.31622496
146	0x3a4d2aa7	0.0007826485
147	0x3eb377bf	0.35052297
148	0x3dd235f4	0.10264197
149	0x3e1fd9b7	0.15610395
150	0x3eaa987d	0.33319464
151	0x3e5a03a8	0.21290457
152	0x3f46c8d5	0.77650195
153	0x3eafbfa1	0.3432589
154	0x3eeeb81c	0.4662484
155	0x3def095a	0.116717055
156	0xbdd32cb0	-0.10311258
157	0xbed59d2a	-0.4172147
158	0x3dacead6	0.08443229
159	0x3cbc0995	0.022953788
160	0xbeb3df80	-0.35131454
161	0xbf486915	-0.7828534
162	0xbe06f9af	-0.13181184
163	0xbf1effa1	-0.6210881
164	0x3eafcfa5	0.34338108
165	0xbf1d7d3c	-0.6151922
166	0x3df07c19	0.1174242
167	0xbc427cca	-0.011870572
168	0xbec5e591	-0.38651708
169	0xbc4cb9bf	-0.012495457
170	0x3e64bdf5	0.22338088
171	0x3ed0063c	0.40629756
172	0x3d835315	0.06412331
173	0xbd7ff795	-0.062491972
174	0x3e74577e	0.238615
175	0xbd77df78	-0.06051585
176	0x3eb04b39	0.3443239
177	0xbd2c868d	-0.042120505
178	0xbe18ff7d	-0.14941211
179	0xbec7728a	-0.38954574
180	0xbeacc54e	-0.33744282
181	0xbe08346e	-0.1330125
182	0x3e90da24	0.28291428
183	0x3f3f915e	0.7483119
184	0xbd82b4c3	-0.06382134
185	0x3e4c0ad6	0.19926009
186	0x3dcb481f	0.099258654
187	0xbd9ea81b	-0.07746907
188	0x3c5652d4	0.013081271
189	0x3ef635e6	0.48087996
190	0xbe7e5760	-0.24838018
191	0xbeca6d1b	-0.39536366
192	0xbd43cc2e	-0.047802143
193	0x3ea50385	0.32229248
194	0x3e97c1f8	0.29640174
195	0xbe1568df	-0.14590786
196	0x3e8cf500	0.2753067
197	0x3effa097	0.49927208
198	0xbf33515f	-0.7004604
199	0x3d71117a	0.058854558
200	0xbccfc450	-0.025362164
201	0xbdfba104	-0.12286571
202	0x3db38799	0.087660976
203	0xbe27b8dc	-0.16379112
204	0x3eaa3e23	0.33250532
205	0x3e2ccac6	0.16874227
206	0xbe8867c4	-0.26641667
207	0xbec04633	-0.37553558
208	0xbe441bb1	-0.19151188
209	0x3eb4916a	0.35267192
210	0xbe75c8cc	-0.24002379
211	0x3e709880	0.23495674
212	0xbe9ca857	-0.30597183
213	0x3ee6cfa6	0.45080298
214	0x3ee6ca2c	0.4507612
215	0xbd536be0	-0.05161655
216	0xbe9e775a	-0.30950433
217	0xbd969ba7	-0.07353907
218	0x3a2a4948	0.0006495905
219	0xbee097e5	-0.43865886
220	0xbf095a84	-0.5365374
221	0xbe8a1d62	-0.26975542
222	0x3e90fe53	0.28319034
223	0x3eea101b	0.45715412
224	0xbe64d8dc	-0.2234835
225	0xbe8868e4	-0.26642525
226	0xbe70ebf9	-0.23527516
227	0x3e1664f0	0.14686942
228	0x3eda2132	0.4260345
229	0x3f240087	0.64063305
230	0xbd52c25e	-0.051454894
231	0x3e9cad67	0.30601045
232	0xbeee1a1e	-0.465043
233	0xbed2ecf9	-0.4119642
234	0xbc0a55d4	-0.008443315
235	0xbd8ba6b7	-0.06818908
236	0x3de4f88a	0.111802176
237	0x3e6eedd1	0.23332907
238	0x3e9d5f0d	0.3073658
239	0x3e49eb8d	0.19718762
240	0xbe90d6df	-0.28288934
241	0x3d85455c	0.0650737
242	0xbec47e60	-0.38377666
243	0x3e27830a	0.16358581
244	0xbede3648	-0.43400788
245	0x3e62f8e0	0.22165251
246	0x3eb6beae	0.35692352
247	0x3e388b5f	0.18021916
248	0x3e7d7ce5	0.24754675
249	0xbdde4549	-0.10853059
250	0xbedba87a	-0.42901975
251	0xbdcb8812	-0.09938063
252	0xbda4e2aa	-0.08051045
253	0xbd02835a	-0.031863548
254	0xbe0d9707	-0.13827144
255	0xbefef88c	-0.49799

arith.constant8 f4 [1, 1, 64]
0	0x3e3da0d6	0.18518385
1	0xbd0a2204	-0.033723846
2	0x3f280ad7	0.6564154
3	0x3cb12e9f	0.021628676
4	0x3e77607e	0.24157903
5	0xbf2200f5	-0.6328271
6	0x3e3be87f	0.18350409
7	0x3cb0283e	0.021503564
8	0x3cd3f4cd	0.025873566
9	0x3ea7e8d0	0.3279481
10	0xbe6c2998	-0.23062742
11	0x3ea0b8f8	0.3139112
12	0x3e46afe0	0.19403028
13	0x3d50fbad	0.051021267
14	0xbdc4492a	-0.095842674
15	0x3f2118cb	0.62928456
16	0x3ea16d91	0.31528905
17	0xbd295d5a	-0.041348793
18	0xbf2c379a	-0.6727234
19	0x3da37af1	0.079824336
20	0x3f43afc7	0.7644009
21	0xbe5b2309	-0.21400084
22	0x3eb2b2cc	0.34902036
23	0x3d9b383c	0.07579085
24	0xbe9d31c3	-0.30702028
25	0xbe1abb1f	-0.15110444
26	0x3e881c71	0.265842
27	0x3e1db076	0.15399346
28	0x3e24adc1	0.16081907
29	0x3e672ba6	0.22575244
30	0x3d3db84e	0.046318345
31	0x3ec899af	0.3917975
32	0x3ed53c69	0.41647652
33	0xbbdd2194	-0.0067483876
34	0x3ee3b150	0.44471216
35	0xbf41aba5	-0.75652534
36	0x3f1eaee2	0.619856
37	0xbe179f55	-0.14806874
38	0xbdd684c2	-0.1047454
39	0xbe17451d	-0.14772458
40	0xbf819c1c	-1.0125766
41	0xbe61a83d	-0.22036834
42	0x3ed86a3c	0.4226855
43	0x3ec7fc3e	0.39059633
44	0x3e387f85	0.18017395
45	0x3e0b5043	0.13604836
46	0x3effdfc1	0.49975398
47	0x3ecf9277	0.4054143
48	0x3e8ad997	0.27119133
49	0x3d3f9816	0.0467759
50	0xbc94b7a0	-0.018153965
51	0x3dedd682	0.1161318
52	0x3d69f0f8	0.05711457
53	0x3ed96166	0.42457122
54	0x3e989265	0.2979919
55	0xbe9aece5	-0.3025886
56	0x3c05d502	0.008168461
57	0xbf4871f3	-0.7829887
58	0x3d843fc5	0.064574756
59	0x3c3234d2	0.010876851
60	0xbd904ec7	-0.070462756
61	0xbd11e4ff	-0.03561878
62	0x3e22d8c4	0.15903002
63	0x3eab0e34	0.33409274

arith.constant9 f4 [1, 1, 64]
0	0x3e0fce90	0.14043641
1	0xbf855569	-1.041669
2	0x3e860dc8	0.2618239
3	0xbe1a5bb9	-0.15074052
4	0xbef38880	-0.4756508
5	0x3b243469	0.0025055653
6	0xbdf6c7c8	-0.12049824
7	0x3d969db8	0.07354301
8	0xbe1ff1bd	-0.1561956
9	0xbc94dcd9	-0.018171715
10	0xbf0d8468	-0.5528016
11	0xbe21190b	-0.1573221
12	0xbe917e2a	-0.28416568
13	0x3e1d1e66	0.15343627
14	0x3e31cd3f	0.17363451
15	0xbef5697c	-0.4793204
16	0xbf3572c8	-0.7087827
17	0xbd7a9ffd	-0.061187733
18	0xbee3dabe	-0.44502825
19	0x3d408f9f	0.047011968
20	0xbdfe2c95	-0.12410847
21	0xbf616202	-0.88040173
22	0xbe432b3a	-0.19059458
23	0x3e35c432	0.17750624
24	0xbdbd7c00	-0.09252167
25	0xbe7fc927	-0.24979077
26	0xbf1c81f2	-0.6113578
27	0xbe7810eb	-0.24225204
28	0x3d050fce	0.032485776
29	0xbd69c338	-0.05707094
30	0xbe97d46b	-0.2965425
31	0xbf1dc3e0	-0.61627007
32	0xbea0dc2d	-0.3141798
33	0xbef89a96	-0.4855544
34	0xbf1ca809	-0.611939
35	0xbed2ce56	-0.41173047
36	0x3e28eb8c	0.16496104
37	0xbc33a62f	-0.010964914
38	0xbe9dec17	-0.30844185
39	0xbe5e418a	-0.21704689
40	0xbea8b214	-0.32948363
41	0xbd36e1b7	-0.044648852
42	0xbd1e86dd	-0.038702834
43	0x3db1f2b0	0.08688867
44	0x3dcdacb0	0.10042703
45	0x3e2ece00	0.1707077
46	0x3d66cb8c	0.05634646
47	0x3ddba8c7	0.10725551
48	0x3e05df44	0.1307345
49	0xbde33eb0	-0.11095941
50	0xbdec6fe9	-0.11544783
51	0xbcc1bdce	-0.023650076
52	0x3e464432	0.19361952
53	0xbf0f8839	-0.56067234
54	0xbd47ada8	-0.048749596
55	0xbe18e725	-0.14931925
56	0x3e790e8c	0.24321955
57	0xbdebaf89	-0.1150809
58	0x3cb009e6	0.021489095
59	0xbe606d82	-0.21916774
60	0xbedbc39f	-0.42922685
61	0x3e8d60e9	0.27613
62	0x3db73085	0.08944801
63	0xbd0b4331	-0.033999626

arith.constant10 f4 [21]
0	0xbf18498d	-0.5948723
1	0xbfc5785d	-1.5427357
2	0x3ef9101b	0.486451
3	0x3e83d12d	0.25745526
4	0xbde65c37	-0.11248057
5	0xbbc3f251	-0.005979814
6	0x3da9c157	0.0828883
7	0xbed4a24c	-0.41530073
8	0x3e93dcc8	0.2887938
9	0x3efb3e45	0.49070945
10	0x3e758c1a	0.23979226
11	0xbf221c21	-0.6332417
12	0x3e1f73dc	0.1557154
13	0x3ecc498c	0.39899862
14	0xbd47cd55	-0.048779804
15	0xbdc0aed3	-0.09408345
16	0xbdb7ba59	-0.0897109
17	0x3e1ded69	0.15422596
18	0x3e85fbd5	0.26168695
19	0xbe33b59e	-0.1754975
20	0xbd375756	-0.044761024

arith.constant11 f4 [64]
0	0x3ede28cd	0.43390504
1	0x3f1884f2	0.5957786
2	0x3e832a73	0.25618324
3	0x3eb0baad	0.34517422
4	0x3f49abbf	0.7877769
5	0x3f23b49c	0.63947463
6	0x3f837674	1.0270524
7	0x3f1b1286	0.6057514
8	0x3fe182b1	1.7618009
9	0x3ead0a2b	0.3379682
10	0x3ea2b27d	0.317768
11	0x3d368455	0.044559795
12	0x3f193596	0.5984739
13	0xbe98a785	-0.29815307
14	0x3f2c8a7e	0.6739882
15	0x3fa3b151	1.2788488
16	0x3ee20698	0.44145656
17	0xbea11eff	-0.3146896
18	0x3f589afb	0.8461148
19	0x3f520305	0.8203586
20	0x3f3ed383	0.7454149
21	0xbf140fb9	-0.5783649
22	0x3f5ec8c7	0.8702511
23	0x3c5571ce	0.013027621
24	0x3ea58087	0.3232462
25	0x3fa3bd4b	1.2792143
26	0x3f86c1cc	1.0527892
27	0xbe871a5e	-0.26387304
28	0x3f1c3317	0.61015457
29	0x3e8080f3	0.2509838
30	0x3e98a6ad	0.29814664
31	0x3d058366	0.032596014
32	0x3ee93c9b	0.4555405
33	0x3f8446e9	1.033414
34	0x3f11a6f5	0.5689538
35	0xbd81e5ec	-0.06342682
36	0x3f2a30a0	0.66480446
37	0x3f37b41e	0.7175921
38	0x3f225491	0.6341029
39	0x3f41447c	0.75495124
40	0x3f245983	0.64199084
41	0x3dc61b9a	0.09673233
42	0xbce34279	-0.027741658
43	0x3ca82b61	0.020528497
44	0x3f836ca7	1.0267533
45	0x3e07a5d7	0.13246857
46	0x3e1f8a44	0.15580088
47	0x3f58cded	0.8468922
48	0x3f51d9b1	0.81972796
49	0x3f18e68d	0.5972679
50	0x3f53d074	0.8273995
51	0x3e0a6dbe	0.13518426
52	0x3ed67dcb	0.41892847
53	0xbcf68f04	-0.030097492
54	0x3f051392	0.51982987
55	0x3f393373	0.7234413
56	0x3e901b42	0.28145796
57	0xbe16ba0f	-0.14719413
58	0x3f211ba7	0.6293282
59	0x3e664f15	0.22491105
60	0x3e82d936	0.25556344
61	0x3f1a9f19	0.60399014
62	0x3e9c0b98	0.30477595
63	0x3f942656	1.1574199

arith.constant12 f4 [128]
0	0x3e889489	0.26675823
1	0x3e7b0e0a	0.24517074
2	0xbeedc96a	-0.4644273
3	0x3d970292	0.07373537
4	0x3d2ef559	0.04271445
5	0xbeb70e09	-0.35752895
6	0x3d96d797	0.07365339
7	0xbea0ee77	-0.31431934
8	0x3c783498	0.015149258
9	0xbe379595	-0.17928155
10	0xbe4a6848	-0.19766343
11	0xbe23c74d	-0.15993996
12	0xbe19006b	-0.14941566
13	0xbe140542	-0.1445513
14	0xbe37dc51	-0.17955138
15	0x3e46a598	0.19399107
16	0x3e2de42f	0.16981576
17	0xbd274072	-0.040832944
18	0xbe8f31d2	-0.27967697
19	0x3e98c5df	0.29838464
20	0x3e15e644	0.1463862
21	0xbe00fc23	-0.12596183
22	0x3ea29ec3	0.3176175
23	0x3e8dc475	0.27688947
24	0x3d9c6419	0.076362796
25	0x3eb91b50	0.3615365
26	0x3dec4556	0.11536662
27	0xbe1d1a5d	-0.15342088
28	0x3e2268d0	0.15860295
29	0x3ecc380e	0.39886516
30	0x3e6bf704	0.23043448
31	0x3db8f3f9	0.09030909
32	0xbead86cf	-0.33891913
33	0xbe934299	-0.28761747
34	0x3d532292	0.05154664
35	0xbe8c4e23	-0.27403364
36	0xbe1e80ca	-0.15478817
37	0x3ebd7719	0.37004927
38	0x3e67b319	0.22626914
39	0xbe90b34d	-0.28261796
40	0xbe403655	-0.18770726
41	0xbec79fd0	-0.38989115
42	0x3e87b9fe	0.26509088
43	0xbda6e547	-0.081492
44	0xbe6b6f15	-0.22991593
45	0x3e1ad6ea	0.15121046
46	0x3e15cff0	0.14630103
47	0x3e940c02	0.2891541
48	0x3e0611ee	0.13092777
49	0x3e8609f3	0.26179466
50	0xbdf3cac7	-0.11903911
51	0x3e236206	0.15955362
52	0xbeef66d7	-0.46758148
53	0x3e9e3773	0.3090168
54	0x3de92b25	0.11385182
55	0xbdc65c54	-0.09685579
56	0x3d65c882	0.056099422
57	0x3e3ef29e	0.18647239
58	0xbe158604	-0.14601904
59	0xbd8790f5	-0.06619445
60	0x3ee598f8	0.44843268
61	0x3e20ab02	0.15690234
62	0xbe800d43	-0.25010118
63	0xbebe639a	-0.37185365
64	0x3e244b81	0.16044427
65	0xbd3652ee	-0.04451268
66	0x3e777aa1	0.24167873
67	0x3c472f30	0.0121572465
68	0x3e975992	0.29560524
69	0xbd87fb31	-0.06639708
70	0x3d44c496	0.04803904
71	0x3d666fac	0.056258842
72	0xbee683ba	-0.45022374
73	0xbe1ce058	-0.15319955
74	0xbe5beb7a	-0.21476546
75	0x3daba728	0.08381492
76	0x3f17898d	0.5919426
77	0x3e9047b6	0.2817971
78	0x3edaf0fa	0.42761976
79	0xbeb1cfec	-0.34728944
80	0x3dcc48f3	0.099748515
81	0xbebc2c60	-0.36752605
82	0x3dc79253	0.09744706
83	0xbe720ec3	-0.23638444
84	0x3e3459eb	0.17612426
85	0x3dd86127	0.10565405
86	0x3e568a18	0.20951116
87	0xbf23f045	-0.640385
88	0x3ce250d7	0.027626438
89	0xbdf67321	-0.12033678
90	0x3e975c29	0.295625
91	0xbe3f3c86	-0.18675432
92	0x3ee8aad8	0.45442843
93	0x3ea94d11	0.3306661
94	0x3e8033ac	0.25039423
95	0xbdd6388f	-0.104600064
96	0x3e480aee	0.1953542
97	0x3da9c755	0.08289973
98	0x3dd6e884	0.104935676
99	0xbe80b62d	-0.2513899
100	0x3e9820bd	0.29712477
101	0xbe97fc6d	-0.29684773
102	0xbec02028	-0.37524533
103	0xbe997898	-0.29974818
104	0xbe52b020	-0.20574999
105	0xbe226d5a	-0.15862027
106	0x3cad4933	0.021153068
107	0xbe330afd	-0.1748466
108	0x3e32ce28	0.17461455
109	0x3e276f5f	0.16351078
110	0xbeb82fef	-0.3597407
111	0xbde64195	-0.112429775
112	0x3ea79b80	0.32735825
113	0x3ded7b65	0.11595801
114	0xbd9143c3	-0.07093003
115	0xbe25f959	-0.162084
116	0xbe304e7b	-0.17217438
117	0x3e079b71	0.1324289
118	0xbe044ef1	-0.12920739
119	0x3e150f47	0.14556609
120	0x3ddf9da5	0.1091874
121	0x3d69336e	0.056933813
122	0x3e38b0ac	0.18036145
123	0xbd2e721a	-0.042589284
124	0xbc57a5aa	-0.013162056
125	0xbd70098d	-0.05860286
126	0x3e1bb8a6	0.15207157
127	0xbe7973b5	-0.24360545
