Models/GeneratedTFLiteFilesAndOGModels/conv_mlp_model.tflite (tflite, 133168 bytes, 11 tensors)

arith.constant2 f4 [64, 1, 3, 64]
000000 a5 75 f4 bd 94 4e 30 be d2 0c 42 be 50 7a b6 3e
       -0.119365014 -0.17217475 -0.18950203 0.35640192
000010 7c ec 99 bf 1a f3 a8 bd 9a c9 ab 3c da e7 0b bf
       -1.2025294 -0.08249493 0.020970155 -0.5465065
000020 7a f5 f9 be 64 b1 c8 3e 0e b6 00 be 4f 32 7d be
       -0.48820096 0.39197838 -0.12569448 -0.24726222
000030 82 d9 0b 3f eb 3c 29 3e 00 61 8c bf 97 61 4f be
       0.54628766 0.16527145 -1.0967102 -0.20252071
000040 fe 04 16 bf 40 d5 f2 3b 23 43 10 3e c6 33 eb 3d
       -0.5860137 0.0074106753 0.1408811 0.114844844
000050 fa 69 91 be d2 8d 5c bc 6d 68 29 3d 7c 05 2a bf
       -0.28401166 -0.013461547 0.041359354 -0.6641462
000060 63 44 85 3e fb 97 b4 be f6 a4 78 bf 67 6c 53 be
       0.26028737 -0.35272202 -0.9712671 -0.20646821
000070 e9 10 7b be 41 ff dc bd d9 a8 a5 3e 67 f6 56 3d
       -0.2451817 -0.10790873 0.32355383 0.05248108
000080 12 e6 d4 bd 92 0f 77 3e 70 6a f9 3d 82 0c 5a 3d
       -0.10395445 0.24127033 0.121785045 0.053234585
000090 98 81 07 3f 67 ee b9 3d 18 f2 2d 3f 5c 4e f9 be
       0.5293212 0.09078675 0.6794753 -0.48692596
0000a0 c4 57 74 3e 55 ec d1 3e cb 59 ce be a3 fb ff 3e
       0.23861605 0.4100062 -0.40302882 0.4999667
0000b0 f5 13 80 3c 23 44 39 3c 41 d0 d1 be 44 33 e6 3e
       0.015634516 0.011307749 -0.40979198 0.44960988
0000c0 be 67 0b bf d0 20 2c bf a1 7a c6 be 9e 15 05 3e
       -0.54455173 -0.6723757 -0.38765433 0.12996528
0000d0 f8 c1 3b bf 93 fd 42 be 37 0a dc 3d 4f af ba bd
       -0.7334285 -0.19042043 0.10744136 -0.09115469
0000e0 14 e9 6f bf 7d a8 67 be 1c bf 64 be b9 94 65 be
       -0.93715024 -0.22622867 -0.22338527 -0.22420014
0000f0 66 2f 32 3d ca dc 89 be 21 6f a3 be bd 80 4f be
       0.043502234 -0.2692626 -0.31920722 -0.20263954
000100 73 f1 64 be 27 76 96 be b2 bd 47 bd 6a 1c 9a 3e
       -0.2235773 -0.29387018 -0.048764892 0.30099803
000110 93 13 99 bf 9b d9 0d be f8 d0 03 be 2c 23 02 bf
       -1.1959099 -0.13852541 -0.12872684 -0.5083492
000120 75 29 4c bf 55 4e d2 3d 5f 7f 06 be fa aa da bd
       -0.7975076 0.10268847 -0.13134526 -0.106771424
000130 db f9 2a 3f fd b3 d8 3e 2e 9c 9f bf f9 6a 66 be
       0.667875 0.4232482 -1.2469537 -0.22501744
000140 e3 5c 0e bf 82 22 b9 3d d0 9d 32 3e 8d ff 27 3d
       -0.55610484 0.09039785 0.17443013 0.041015197
000150 86 6e 6d be 27 c0 e0 3d 32 ca 50 3d f3 03 80 bf
       -0.23186693 0.1097415 0.05097408 -1.0001205
000160 56 19 21 3e e1 ba 81 bf 64 d2 4b bf e8 43 80 be
       0.15732321 -1.0135156 -0.79617906 -0.25051808
000170 e9 ce 85 be 79 95 91 be e6 1c 1d 3e be 5f 80 bd
       -0.26134422 -0.2843435 0.15343055 -0.062682614
000180 48 0c 66 be 27 9f 59 3e 7a 9f 90 3e 3c 99 fa 3d
       -0.22465622 0.21252118 0.2824667 0.122362584
000190 6d 16 e7 3e 46 02 00 3e fa 4f 2d 3f bc 32 53 bf
       0.45134297 0.12500867 0.6770016 -0.8249929
0001a0 37 a5 17 3e 8d d2 f3 3e b8 55 a2 be 96 3c 23 3f
       0.14809118 0.47621575 -0.31706023 0.6376432
0001b0 3f 7b 5f bc db ac 9c 3d d1 a5 61 bf 2e e5 89 3e
       -0.013640224 0.07650157 -0.8814364 0.26932663
0001c0 a0 57 61 be 72 03 d8 be 0d 60 41 be 99 64 55 3e
       -0.22006083 -0.4219013 -0.18884297 0.20839156
0001d0 4b ed 43 bf 3f b4 af bd a8 6e 78 3c db 26 94 be
       -0.76533955 -0.08579301 0.015163101 -0.28935894
0001e0 c2 f1 bb bf b3 4e 04 bd d9 9d 40 be cc 62 ec 3d
       -1.4683154 -0.032301616 -0.18810214 0.115422815
0001f0 c1 ed 03 3e 6e 41 64 be de a7 c4 be 8f e7 ff bd
       0.12883665 -0.22290584 -0.38409323 -0.12495338
000200 0c 40 dc bd 61 82 ed be 1f ce 59 be 40 d4 2b 3e
       -0.107544035 -0.46388534 -0.21270035 0.16780186
000210 22 be 8b bf 2f 81 e6 bd 13 5e 93 be 02 8e 91 be
       -1.0917399 -0.112551086 -0.2878271 -0.28428656
000220 79 86 3e bf a3 1e 26 3d dd 0b e9 bd 18 c1 b8 bd
       -0.7442394 0.04055656 -0.11379216 -0.09021205
000230 59 21 09 3f d3 9e bf 3e 11 b6 c6 bf c0 f0 d0 bd
       0.5356651 0.3742586 -1.5524312 -0.102021694
000240 58 3d cb be aa 3c 0f 3d 59 e4 23 3e 4a 59 7f 3d
       -0.3969524 0.034969963 0.16005076 0.062341012
000250 14 39 6e be 5d bc 02 3e 54 b7 82 3e 24 79 c1 bc
       -0.23263961 0.12767167 0.25530493 -0.023617335
000260 8d f5 cc 3e f6 fa 66 bf e7 ce a2 bf 5f 65 9e bd
       0.4003109 -0.90226686 -1.2719392 -0.07734179
000270 15 6e d9 3e eb 16 1f bf e2 41 e8 3c 80 e1 cc be
       0.42466798 -0.62144345 0.028351728 -0.40015793
000280 89 ba b5 be 79 31 53 3e 48 c4 39 3d 19 34 fa 3c
       -0.35493878 0.20624341 0.045353204 0.03054242
000290 f2 d5 34 3f fe f9 a1 3e e7 c2 0a 3f bb a5 6c bf
       0.70638955 0.3163604 0.5420365 -0.92440385
0002a0 cf 81 93 3e e7 fc 98 3e be a5 22 be 52 0b de 3e
       0.28809974 0.2988045 -0.15883538 0.43368012
0002b0 d1 1a 24 3f ab 07 9f 3e 8e 0f 94 bf 2b ad 3d 3e
       0.6410342 0.31060538 -1.1567247 0.1852309
0002c0 1f 31 88 be 44 58 9a be 82 f6 51 be a5 b7 5b 3e
       -0.26599976 -0.30145466 -0.20504192 0.21456774
0002d0 3c e9 0e bf 75 9e c7 bd 73 59 a4 bd b9 30 a0 be
       -0.5582464 -0.0974702 -0.080248736 -0.31287172
0002e0 a7 56 db be c1 dd d8 3d 98 a9 91 bd d8 a5 a8 3e
       -0.42839548 0.10589171 -0.071124256 0.3293903
0002f0 3f b7 85 3e 82 d1 f9 bc 15 d1 1e bf b7 95 11 be
       0.26116368 -0.030495409 -0.62037784 -0.14217268
000300 2f 3d 2f be 87 5e 02 bf 21 6e 2f be d6 6e c6 3e
       -0.17113183 -0.5092549 -0.17131855 0.38756436
000310 c9 31 16 be 18 32 42 bf 54 b6 98 be 55 4e f9 3e
       -0.14667429 -0.75857687 -0.29826605 0.48692575
000320 4c e1 ec be ed b5 31 3e 3d d5 9a bb a7 15 df 3e
       -0.46265638 0.17354555 -0.004725127 0.43571207
000330 a1 94 00 3e 0f e9 94 be a0 8e 88 3d 3d 24 22 be
       0.12556697 -0.2908406 0.066678286 -0.15834136
000340 94 2c 6a be a8 2d ad be 4d a5 5e 3e 6d 25 17 3e
       -0.22868568 -0.33823895 0.21742745 0.1476037
000350 1b 99 16 3f cb ad cf bd b3 1c 34 bd 1a 93 eb 3e
       0.5882737 -0.1014057 -0.043972682 0.46010667
000360 28 eb 2b bf e7 42 7d bd 68 a2 7d bf 0f 50 d5 3e
       -0.67155695 -0.06183138 -0.9907594 0.41662642
000370 b2 c7 0e bf 4c dd 85 3e 5f 85 f9 be 9a b3 0d 3f
       -0.5577346 0.261454 -0.48734567 0.55352175
000380 bb b0 d7 3e 4b 2e 87 3e 00 54 8b be 74 59 40 be
       0.42127022 0.26402506 -0.27212524 -0.18784124
000390 b4 35 1a 3d 66 cd 1b be da 55 2e bf b7 d6 28 be
       0.03764887 -0.15215072 -0.6809975 -0.16488157
0003a0 a6 a0 70 3e 0d bd 66 bd b7 4a fd be a1 92 ec bd
       0.23498783 -0.056332637 -0.49471065 -0.11551405
0003b0 4f 12 58 3d 31 a8 5a be aa f7 9d bf 69 61 77 3e
       0.052751835 -0.21353222 -1.2341206 0.24158253
0003c0 4f 58 d0 be e8 0a 88 bd 54 7f 09 bf a8 28 04 bc
       -0.40692374 -0.06642705 -0.5370991 -0.008066334
0003d0 50 35 d6 be 32 90 ec bf 27 91 00 3e d5 01 4a 3e
       -0.4183755 -1.8481505 0.12555371 0.19727261
0003e0 f1 bd 0c 3f f9 18 bc 3e 0f ac 39 be 7e 11 ba be
       0.5497733 0.36737803 -0.18132041 -0.3634147
0003f0 b3 fe ac 3c c7 76 19 bf 46 8f 23 bf 29 0b 21 be
       0.021117544 -0.59946865 -0.6389049 -0.15726914

arith.constant3 f4 [64, 1, 3, 9]
000000 f4 67 d9 bd 06 37 0c bf 98 cc b3 be 2d 86 b0 3e
       -0.106155306 -0.5477146 -0.3511703 0.34477368
000010 c0 70 1b 3d c2 8c 56 bf a1 e8 ba bd dd 19 00 be
       0.037949324 -0.8380853 -0.09126402 -0.12509866
000020 11 ae a6 3d 92 a7 47 be 34 ff df be 58 94 a6 be
       0.08138669 -0.19497517 -0.43749392 -0.32535052
000030 48 9f 91 3d 10 27 1d 3e 36 96 47 bc 6b a8 d1 bd
       0.071104586 0.15346932 -0.012181809 -0.10237201
000040 44 6f 02 be 68 17 a3 bd 79 e7 70 be 31 ac ff be
       -0.12737757 -0.07963449 -0.235258 -0.4993606
000050 a6 88 d1 be 36 b0 86 be 13 dd 2b 3d aa 7e 6d 3f
       -0.40924567 -0.26306313 0.04195888 0.927714
000060 13 59 2b be 60 73 2a bd ea a9 a3 bb e7 03 ce bc
       -0.16733198 -0.041613936 -0.0049946206 -0.025148345
000070 d0 98 18 3d 3d 94 ea 3e c8 f2 ee 3d 3b 14 53 3e
       0.03725511 0.45816222 0.116674006 0.20613186
000080 38 c3 a9 be da da e6 bc 5e 30 13 3f 12 5a 7c 3d
       -0.33156753 -0.028180528 0.5749568 0.061609335
000090 da 43 dd bc 9d dd 75 be 94 73 0d 3e 86 27 a5 bd
       -0.027009893 -0.2401032 0.13813621 -0.08064179
0000a0 fa 86 82 3e c5 bb 64 be 8f 6c 1a be af 07 1d 3f
       0.25493604 -0.22337253 -0.15080474 0.6133985
0000b0 8a a5 08 be 27 dc b3 3e 41 02 3b bf fc c2 10 3e
       -0.13344398 0.351289 -0.73050314 0.1413688
0000c0 f7 99 3e be 67 19 e3 3e cd 6d 1c 3e 14 d0 c3 bd
       -0.1861342 0.44355318 0.1527626 -0.09561172
0000d0 fc 9c 21 3f bc b1 a0 bd 65 7a 2c be 81 8f b3 be
       0.63130164 -0.078464 -0.16843565 -0.35070422
0000e0 ed 92 d0 bc a5 4f e9 3d f4 6d 95 3f 62 c0 9b be
       -0.025460685 0.11392144 1.167418 -0.30420214
0000f0 a7 09 43 bd 1e 6c a1 3c be 00 a8 3d 23 f6 e6 bd
       -0.047616627 0.019704875 0.082032666 -0.112774156
000100 9d 59 42 3d b4 7a b4 bd b3 de 44 3e af 97 83 3f
       0.047448743 -0.08812466 0.19225578 1.0280665
000110 9b 1f 32 bf fd 91 20 3e cb b0 50 bc 0c 3a 64 3c
       -0.69579476 0.1568069 -0.012737463 0.013929855
000120 4c 2e 06 3e 20 29 ef 3d 4c 9e 04 3e 4f c3 24 3c
       0.13103598 0.11677766 0.1295101 0.010056331
000130 46 cc a1 3f f3 43 5c bf 82 35 7c bd 4a b5 17 be
       1.2640464 -0.8604118 -0.061574467 -0.1481525
000140 07 0e be bd 5c 03 32 be 2f b5 25 be 99 17 34 3e
       -0.09280019 -0.17384094 -0.16182397 0.17587127
000150 d5 35 a4 3f 72 c5 c9 be a8 27 47 3f 33 58 00 be
       1.2828928 -0.3940845 0.77794886 -0.12533645
000160 84 1a d0 bc 53 c7 05 3d 21 e3 ae bd 25 1d 88 be
       -0.025403269 0.032660794 -0.08539415 -0.26584736
000170 15 22 a2 3d 9e e6 35 3f 66 dc a6 be 8c 57 1e 3f
       0.07916657 0.7105502 -0.32590026 0.61852336
000180 9a 29 bd 3d 3c 5c a7 3c 60 bf a5 3d 81 fc 33 be
       0.092364505 0.020429723 0.080931425 -0.17576791
000190 6a 29 5e be 71 d2 c8 3d b6 b2 f6 3e 13 ce 5b be
       -0.21695486 0.098057635 0.4818322 -0.2146533
0001a0 cf e8 43 3f 68 d7 91 3d f2 ff bb 3c a5 ef 28 3d
       0.7652711 0.071211636 0.022949193 0.041244168
0001b0 32 d8 f0 3d ee 03 11 bf e5 b4 3b 3e 2b 6a f5 3e
       0.11759986 -0.5664662 0.18330725 0.47932562
0001c0 44 e9 c5 3e 64 64 ef be ff 20 4d 3e d6 2f 3f bc
       0.3865453 -0.4675628 0.20032118 -0.01166912
0001d0 a1 5c a2 3d 49 fb a1 bd a3 68 0e bf 28 85 99 3e
       0.07927824 -0.07909257 -0.5562841 0.29984403
0001e0 ba 9d ec 3d 33 67 f3 3e 9c d5 b0 3e 36 55 97 3e
       0.115535215 0.47539672 0.3453797 0.29557198
0001f0 f5 b8 7e bd 2e b9 c4 bd 0e 04 aa bc 98 3e 65 bf
       -0.062188108 -0.09605633 -0.020753887 -0.89548635
000200 14 69 92 3e 8e 98 c7 be cf 5e 34 3e 35 2a 3c 3f
       0.28595793 -0.38983577 0.17614292 0.735019
000210 f6 b0 ff bb e8 c5 6a bd 99 59 d8 bc 90 65 90 bd
       -0.007803078 -0.057317644 -0.026409911 -0.070506215
000220 74 68 ed 3d 07 fe 80 bd cc 85 33 be 14 af d1 be
       0.115921885 -0.06298452 -0.17531508 -0.40953887
000230 39 2f 46 be 21 de 56 3b 8c 24 4d 3e 4c 07 8b bd
       -0.19353952 0.0032786208 0.20033473 -0.06788501
000240 c3 46 86 be ac 4c 54 bd fe 38 8b bd 47 83 32 3d
       -0.26225862 -0.051830932 -0.0679798 0.043582227
000250 4e b0 f6 3b 4a 24 3c be 21 d4 c0 bc 91 84 0b 3e
       0.0075283414 -0.18373218 -0.023538651 0.13624789
000260 b7 5a 48 be 04 91 86 be 25 b3 2d 3e 0a 8e bb 3d
       -0.19565855 -0.26282513 0.1696287 0.09157951
000270 cd 9a 7f 3e e4 13 a5 3e da 58 82 3e 97 54 f5 3d
       0.24961396 0.32241738 0.25458413 0.11979025
000280 15 d4 6b 3e 53 75 58 be 17 ac 53 3d 78 34 2b be
       0.23030122 -0.21138506 0.05167779 -0.16719234
000290 9c ea d8 3d f5 28 3e 3e 19 df 6d be 10 59 2d 3f
       0.10591623 0.18570311 -0.23229636 0.67714024
0002a0 ca 31 86 3e 36 56 b6 3e 32 4b 86 3e 26 df 75 3e
       0.2620986 0.3561265 0.26229244 0.24010906
0002b0 88 9a 8c be 36 4b 89 3e 98 e0 83 3d ec cf 5d be
       -0.27461648 0.26815194 0.06439322 -0.21661347
0002c0 44 36 39 3e 78 68 37 3d 55 58 9a 3e 5f 95 60 3e
       0.18087107 0.044777364 0.30145517 0.2193198
0002d0 70 15 84 3e d0 cc c9 be 57 04 bf 3e 82 fe a9 be
       0.25797606 -0.39414072 0.37308 -0.33201987
0002e0 9f bb 32 3c ca 6d a0 be 89 7d 68 3e de ec ad 3e
       0.01090899 -0.31333762 0.22704138 0.33969778
0002f0 c2 97 a3 3e c5 99 b6 be 39 fb 85 bf 1c 5b 65 be
       0.3195172 -0.35664192 -1.0467292 -0.22398037
000300 5c 9c 26 3f 66 1a 3d bd d1 95 1d 3e 52 39 56 3e
       0.65082335 -0.046167754 0.15389182 0.20920303
000310 9d d9 fd bd 90 0a 3c bd 30 78 12 be f0 98 a2 bf
       -0.12395022 -0.04590851 -0.1430366 -1.2702923
000320 13 e1 c0 bd 84 90 81 be c2 bd 31 3e a4 90 78 bd
       -0.094179295 -0.2530557 0.17357543 -0.060684815
000330 9d 63 a0 3e 30 7b 4c be 18 fe ff bc 72 5d aa be
       0.31326 -0.19968867 -0.031249091 -0.33274418
000340 7c b8 5b bf 82 4f 9c 3e 22 e6 eb be a6 ae 36 3d
       -0.85828376 0.3052941 -0.46074015 0.04460015
000350 62 d4 09 3c 7e f4 bb 3e bf 57 0d be 5a 53 f8 3d
       0.008412452 0.3670997 -0.13803004 0.12125273
000360 4c 58 95 be 27 41 86 3e ef d3 7b be 05 1c b7 3e
       -0.29168928 0.26221582 -0.24592565 0.35763565
000370 a2 ab 19 bf d9 79 e6 be d7 fc 95 3e 30 46 9a be
       -0.60027516 -0.45014837 0.29294464 -0.30131674
000380 d3 f2 9d 3e 8c bd cb be c1 1b ba bb c0 06 a6 bd
       0.30849323 -0.3979305 -0.005679578 -0.08106756
000390 9c ad c1 bb e5 ac e4 be 66 ad 5c be ee c1 37 3e
       -0.0059105884 -0.44663158 -0.21550521 0.17945072
0003a0 d5 59 38 be c6 eb a8 3e d4 ed 8f be 87 8d 9e 3e
       -0.18003018 0.3299238 -0.28111136 0.30967352
0003b0 84 04 20 3e 47 70 0b bf 4e 6a d3 be 80 3b 0a bf
       0.15626723 -0.54468197 -0.41292042 -0.5399704
0003c0 67 37 13 3d 26 04 37 be 56 6d 8c 3d 62 24 93 3d
       0.035941508 -0.17872676 0.06856792 0.07184674
0003d0 2a f6 bb 3e 46 4f 39 be de 46 21 be d3 dc 3a 3f
       0.36711246 -0.18096647 -0.1574969 0.729932
0003e0 b3 96 9e 3f be 05 50 bd a8 b5 7b bc bb 7d ce bd
       1.238974 -0.050786726 -0.015363134 -0.10082575
0003f0 2d 71 00 be 45 f5 0d bd e9 65 cb bb 5c aa 4e 3e
       -0.12543173 -0.034657735 -0.006207217 0.20182174

arith.constant4 f4 [64]
000000 00 00 00 00 00 00 00 00 00 00 00 00 00 00 00 00
       0.0 0.0 0.0 0.0
000010 00 00 00 00 00 00 00 00 00 00 00 00 00 00 00 00
       0.0 0.0 0.0 0.0
000020 00 00 00 00 00 00 00 00 00 00 00 00 00 00 00 00
       0.0 0.0 0.0 0.0
000030 00 00 00 00 00 00 00 00 00 00 00 00 00 00 00 00
       0.0 0.0 0.0 0.0
000040 00 00 00 00 00 00 00 00 00 00 00 00 00 00 00 00
       0.0 0.0 0.0 0.0
000050 00 00 00 00 00 00 00 00 00 00 00 00 00 00 00 00
       0.0 0.0 0.0 0.0
000060 00 00 00 00 00 00 00 00 00 00 00 00 00 00 00 00
       0.0 0.0 0.0 0.0
000070 00 00 00 00 00 00 00 00 00 00 00 00 00 00 00 00
       0.0 0.0 0.0 0.0
000080 00 00 00 00 00 00 00 00 00 00 00 00 00 00 00 00
       0.0 0.0 0.0 0.0
000090 00 00 00 00 00 00 00 00 00 00 00 00 00 00 00 00
       0.0 0.0 0.0 0.0
0000a0 00 00 00 00 00 00 00 00 00 00 00 00 00 00 00 00
       0.0 0.0 0.0 0.0
0000b0 00 00 00 00 00 00 00 00 00 00 00 00 00 00 00 00
       0.0 0.0 0.0 0.0
0000c0 00 00 00 00 00 00 00 00 00 00 00 00 00 00 00 00
       0.0 0.0 0.0 0.0
0000d0 00 00 00 00 00 00 00 00 00 00 00 00 00 00 00 00
       0.0 0.0 0.0 0.0
0000e0 00 00 00 00 00 00 00 00 00 00 00 00 00 00 00 00
       0.0 0.0 0.0 0.0
0000f0 00 00 00 00 00 00 00 00 00 00 00 00 00 00 00 00
       0.0 0.0 0.0 0.0

arith.constant5 f4 [21, 64]
000000 1d b0 1e 3e be 77 d9 3d 31 7b 3b bf af 87 4c 3e
       0.1549687 0.10618542 -0.7323485 0.19973634
000010 de 79 8d 3e e3 53 fa be 71 b9 f1 3d 18 6a 5a 3e
       0.2763204 -0.48892125 0.11802948 0.21329534
000020 9c 78 80 be 0b a8 d6 bc 71 f2 0f 3e 20 29 55 3e
       -0.25092018 -0.026203176 0.14057328 0.20816469
000030 9b 42 fe bc a8 9a 97 be a9 e8 25 bd 00 1b b2 ba
       -0.03103762 -0.2961018 -0.040505085 -0.0013588369
000040 ba a4 07 be 5e a3 90 be 5e 54 16 bf d6 96 9e be
       -0.13246432 -0.2824964 -0.58722484 -0.30974454
000050 84 60 33 bb bc 0e 81 be 19 ea e0 bc 04 cd af bd
       -0.002737076 -0.25206554 -0.027455376 -0.085840255
000060 03 a0 27 3e ee 15 55 be 0c 7e 0c bf 0c e5 9a be
       0.16369633 -0.20809147 -0.5487983 -0.30252874
000070 70 64 8a be 72 81 0b 3e e7 e8 50 bf 1f cd da 3c
       -0.27029753 0.13623598 -0.8160538 0.026709137
000080 31 b9 0a bf 80 1b ad be 8b df a6 3e 09 4e e3 bd
       -0.5418883 -0.33810043 0.32592425 -0.110988684
000090 f3 ed ee 3d a8 09 6b be 91 d5 c8 be 90 e1 91 be
       0.11666479 -0.22952902 -0.39225438 -0.28492403
0000a0 eb dc ab bd c8 07 c4 3d 9e 64 83 be f5 93 1d bc
       -0.08391746 0.09571797 -0.25662702 -0.009617795
0000b0 77 ad 06 be ad 47 2d 3e 14 84 d6 be 89 df 14 3e
       -0.13152109 0.16921873 -0.41897643 0.14538397
0000c0 26 8b e5 be 28 db 9a be 73 2c 0d 3d 3c d7 94 bd
       -0.44832724 -0.30245328 0.03446622 -0.07267615
0000d0 9c e5 c2 bb 3b 7c 0a bc ca 12 07 3e 01 40 2f be
       -0.0059477817 -0.00845247 0.13190761 -0.1711426
0000e0 d0 80 00 be c2 b5 55 3e f9 c5 9f 3d 5f b8 ad be
       -0.12549138 0.20870116 0.07801432 -0.33929726
0000f0 1d 5e 01 3e d9 ef 15 3e e1 c6 52 be e2 7d 25 be
       0.12633558 0.14642276 -0.20583679 -0.16161302
000100 aa fe 00 be 2e 3f 06 3c 18 9c 25 be cb 76 6c 3e
       -0.12597147 0.008193774 -0.16172826 0.23092191
000110 e3 2e 86 3e 16 c3 52 bf da 1a 39 bf 23 51 37 be
       0.26207647 -0.8232893 -0.723066 -0.17902045
000120 2c 1a 9a be 13 0b 80 be ed 1b 68 bd 3a cf 3f 3e
       -0.30098093 -0.2500845 -0.056667257 0.18731394
000130 c5 85 fe be 90 be d7 be ab 39 ac bc ab 81 9e be
       -0.49711433 -0.42137575 -0.021023592 -0.30958304
000140 bf fa f9 be c1 8c 3b bd f1 5f a8 3e 31 7e 3d bf
       -0.48824117 -0.04578853 0.32885697 -0.7402068
000150 3c 80 08 bf 2d ea 17 be ab ca 00 bf e7 45 58 be
       -0.5332067 -0.14835425 -0.50309247 -0.21120416
000160 f3 8e d2 3e 64 2f 8a be 17 62 6f bf 05 e2 fd be
       0.41124687 -0.2698928 -0.9350905 -0.49586502
000170 4b ca 86 bd 54 bd 50 bb 69 01 b6 bf c3 85 16 3e
       -0.06581553 -0.003185113 -1.421918 0.14699464
000180 f6 50 0c bf e2 4b 40 bf d7 f4 6c 3e e9 22 fd bd
       -0.54811037 -0.7511579 0.23140274 -0.12360174
000190 a9 19 7d bd 75 60 d3 3e e8 ce 83 be 74 6e 86 3c
       -0.06179205 0.41284528 -0.25743794 0.01641009
0001a0 d5 74 80 be c4 c0 12 be 0c c5 9b 3e 9a 2f e4 bd
       -0.25089136 -0.14331347 0.30423772 -0.11141892
0001b0 6a be 18 3e 85 6e ac bd 99 4f 95 bf e2 37 9d bc
       0.14916387 -0.084195174 -1.1664916 -0.019191686
0001c0 e8 a1 64 bf 5d c6 c1 bf 4a 84 70 3a 13 5a 65 3e
       -0.8930955 -1.5138661 0.0009174986 0.22397642
0001d0 cf 39 0b 3d 07 45 02 bf ab 21 29 bd f2 4f 81 be
       0.033990677 -0.5088658 -0.041291874 -0.25256306
0001e0 13 db 07 39 bd 3b e1 3d 3e 7d d7 bd 29 16 b5 be
       0.00012956215 0.10997722 -0.10521935 -0.3536847
0001f0 8b 8a b3 3d c1 56 23 3e 57 07 11 3c ad 88 ea 3a
       0.08766659 0.15951063 0.008851848 0.0017893516
000200 d8 77 05 be 36 a8 c4 be ce d4 d0 be 3c 78 ee 3d
       -0.13033998 -0.38409585 -0.40787357 0.11644027
000210 63 17 e7 3d 75 8d 77 be 57 77 be be d4 cc ce 3c
       0.112837575 -0.24175055 -0.37200424 0.025244154
000220 f0 3b 34 bd 34 be b2 3d 64 ed 3b 3d dd 7b 29 3e
       -0.044002473 0.087276846 0.04588069 0.16551156
000230 f7 e0 56 bf dd b2 de be 00 da 34 bf 49 bf 1f bf
       -0.8393702 -0.43495837 -0.7064514 -0.62401253
000240 9b b8 03 3d 8e 75 5a 3e ab 64 32 bf 99 6d 4d bf
       0.032158475 0.21333906 -0.6968486 -0.8024536
000250 66 30 44 bd e1 a5 bd be cd c0 39 be 42 fa 1d bf
       -0.04789772 -0.37040618 -0.18139954 -0.6170999
000260 a1 40 af 3d ae 45 45 3e 26 bb fe bd e7 dd 71 bf
       0.08557249 0.19264862 -0.124380395 -0.9447922
000270 86 4d c3 be a2 24 f4 3b 48 15 cd be a3 a5 0e be
       -0.38145083 0.007450656 -0.400553 -0.13930373
000280 ae 05 1e 3e eb cb e2 be 88 b2 8d be b9 69 40 be
       0.15431854 -0.44296202 -0.2767527 -0.1879033
000290 0f 82 c5 3d dd b3 2e 3e 98 37 60 be e4 d9 87 be
       0.09643947 0.170608 -0.21896207 -0.26533425
0002a0 8d 57 b1 bd af b1 05 bc 93 3b 55 bf 9a 08 db 3d
       -0.08659277 -0.008160039 -0.8329403 0.10695
0002b0 e6 15 c3 bd bf d8 01 bf e7 22 28 bf f5 32 90 3d
       -0.09525661 -0.50721353 -0.65678257 0.07040969
0002c0 94 60 b0 be c8 81 5c bf d2 a8 cd 3d 60 87 b2 3e
       -0.34448683 -0.8613553 0.100419655 0.34868908
0002d0 5f 17 27 3d a6 23 ce be bc b4 f5 be f9 63 af 3e
       0.040793773 -0.40261573 -0.47989452 0.3425596
0002e0 5c 28 ce 3d 63 3c 81 3e 1c ac 40 3e 64 18 12 bf
       0.10066292 0.25241384 0.18815655 -0.5706847
0002f0 17 81 9a 3e 71 dd 2c 3d 14 de dc be ac e9 a4 3d
       0.30176613 0.04220337 -0.43138182 0.08052382
000300 de f9 87 bd e2 7d 25 3d b9 37 28 bd 46 b5 cd be
       -0.06639455 0.040403254 -0.041068766 -0.40177363
000310 50 74 81 3e a0 f5 b9 3e 28 0c cb bd 2a fc 55 bf
       0.25284052 0.3632021 -0.09914428 -0.83587897
000320 9e 9e bf bd 87 16 7c 3d 69 96 19 bf 71 d3 d1 3e
       -0.09356426 0.06154492 -0.5999513 0.4098163
000330 7a 97 8b be 52 69 2a bf 89 40 cb bd 93 3f 93 bd
       -0.27264005 -0.66566956 -0.099244185 -0.0718986
000340 01 ae 69 3e 11 61 39 bd 4b 84 04 3f 9d 7c 8b be
       0.22820283 -0.045258585 0.51764363 -0.2724351
000350 7f b9 02 bf 44 64 86 bf b0 96 63 3e 4f 02 0e bf
       -0.51064295 -1.0499349 0.22225451 -0.5547227
000360 49 14 f0 3c 31 25 69 be da 0a 7c be 6d 9a 07 bf
       0.029306548 -0.22768094 -0.24613515 -0.5297001
000370 ba ad b1 bd 00 df 5f bf 1c d5 c5 be 5b fe 07 bf
       -0.08675714 -0.87449646 -0.38639152 -0.5312249
000380 91 7f 19 be b5 b6 81 be 8c cd aa 3d 14 17 a1 3d
       -0.14990069 -0.25334707 0.08339986 0.0786573
000390 05 c4 0c 3e 22 f4 5a be 02 62 97 be 2e 18 47 3e
       0.1374665 -0.21382192 -0.29566962 0.19442818
0003a0 23 d7 bd 3e 20 a8 50 3e 53 43 e8 3d ba 95 a1 bf
       0.370782 0.20376635 0.11340966 -1.2623818
0003b0 2c 6e 4d 3d bd fe ab be 62 a3 dc 3d 4b 6c ac be
       0.050153896 -0.33592787 0.1077335 -0.3367637
0003c0 23 4b 46 be 11 0a 13 bf 28 97 6f 3d c4 af 42 bf
       -0.193646 -0.57437235 0.058493763 -0.7604945
0003d0 88 2f d7 3c af 88 4b bd 08 fb 28 bf 8b 43 94 be
       0.026267782 -0.0496909 -0.66008043 -0.2895778
0003e0 39 17 9d be 90 79 f5 3c 83 79 00 3f e7 98 ec be
       -0.3068178 0.029965192 0.5018541 -0.46210405
0003f0 ae 25 25 bc e2 18 42 be 3c 67 d5 bc f5 e9 02 3c
       -0.010079784 -0.18954805 -0.026050203 0.00799035

arith.constant6 f4 [64, 128]
000000 9b 7f 65 bf 66 6b 95 bd b6 06 be bf 68 24 1b bd
       -0.89647835 -0.07295875 -1.4845798 -0.037876517
000010 f7 17 b3 bd c7 97 a8 be 60 ca 8f be c5 88 96 3d
       -0.08744805 -0.32928297 -0.28084087 0.073503055
000020 07 a3 5b bc a5 2c 4c bf 27 7e 46 3d d6 e3 cf bd
       -0.013405568 -0.7975562 0.048460152 -0.10150878
000030 22 d2 46 bd 25 41 08 3d 8a bc 12 3e bf 66 ab bc
       -0.048540242 0.03326525 0.14329734 -0.020923017
000040 36 50 90 bd 12 fd e7 3d cb 0e 50 bc 74 e7 98 3c
       -0.07046549 0.11327566 -0.012698839 0.018665053
000050 61 12 f3 bc fd 2d 10 c0 65 c9 8c 3e a8 5e c7 bd
       -0.02967185 -2.252807 0.27497402 -0.09734851
000060 3b 58 30 bf 96 9b ef be 80 ab 92 bf 70 c0 c8 bb
       -0.6888463 -0.4679839 -1.1458588 -0.006126456
000070 79 fc 7c bd 64 c2 a3 bd 34 2c 26 3e 8b 9c 9f 3d
       -0.061764214 -0.079960614 0.162278 0.0779353
000080 e3 e4 5a bd d4 8d d0 be a3 9e f0 3d 12 58 f3 bd
       -0.05344094 -0.40733206 0.117490076 -0.118820325
000090 b9 e8 b9 bf 8a 08 ab 3b 1d a2 da 3d 82 f2 d7 bd
       -1.4524146 0.005219524 0.10675452 -0.105443016
0000a0 c2 6d fe 3d fd e8 69 be 5f 39 82 3d b4 5b a9 bf
       0.124232784 -0.22842784 0.06358599 -1.323111
0000b0 f8 bc eb 3d b5 8e dc be 27 a2 74 3e be 91 12 3c
       0.11510652 -0.43077627 0.23889981 0.00894588
0000c0 45 a7 41 bf 0e df f2 3d ea a8 e9 bd b7 55 4e 3a
       -0.7564586 0.118589506 -0.11409171 0.0007871049
0000d0 07 37 00 3e f5 8e 42 3e 68 cb 2b 3e 3f 33 14 be
       0.12520991 0.18999846 0.16776812 -0.14472674
0000e0 5d 80 f7 bd 5d f1 51 3c 19 89 14 3d 2f 58 83 bd
       -0.1208503 0.012813893 0.03626356 -0.06413304
0000f0 4f ba 5e 3e b1 db 82 bd e2 55 35 3e ab 54 8e bf
       0.21750759 -0.06389559 0.17708543 -1.1119589
000100 58 af 10 3e 04 b3 8a bf 2f 0f 08 3e b8 8b 11 3e
       0.14129388 -1.0835881 0.13287042 0.14213455
000110 62 eb 84 3e 6c 25 64 3e 1e 3d c3 bf 06 4e cb bf
       0.25960833 0.222799 -1.5253026 -1.5883186
000120 87 e1 02 bd e7 3c 76 bd e9 8b 5b be 55 62 d8 3e
       -0.03195336 -0.060116675 -0.2144009 0.4226252
000130 b2 77 90 3e 3b 96 32 bc 3a b6 c1 3d f4 15 5b bf
       0.2821632 -0.010900076 0.09458585 -0.8558037
000140 41 4d ac 3d f5 25 67 3d 66 e9 81 bf 0b 6b 1b 3e
       0.084131725 0.056432683 -1.0149353 0.15177552
000150 e2 ef 0d bf a5 05 97 bd e1 82 b6 3c 7f cd 99 3c
       -0.5544416 -0.073741235 0.022279205 0.018774746
000160 c4 4a da be 3d fd f9 bd 1a 26 a4 ba 36 5d 82 bf
       -0.42635167 -0.122065045 -0.0012523562 -1.0184696
000170 b1 6b 73 bc 5e f6 44 3e 77 7a 1a 3e 5c 55 72 be
       -0.014857219 0.19234607 0.15085779 -0.23665375
000180 19 15 4c bd fe 6e 1a bf 31 27 5b 3e 8a b4 df be
       -0.049824808 -0.6032561 0.21401669 -0.43692428
000190 d1 41 d9 be 03 24 9d 3d da 7b 9f be 58 f6 f1 3d
       -0.42433026 0.07672884 -0.3114918 0.118145645
0001a0 3a a8 7b 3d 25 2c 9e 3e 5a f4 1a bd aa 50 32 bc
       0.06143973 0.30893055 -0.037830688 -0.01088349
0001b0 03 f7 97 3d ee bf 68 3d 8b 2d 57 be c0 9e ac 3d
       0.074201606 0.056823663 -0.21013467 0.08428717
0001c0 5a 2b c9 bf bc d3 70 3e 98 2f c9 be 93 d4 38 be
       -1.5716355 0.2351827 -0.39294124 -0.1804984
0001d0 03 35 c0 bc 99 22 8e 3d d6 4b a9 bb c7 61 d8 3b
       -0.023462778 0.06940193 -0.005166511 0.006603453
0001e0 37 a8 3c 3e 3e af 02 3c 87 72 1e bd 3c 94 41 be
       0.18423544 0.007976351 -0.03868344 -0.18904203
0001f0 cc 43 26 bf 49 75 ba 3c 86 f3 aa bf 64 68 b7 3e
       -0.649472 0.022761004 -1.3355567 0.3582183
000200 ec f4 d4 be f3 7b fc be aa 93 ae 3c 6c 2e ef bd
       -0.4159311 -0.49313316 0.021310646 -0.11678776
000210 ad 43 b1 be a3 c1 c1 3d 52 bb 77 be 2f 5b 35 3e
       -0.34621945 0.094607614 -0.24192551 0.17710565
000220 4d 9e 0b be 34 93 88 bf ff 2c af 3d fc 4c 82 bd
       -0.13634606 -1.0669923 0.08553504 -0.0636234
000230 2f e6 76 3e 38 b9 af 3e 58 27 aa 3d 7e 8a 0f 3f
       0.24111246 0.34320998 0.083082855 0.560707
000240 04 3d 18 bd f8 c1 4a be 61 74 01 3e 95 b1 92 be
       -0.037167564 -0.19800556 0.12642051 -0.2865111
000250 67 46 ba 3c 55 53 04 bc 26 12 8d 3b cf 44 78 3d
       0.022738649 -0.0080765085 0.004305142 0.060612496
000260 9d 6f 9e be f8 4d d7 be 43 f9 bf be 1d 12 47 bd
       -0.3094453 -0.42051673 -0.3749486 -0.04860126
000270 0c 55 bd bd 02 39 81 be 69 24 9f bd 1b fd c0 3e
       -0.09244737 -0.25238806 -0.077706166 0.37693104
000280 b6 54 ad 3c 21 42 b7 3e 70 9f 00 3e fc 6f a5 3d
       0.021158557 0.3579264 0.1256082 0.08078
000290 d3 cb ce bf a3 28 3b 3e 10 60 ee 3d d6 8b 6c bf
       -1.6155952 0.1827722 0.11639416 -0.9240087
0002a0 40 92 8d be 99 6b 97 bf f7 be 76 3c fd 25 80 be
       -0.27650642 -1.1829711 0.015060178 -0.25028983
0002b0 26 de 86 3f 79 5d 94 bf 4e a0 01 3e 76 19 51 3d
       1.0536544 -1.1591026 0.12658808 0.051049672
0002c0 f2 5e 1a be e2 10 ba bd 32 64 04 bd 0e fd aa 3d
       -0.15075281 -0.090852514 -0.032322116 0.083490476
0002d0 ba 51 8a be 91 a8 14 3e a6 ff 8a bf 76 27 8c bd
       -0.27015477 0.14517428 -1.0859268 -0.06843464
0002e0 55 03 2f bd 64 ea 98 bc de 08 58 bc d2 fe f9 bc
       -0.042727787 -0.018666454 -0.013185708 -0.030517016
0002f0 6d 73 ca ba 65 cb 4d bd bf 6d 11 3e b3 55 07 bf
       -0.0015445777 -0.0502428 0.14202021 -0.5286514
000300 c7 80 97 be 07 5a 24 3b c7 d5 7c bd 3d 15 9b 3c
       -0.29590437 0.0025078075 -0.06172731 0.018931026
000310 a0 49 1d 3e 73 6a c3 3e da a1 34 3c 97 12 42 be
       0.15360117 0.38167152 0.011024917 -0.18952404
000320 f2 81 6c be ff 10 b0 3d 17 8a 12 3e 7d a6 13 3e
       -0.23096445 0.08596992 0.1431049 0.14418979
000330 83 8c ea bc b0 af bd bc 7d ee d6 3d 5b 3d 40 3d
       -0.028631454 -0.023155063 0.10494707 0.046933513
000340 82 9e de 3d dc d5 68 3e 74 1f 8f 3e 4b fe 3f 3e
       0.10870077 0.22737831 0.27953684 0.18749349
000350 c2 74 58 bf 12 5c a0 3e aa c7 6a 3e b4 59 be 3c
       -0.8455316 0.31320244 0.22927728 0.023236133
000360 de ef f8 bd 32 c4 16 3d 13 98 04 bf 8f 00 1c bf
       -0.12155126 0.0368082 -0.51794547 -0.6093835
000370 c4 bb a3 be 4d cf 7e 3e cc da 92 be ff b9 6f be
       -0.3197919 0.24883766 -0.28682554 -0.23410796
000380 67 45 7b bd 20 c1 de 3d 30 c3 71 be 7b ee 92 3d
       -0.061345484 0.108766794 -0.23609614 0.07174393
000390 2a db f4 bd f7 59 5d 3d 2b c0 b7 3d cd 96 4d bd
       -0.11955865 0.054040875 0.089722 -0.050192643
0003a0 1e 65 69 bf 28 5b b6 3e 18 c3 8b bd e9 2e 69 be
       -0.9116992 0.35616422 -0.068243206 -0.22771801
0003b0 6d 50 af be ee af 88 be 45 84 3b 3d f8 c2 bc 3e
       -0.34241048 -0.26696724 0.04578044 0.368675
0003c0 be fb c8 bf d1 83 bb 3d b9 1e 0c bd 76 2d 9f 3d
       -1.5701826 0.09156001 -0.034208987 0.07772343
0003d0 a4 81 08 be d9 2d d4 3d 29 60 6d 3d 88 47 f1 3d
       -0.13330704 0.10360307 0.057953034 0.11781222
0003e0 72 29 e1 be 67 3a 0f 3e a5 ff ed 3d d7 df 03 3e
       -0.43976933 0.13987122 0.11621026 0.12878357
0003f0 01 11 ba 3d b1 c1 c7 bd c2 a4 65 bf 9e 09 a1 be
       0.090852745 -0.097537406 -0.89704525 -0.3145265

arith.constant7 f4 [128, 64]
000000 05 50 9e 3e 31 e3 46 3e e9 d8 2b 3e 36 22 1c bf
       0.30920425 0.19422604 0.16781963 -0.609897
000010 ba b4 d0 bd ee db 6f 3e 13 43 19 3f 7d 95 83 3d
       -0.10190721 0.2342374 0.5986797 0.06424997
000020 49 b8 b1 3d 58 d4 94 3d d4 da 20 3f 8d a9 51 3e
       0.08677728 0.07267064 0.62833905 0.20474835
000030 04 c5 b3 bc cf 49 46 be 77 97 ba be 6a 2b de bc
       -0.02194453 -0.19364093 -0.36443684 -0.02712031
000040 de e2 e3 3e f9 4b da bf 8b 0d 67 bd fa 2a 85 3d
       0.44509023 -1.7054435 -0.0564094 0.06502338
000050 64 bd 95 3e aa d5 88 be 98 7d d4 be e9 b4 37 bf
       0.29246056 -0.26725513 -0.4150207 -0.7176042
000060 ff 27 1a bf 82 07 8c 3e 55 c5 c8 bf 0d 14 00 3e
       -0.6021728 0.27349478 -1.5685221 0.12507649
000070 90 6b d9 bd eb 68 c6 be 1d 7f 59 3b 93 be 75 3d
       -0.10616219 -0.3875192 0.0033187338 0.0599962
000080 51 98 85 be 72 de fe bd 98 86 18 3f cf ef fb 3d
       -0.2609277 -0.12444772 0.59580374 0.12301599
000090 4b fa b8 3e f3 85 d1 bd 98 1c a3 bf 96 11 bb be
       0.36128458 -0.10230627 -1.2743101 -0.36536855
0000a0 6e 85 44 3d 14 da 30 3e 91 c2 80 be 3a e1 19 3d
       0.04797881 0.1727069 -0.25148442 0.03756831
0000b0 79 54 27 bf 82 a8 aa be fc 58 4e 3e f9 44 73 3e
       -0.6536327 -0.33331686 0.20151132 0.2375678
0000c0 9a 8c f3 bc d8 e6 84 3e 00 29 b9 3d c3 62 a4 bd
       -0.02973013 0.2595737 0.09041023 -0.0802665
0000d0 3c 26 66 bf 39 6e 61 be 66 19 cf 3d 9f 37 3f bd
       -0.8990209 -0.22014703 0.10112266 -0.046683904
0000e0 8a be 7b be 26 ce b6 3e e3 64 1d bf 6b 26 b6 bf
       -0.24584404 0.35704154 -0.61482066 -1.4230474
0000f0 44 27 58 bd b7 12 a7 be 48 34 f1 3e da 73 33 bf
       -0.05277182 -0.32631466 0.471102 -0.7009865
000100 05 20 63 bd 4f ac f6 be ba 6f 1d 3d 0b 7f f6 3e
       -0.055450458 -0.48178336 0.03843663 0.481438
000110 5f 80 f3 bc 3e b9 87 bd ac 84 33 bf 45 e3 cc be
       -0.029724298 -0.06627129 -0.70124316 -0.40017143
000120 22 38 f3 3d ca ba 88 bf ec 32 dc 3e 8d d0 0c bd
       0.11875941 -1.0682003 0.430076 -0.034378577
000130 2a 5f 4d be 3f 48 a0 3e 95 b9 ab bd d7 4b 80 3e
       -0.20055833 0.3130512 -0.08385006 0.2505786
000140 d9 bc c6 3d 55 eb 48 be 62 33 05 be 29 8a 32 bf
       0.097039886 -0.19621022 -0.13007882 -0.69742066
000150 64 51 c0 3e b6 50 e5 be 7c fb 32 be bd 4f 9f 3e
       0.37562096 -0.4478814 -0.17478746 0.31115523
000160 b4 5b b1 3e c0 79 00 bf ac 48 86 be 8b 53 2c be
       0.34640276 -0.50185776 -0.2622732 -0.16828744
000170 5d 44 6e 3e 44 48 e1 be 2a 1a a9 bd 52 41 e1 bd
       0.23268266 -0.44000447 -0.082569435 -0.10998787
000180 69 96 00 3e c4 8a 40 3d 46 1b d1 3e f3 fe 28 3d
       0.12557377 0.047007337 0.4084112 0.041258764
000190 05 87 80 bd 16 b4 13 3e e6 b1 9f be b1 20 ff be
       -0.06275753 0.14424166 -0.31190413 -0.4982963
0001a0 a7 c7 8d 3e f0 d5 c1 3e f0 6d 02 3e b0 92 6a 3d
       0.27691385 0.37858534 0.1273725 0.0572688
0001b0 d2 0c d4 be 4c 82 73 3e 95 7e 9e bf c5 dd cf 3d
       -0.4141603 0.23780173 -1.238238 0.10149721
0001c0 a8 fd 82 3e f0 0f ad 3c 1c bc 81 bf c6 c7 b2 3e
       0.2558415 0.021125764 -1.0135531 0.3491804
0001d0 b3 8b 1a 3f 58 df 13 bf 7f 82 c0 3e 41 d2 6d bf
       0.60369414 -0.5776267 0.3759956 -0.92898947
0001e0 ed 6c f5 3d 3b e2 6b 3d 75 20 8d 3d 71 b7 8c 3e
       0.119836666 0.057588797 0.06890956 0.27483705
0001f0 46 9c c7 3d 61 80 83 be dd 8b 07 3e 0f d8 81 be
       0.09746604 -0.25683883 0.13236947 -0.25360152
000200 33 3e 84 be 07 50 a8 be 59 fe 4a bd 46 cc 01 3e
       -0.25828704 -0.32873556 -0.04955897 0.1267558
000210 3a c4 ba 3e 36 b6 fa bd a2 06 9d be 2b df af bb
       0.36477834 -0.12241785 -0.30669123 -0.00536718
000220 a7 ff bf 3d e9 fa ef 3e c3 41 c2 be 38 75 3b be
       0.09374934 0.46871117 -0.37940797 -0.18306434
000230 6e 33 7f bf 5a 66 cc be 99 12 9a 3e 48 e6 e9 bd
       -0.9968785 -0.39921838 0.30092314 -0.11420876
000240 f8 01 8b bd 4e bc f0 bc aa 22 0c 3d da 45 93 3d
       -0.06787485 -0.029386666 0.034212746 0.071910575
000250 41 2e f9 bb de 00 e1 bd a6 85 a5 3d 0c 95 84 3e
       -0.007604391 -0.109864935 0.08082132 0.25894964
000260 fc 04 46 bf 05 96 29 be ea 35 82 bd 77 01 45 bf
       -0.77351356 -0.16561134 -0.063579395 -0.7695536
000270 8b 44 40 3e 4a b3 6d 3d 33 f0 03 3e 5c 64 b9 bd
       0.18776147 0.05803231 0.12884597 -0.09052345
000280 81 7f ba 3d 70 49 36 3e c4 0d cd be b5 82 42 3e
       0.09106351 0.17801452 -0.40049565 0.18995173
000290 c5 74 b2 bd 2f 39 99 3d de c3 e0 3c 7d 58 9d bf
       -0.08713678 0.0748161 0.027437147 -1.229263
0002a0 79 f8 f5 bd 36 98 06 3e c5 54 ad 3e 57 f3 9d 3e
       -0.12010283 0.13144001 0.33853737 0.30849716
0002b0 3d 89 21 bc 6d 64 48 3e 61 0b b0 bd 72 4e 9a bf
       -0.00985938 0.1956956 -0.0859592 -1.205519
0002c0 7c 57 3c be c9 9e 13 3e d1 33 a1 be 7b 52 84 bd
       -0.18392748 0.1441604 -0.31484845 -0.064610444
0002d0 93 ef be 3e ef 31 c7 3c cb 5e 0c 3f f8 03 9d be
       0.37292156 0.024315802 0.5483214 -0.3066709
0002e0 45 34 94 3e 29 8c 20 3c 83 25 50 be 54 5e 28 3f
       0.28946128 0.009799042 -0.2032681 0.65768933
0002f0 f6 47 52 be 7d 7d ae 3e 68 a8 ca 3e 39 cd 0c 3f
       -0.20535263 0.34080115 0.3958161 0.55000645
000300 64 34 5a be 30 1a da 3d 90 ed e5 be 55 e7 f8 be
       -0.21309048 0.10649526 -0.44907808 -0.48613992
000310 41 95 e3 3c c7 11 31 be 90 db 0b be de 65 82 3e
       0.02778113 -0.17291938 -0.13657975 0.25468343
000320 c2 a0 28 3e 66 e4 22 3f 9c d7 7d 3e 8c fb 23 be
       0.16467574 0.6362976 0.2478928 -0.16013926
000330 42 02 fc 3d c3 e8 cb be d0 67 83 bc e4 aa ad 3e
       0.12305118 -0.3982602 -0.016040713 0.33919442
000340 8e a7 88 3e df 0f 66 be b2 89 4c 3e 2b 35 f4 bd
       0.26690334 -0.22466992 0.19974402 -0.119242035
000350 e1 4c b5 3b da 8a 44 bd 9e db 19 3e ab bf ae 3e
       0.0055328463 -0.04798398 0.15025184 0.34130606
000360 ba c9 3b 3d 4d b6 ae 3e f9 2c a4 bd c6 98 35 3f
       0.04584668 0.3412346 -0.0801639 0.7093624
000370 fe ec d9 be de b4 ed bd d7 7a ac bd df 35 27 bf
       -0.42563623 -0.11606763 -0.08421867 -0.65316576
000380 62 90 5e be 6b 33 da 3e 84 f8 9c be 1e 53 84 bd
       -0.21734765 0.42617354 -0.30658352 -0.06461166
000390 dd ae 7e bf 82 90 85 3e 1c d7 25 3e af 31 20 3f
       -0.9948557 0.26086813 0.16195339 0.6257581
0003a0 ea dd 86 be 89 ea 41 3e 7b a6 87 3e 73 5f 4c 3e
       -0.26341182 0.18937124 0.26494202 0.19958286
0003b0 cb 0d 4c 3e ab 2a e7 3e db db fc be 17 c0 04 3d
       0.19927137 0.4514974 -0.49386486 0.032409754
0003c0 38 71 91 bd 92 e3 66 bf 42 b0 04 bf c1 eb b3 be
       -0.07101673 -0.90190995 -0.5183145 -0.35140803
0003d0 8a e5 0a 3d b5 15 83 3d 55 d8 08 3d 41 13 a3 bc
       0.03391031 0.06400625 0.033409435 -0.019906642
0003e0 ed 5c 2c bd 72 b0 84 bf 36 ad e5 be d5 37 0e bb
       -0.04208081 -1.0366347 -0.44858712 -0.002170076
0003f0 99 fb 9f be 9b cf de bd 00 54 f0 be 96 1c 76 3d
       -0.3124664 -0.10879441 -0.46939087 0.060085855

arith.constant8 f4 [1, 1, 64]
000000 28 e5 c4 be d2 5a 4c bf 05 0e 88 bd 42 35 18 bf
       -0.38456082 -0.7982608 -0.06643299 -0.59456265
000010 c3 bf b2 be 54 37 f7 be 76 61 9b bf 18 81 6c bf
       -0.34911928 -0.482844 -1.2139118 -0.9238448
000020 80 14 41 bf e9 bf 63 be 7c 93 a1 3d 69 1f 98 3d
       -0.75421906 -0.22241177 0.078894585 0.07427866
000030 fa e1 16 bf 61 f7 00 bf 8f 15 3c be 79 f8 0d 3e
       -0.5893856 -0.5037747 -0.18367599 0.13864316
000040 40 e8 3d bf 15 d2 73 3d ff 2a 30 bf 00 55 83 bc
       -0.7418251 0.05952652 -0.68815607 -0.016031742
000050 06 32 f0 bd 7d d6 f2 be 5e 60 8e 3c 82 c6 f6 3d
       -0.11728291 -0.47429267 0.017379936 0.12049581
000060 6a 7a e9 bd e3 da 32 bf c0 c2 80 bf 07 fd c8 be
       -0.11400302 -0.69865245 -1.0059433 -0.39255545
000070 f7 f8 05 bf f2 5c 02 bf 78 e2 54 bf 9e eb a5 be
       -0.52333015 -0.50923073 -0.83158064 -0.32406324
000080 b7 5e 92 3d d8 3f 75 bf fa d6 08 bf c6 42 86 be
       0.07146972 -0.9580054 -0.5345303 -0.2622282
000090 a6 b9 2f bf 9d d7 32 be bd 61 72 bd 44 30 b0 bf
       -0.6864265 -0.17465062 -0.05917524 -1.376473
0000a0 7f 35 45 be f5 3d 51 be 3f 51 fc be 39 4e 22 bf
       -0.19258688 -0.20433791 -0.49280736 -0.6340061
0000b0 85 20 b2 be 83 08 9f be f6 9f 8b bf d0 1f 5a be
       -0.34790435 -0.3106118 -1.0908191 -0.21301198
0000c0 bd e6 20 bf 8f ce 23 bf c3 86 25 bf 1c d2 13 bf
       -0.6285208 -0.6398706 -0.64658755 -0.57742476
0000d0 65 7b 30 bf fb 85 97 be 7f ed 84 bf b8 9f ef bc
       -0.68938285 -0.29594406 -1.0384978 -0.029250965
0000e0 c6 04 d1 be 9f 10 02 be f1 d5 49 be 05 55 8b be
       -0.40823954 -0.12701653 -0.19710518 -0.27213302
0000f0 11 31 9e bf 06 4b 54 bf 94 ae 94 be a6 db 5c be
       -1.2358724 -0.82926977 -0.29039443 -0.21568164

arith.constant9 f4 [1, 1, 64]
000000 9b 4e 47 be db 9a ec 3e 3b 07 4d 3e d6 95 6f be
       -0.1946358 0.46211895 0.2002229 -0.23397002
000010 94 08 ce 3e 64 c4 31 3f 3c f0 43 bf f9 e8 fc 3e
       0.4024092 0.69440293 -0.76538444 0.49396494
000020 1c 4b 91 be 2a 4b 9b 3f 51 5f e1 bd c5 05 22 bf
       -0.28377616 1.2132313 -0.11004508 -0.63290054
000030 17 0a f9 be a9 6b 15 bd 77 a8 ac 3e 55 9b 96 3e
       -0.4864051 -0.036479626 0.33722278 0.29415384
000040 d7 30 a5 bc 54 ff 07 be 4a 1b 98 bf 17 b6 0e bf
       -0.02016489 -0.13280994 -1.1883328 -0.557466
000050 f2 ef b1 3e 29 c3 e3 be 03 a4 22 bf f1 66 01 3e
       0.34753376 -0.44484833 -0.6353151 0.12636925
000060 31 3a 41 be c4 03 03 3f d6 e0 15 be ca 90 ad 3e
       -0.18869855 0.5117762 -0.1463655 0.33899528
000070 94 5d 03 3e c6 d7 9b be 95 4a 2f bf 48 27 41 3d
       0.12828666 -0.3043806 -0.6847318 0.047156602
000080 6e ce 81 be 0b d1 39 3f 53 cc 1e bd ca 89 ad be
       -0.25352806 0.725846 -0.038769078 -0.33894187
000090 81 10 24 3e 52 70 2b 3f c5 06 19 3f 9f 5a 1d 3f
       0.1602192 0.6696826 0.59775954 0.614664
0000a0 b5 1f 26 be 96 0f 58 3e 14 b8 66 3e c8 4a 45 3f
       -0.16223033 0.21099696 0.22531158 0.7706723
0000b0 21 55 71 3e e8 b9 45 be 01 95 29 be 8d 52 80 bf
       0.2356763 -0.19309199 -0.16560747 -1.0025192
0000c0 5e 5f 56 be 5f 24 9d bd 3e 0b 3f bf 6f a5 9c 3e
       -0.20934817 -0.07672953 -0.7462653 0.30594966
0000d0 c6 c3 0a bf fb 04 1f bf 52 dd b0 be f9 54 1c be
       -0.54204977 -0.62116975 -0.34543854 -0.1526679
0000e0 bb 50 02 bf 40 80 c1 3e fb b4 e6 bd aa 3c 9d 3e
       -0.50904435 0.3779316 -0.11264988 0.30710346
0000f0 17 8b 50 bd cf 94 24 3f e6 36 02 bf f9 20 86 3e
       -0.050913896 0.64289564 -0.5086502 0.2619703

arith.constant10 f4 [21]
000000 c9 db 52 3d fe 05 28 c0 af f5 df 3e e2 26 e3 3d
       0.051479135 -2.6253657 0.4374213 0.11091401
000010 2a b2 0c be 1a e7 1f bd b9 bf b4 be b9 ca 92 be
       -0.13739839 -0.039038755 -0.35302523 -0.2867029
000020 ca 83 4f 3e 71 fe 8c bd 3a 4b 21 3e 34 08 06 be
       0.20265117 -0.06884468 0.15751353 -0.13089067
000030 d6 e3 43 3e 5e 39 dc 3e c7 ca b8 3e 7d b7 32 be
       0.19129881 0.43012518 0.36092207 -0.17452808
000040 68 4b 99 be f5 ad 27 be 8c 98 9a 3e 46 2d 84 3e
       -0.29940343 -0.16374953 0.3019451 0.2581579
000050 3c c6 6a be
       -0.22927183

arith.constant11 f4 [128]
000000 6c 45 04 3e 72 0d 66 bc b8 99 9c be fa b9 95 be
       0.12917107 -0.014041292 -0.30586028 -0.2924345
000010 c3 6e b6 be 80 7b 16 be ea 7a 8a 3e f9 72 05 3e
       -0.3563138 -0.14695549 0.270469 0.1303214
000020 54 98 6e 3d 9e 00 a1 be b3 11 ab be ba 13 46 3e
       0.05825074 -0.31445783 -0.3341194 0.19343463
000030 f8 e3 c9 be ca 37 3f 3d ec dc 88 3e 77 1b 6d be
       -0.3943174 0.046684064 0.2673105 -0.23155008
000040 53 b0 56 be 29 cd 53 be 88 77 3e bd 0c b9 9a be
       -0.209657 -0.20683731 -0.046500713 -0.30219305
000050 c5 4c 1e be de f5 56 3d b4 9c 7b be 5f 22 2e bd
       -0.15458973 0.05248057 -0.24571496 -0.042513248
000060 42 76 b5 3e 98 64 be 3c 33 f5 3d 3e 50 80 1e be
       0.35441786 0.023241326 0.18550567 -0.15478635
000070 cc d8 93 3e 99 c2 22 bd a1 78 02 3d 7f 11 0d 3e
       0.2887634 -0.039736364 0.031853322 0.13776205
000080 db 19 82 be 8d 87 d7 bb 05 5d 8d 3e cf 37 b3 bd
       -0.2541035 -0.006577438 0.2761003 -0.08750879
000090 1c 05 1b bd 70 d9 03 be 42 99 9b be 97 d7 90 bc
       -0.03784667 -0.12875915 -0.30390364 -0.017680926
0000a0 b4 99 09 bf 1b 81 c4 be b0 fb 91 bc 12 d7 4b 3e
       -0.5375016 -0.3837975 -0.01782021 0.19906262
0000b0 d5 78 0c 3e d5 c1 2b 3e 14 30 33 be ae 7a 8a bc
       0.13717969 0.1677316 -0.17498809 -0.016904201
0000c0 47 21 31 bc d5 d9 b2 be 88 42 95 3e cf c5 12 3e
       -0.010811157 -0.34931818 0.29152322 0.1433327
0000d0 7d ec 40 3e 4a cd a8 be 75 8a 60 be 86 6f 4d be
       0.18840213 -0.32969123 -0.21927817 -0.20062074
0000e0 a7 b3 39 3e ff 3f 99 3e 61 73 ed 3d 15 4a 5a be
       0.18134938 0.29931638 0.115942724 -0.21317323
0000f0 60 7b 60 be 94 0b 2b 3d 2c 30 d2 bc 2b 4e 01 3f
       -0.21922064 0.04175909 -0.025657736 0.505099
000100 c4 f7 a0 be 13 97 0a 3e e2 99 85 be da 9d 84 bd
       -0.3143903 0.13534193 -0.26093966 -0.0647542
000110 7a a9 9f bd e0 b7 2c 3c 87 1a 2b bd 76 f1 24 3e
       -0.07795997 0.010541886 -0.041773345 0.16107735
000120 63 5f 56 be 49 02 39 be c8 92 87 be da cb 92 3c
       -0.20934825 -0.18067278 -0.26479173 0.01791947
000130 d7 f1 e2 be 06 ee 64 3c a5 bc 31 3e 6f 5f 30 be
       -0.44325134 0.013972765 0.17357118 -0.17223905
000140 4c 29 3a bf 1a d1 82 bd 37 1d 5e bd b5 bf e3 be
       -0.72719264 -0.06387539 -0.05422708 -0.44482198
000150 a3 98 5a 3e 64 35 6c bd 62 ec be be 97 c4 04 3f
       0.21347289 -0.057668105 -0.3728972 0.5186247
000160 e5 89 aa 3d f6 73 2a 3d 52 2a c8 3e 32 be 85 bd
       0.083270825 0.041614495 0.39094788 -0.065304175
000170 19 90 02 3e 6e e9 e0 be 22 11 fe bd 46 9f 83 be
       0.12750281 -0.43928093 -0.124056116 -0.25707453
000180 5e 1c ad 3e 30 bf 30 be da 5e d1 bc 53 a4 1b be
       0.33810705 -0.17260432 -0.025557924 -0.15199403
000190 92 a0 61 3e 00 50 a8 be f8 17 b2 3e 8b c9 3b bf
       0.22033909 -0.32873535 0.34783912 -0.73354405
0001a0 2b 2a d3 3d 5b 26 99 bb 34 43 c5 bc dc e6 3f 3b
       0.10310777 -0.004673762 -0.024079897 0.002928189
0001b0 58 44 7f bc 8b 01 e4 bc 13 a8 7e bc 31 a8 75 3e
       -0.015580259 -0.027832767 -0.015543002 0.23989941
0001c0 55 b7 d9 bd 43 24 fe 3d 97 f6 4b 3e ee ba 8a 3d
       -0.10630671 0.1240926 0.19918285 0.06773935
0001d0 ad ce c5 be b8 96 ac 3d de f2 1e be af 3e 27 be
       -0.38634244 0.08427185 -0.15522334 -0.16332506
0001e0 a8 4a d3 be 1b f2 f7 bc f1 31 0a bd 73 73 31 be
       -0.41267896 -0.030266812 -0.033739034 -0.17329197
0001f0 89 ea 5e be f6 4e c6 3e fe 90 03 bd 9b 6c 4f 3d
       -0.21769156 0.38732117 -0.032120697 0.050640684

arith.constant12 f4 [64]
000000 1e 4c 98 3f f8 a0 19 3f 05 5b 27 3f 44 ac 16 3f
       1.1898229 0.60011244 0.6537326 0.58856606
000010 17 a5 1e 3f 04 30 7c 3f ed db ee 3e 52 4b 55 3f
       0.6197066 0.98510766 0.46652165 0.83318055
000020 7b e3 0d 3f 21 5e 8f 3f be 56 14 3f df fe 10 3f
       0.5542523 1.1200601 0.5794486 0.566389
000030 e0 02 35 3f bc df 28 3f 22 14 07 3f 78 76 ab 3e
       0.7070751 0.6596639 0.52765095 0.33488822
000040 a6 1e 31 3f 6b e5 58 3f a6 22 19 3f 97 e9 01 3e
       0.6918739 0.84725064 0.59818494 0.12686764
000050 dc 99 f4 3e d5 a4 8d 3f 5b 46 90 3f 9b ef 5d 3e
       0.47773635 1.1065928 1.1271471 0.21673433
000060 f6 05 6f 3e fd 16 51 3f b5 8a d3 3e 2a bb 6b 3f
       0.23342118 0.816757 0.41316763 0.92082465
000070 60 ad 35 3f 65 26 79 3e 92 39 90 3f 5a d5 36 3e
       0.70967674 0.24331053 1.1267569 0.17854825
000080 3d ca 2f 3f 40 29 08 3f 0b df cd 3e cf 03 88 3f
       0.68667966 0.5318794 0.4020923 1.0626162
000090 a3 7b 34 3e cd 55 07 3f 1e b1 7f 3f 30 5c a1 3f
       0.17625289 0.52865297 0.99879634 1.2606258
0000a0 fa 63 cd 3e f4 29 f1 3e 56 b7 78 3f ca 12 9c 3e
       0.4011534 0.4710232 0.9715475 0.30483085
0000b0 60 f0 b9 3c da 23 15 3f e5 2e 7c 3f 29 6a 55 3f
       0.022697628 0.5825783 0.98509055 0.8336511
0000c0 ce ed 78 3f a8 56 9b 3e e6 e7 01 3f 16 fa 55 3e
       0.9723786 0.3033955 0.50744474 0.20896181
0000d0 fb 52 84 be 5b 2b df 3e 2f 75 9d 3f 92 7d 2e 3f
       -0.2584456 0.43587765 1.2301387 0.68160355
0000e0 c1 a5 bd 3e df a6 24 3f 3f 2a 8e 3f 7c f5 44 3f
       0.37040523 0.64317125 1.1106642 0.7693708
0000f0 78 47 1c 3f 6d e2 cf 3e 70 8f ab 3e 9c 3c 5e 3f
       0.6104655 0.40602437 0.33507872 0.8681123
